// -----// IR Dump Before Inliner (inline) ('builtin.module' operation) //----- //
#loc = loc("/root/workspace/dsl-lab/triton/matmul/03-matrix-multiplication.py":233:0)
#loc86 = loc("/opt/venv/lib/python3.11/site-packages/triton/language/standard.py":34:0)
#loc95 = loc("a_ptr"(#loc))
#loc96 = loc("b_ptr"(#loc))
#loc97 = loc("c_ptr"(#loc))
#loc98 = loc("M"(#loc))
#loc99 = loc("N"(#loc))
#loc100 = loc("K"(#loc))
#loc101 = loc("stride_am"(#loc))
#loc102 = loc("stride_bk"(#loc))
#loc103 = loc("stride_cm"(#loc))
#loc172 = loc("x"(#loc86))
module {
  tt.func public @matmul_kernel(%a_ptr: !tt.ptr<f16> {tt.divisibility = 16 : i32, tt.pointer_range = 32 : i32} loc("a_ptr"(#loc)), %b_ptr: !tt.ptr<f16> {tt.divisibility = 16 : i32, tt.pointer_range = 32 : i32} loc("b_ptr"(#loc)), %c_ptr: !tt.ptr<f16> {tt.divisibility = 16 : i32, tt.pointer_range = 32 : i32} loc("c_ptr"(#loc)), %M: i32 {tt.divisibility = 16 : i32} loc("M"(#loc)), %N: i32 {tt.divisibility = 16 : i32} loc("N"(#loc)), %K: i32 {tt.divisibility = 16 : i32} loc("K"(#loc)), %stride_am: i32 {tt.divisibility = 16 : i32} loc("stride_am"(#loc)), %stride_bk: i32 {tt.divisibility = 16 : i32} loc("stride_bk"(#loc)), %stride_cm: i32 {tt.divisibility = 16 : i32} loc("stride_cm"(#loc))) attributes {noinline = false} {
    %pid = tt.get_program_id x : i32 loc(#loc104)
    %num_pid_m = tt.call @triton.language.standard.cdiv__i32_c64(%M) : (i32) -> i32 loc(#loc105)
    %num_pid_n = tt.call @triton.language.standard.cdiv__i32_c32(%N) : (i32) -> i32 loc(#loc106)
    %num_pid_in_group = arith.constant 4 : i32 loc(#loc107)
    %num_pid_in_group_0 = arith.constant 4 : i32 loc(#loc107)
    %num_pid_in_group_1 = arith.extsi %num_pid_in_group_0 : i32 to i64 loc(#loc107)
    %num_pid_in_group_2 = arith.extsi %num_pid_n : i32 to i64 loc(#loc107)
    %num_pid_in_group_3 = arith.muli %num_pid_in_group_1, %num_pid_in_group_2 : i64 loc(#loc107)
    %num_pid_in_group_4 = arith.constant 2147483647 : i64 loc(#loc107)
    %num_pid_in_group_5 = arith.constant -2147483648 : i64 loc(#loc107)
    %num_pid_in_group_6 = arith.cmpi sle, %num_pid_in_group_3, %num_pid_in_group_4 : i64 loc(#loc107)
    %num_pid_in_group_7 = arith.cmpi sge, %num_pid_in_group_3, %num_pid_in_group_5 : i64 loc(#loc107)
    %num_pid_in_group_8 = arith.andi %num_pid_in_group_6, %num_pid_in_group_7 : i1 loc(#loc107)
    %num_pid_in_group_9 = arith.muli %num_pid_in_group_0, %num_pid_n : i32 loc(#loc107)
    %group_id = arith.divsi %pid, %num_pid_in_group_9 : i32 loc(#loc108)
    %first_pid_m = arith.constant 4 : i32 loc(#loc109)
    %first_pid_m_10 = arith.constant 4 : i32 loc(#loc109)
    %first_pid_m_11 = arith.extsi %group_id : i32 to i64 loc(#loc109)
    %first_pid_m_12 = arith.extsi %first_pid_m_10 : i32 to i64 loc(#loc109)
    %first_pid_m_13 = arith.muli %first_pid_m_11, %first_pid_m_12 : i64 loc(#loc109)
    %first_pid_m_14 = arith.constant 2147483647 : i64 loc(#loc109)
    %first_pid_m_15 = arith.constant -2147483648 : i64 loc(#loc109)
    %first_pid_m_16 = arith.cmpi sle, %first_pid_m_13, %first_pid_m_14 : i64 loc(#loc109)
    %first_pid_m_17 = arith.cmpi sge, %first_pid_m_13, %first_pid_m_15 : i64 loc(#loc109)
    %first_pid_m_18 = arith.andi %first_pid_m_16, %first_pid_m_17 : i1 loc(#loc109)
    %first_pid_m_19 = arith.muli %group_id, %first_pid_m_10 : i32 loc(#loc109)
    %group_size_m = arith.extsi %num_pid_m : i32 to i64 loc(#loc110)
    %group_size_m_20 = arith.extsi %first_pid_m_19 : i32 to i64 loc(#loc110)
    %group_size_m_21 = arith.subi %group_size_m, %group_size_m_20 : i64 loc(#loc110)
    %group_size_m_22 = arith.constant 2147483647 : i64 loc(#loc110)
    %group_size_m_23 = arith.constant -2147483648 : i64 loc(#loc110)
    %group_size_m_24 = arith.cmpi sle, %group_size_m_21, %group_size_m_22 : i64 loc(#loc110)
    %group_size_m_25 = arith.cmpi sge, %group_size_m_21, %group_size_m_23 : i64 loc(#loc110)
    %group_size_m_26 = arith.andi %group_size_m_24, %group_size_m_25 : i1 loc(#loc110)
    %group_size_m_27 = arith.subi %num_pid_m, %first_pid_m_19 : i32 loc(#loc110)
    %group_size_m_28 = arith.constant 4 : i32 loc(#loc111)
    %group_size_m_29 = arith.minsi %group_size_m_27, %group_size_m_28 : i32 loc(#loc111)
    %pid_m = arith.remsi %pid, %num_pid_in_group_9 : i32 loc(#loc112)
    %pid_m_30 = arith.remsi %pid_m, %group_size_m_29 : i32 loc(#loc113)
    %pid_m_31 = arith.extsi %first_pid_m_19 : i32 to i64 loc(#loc114)
    %pid_m_32 = arith.extsi %pid_m_30 : i32 to i64 loc(#loc114)
    %pid_m_33 = arith.addi %pid_m_31, %pid_m_32 : i64 loc(#loc114)
    %pid_m_34 = arith.constant 2147483647 : i64 loc(#loc114)
    %pid_m_35 = arith.constant -2147483648 : i64 loc(#loc114)
    %pid_m_36 = arith.cmpi sle, %pid_m_33, %pid_m_34 : i64 loc(#loc114)
    %pid_m_37 = arith.cmpi sge, %pid_m_33, %pid_m_35 : i64 loc(#loc114)
    %pid_m_38 = arith.andi %pid_m_36, %pid_m_37 : i1 loc(#loc114)
    %pid_m_39 = arith.addi %first_pid_m_19, %pid_m_30 : i32 loc(#loc114)
    %pid_n = arith.remsi %pid, %num_pid_in_group_9 : i32 loc(#loc115)
    %pid_n_40 = arith.divsi %pid_n, %group_size_m_29 : i32 loc(#loc116)
    %c0_i32 = arith.constant 0 : i32 loc(#loc14)
    %0 = arith.cmpi sge, %pid_m_39, %c0_i32 : i32 loc(#loc14)
    llvm.intr.assume %0 : i1 loc(#loc15)
    %c0_i32_41 = arith.constant 0 : i32 loc(#loc16)
    %1 = arith.cmpi sge, %pid_n_40, %c0_i32_41 : i32 loc(#loc16)
    llvm.intr.assume %1 : i1 loc(#loc17)
    %c0_i32_42 = arith.constant 0 : i32 loc(#loc18)
    %2 = arith.cmpi sgt, %stride_am, %c0_i32_42 : i32 loc(#loc18)
    llvm.intr.assume %2 : i1 loc(#loc19)
    %true = arith.constant true loc(#loc20)
    llvm.intr.assume %true : i1 loc(#loc20)
    %true_43 = arith.constant true loc(#loc21)
    llvm.intr.assume %true_43 : i1 loc(#loc21)
    %c0_i32_44 = arith.constant 0 : i32 loc(#loc22)
    %3 = arith.cmpi sgt, %stride_bk, %c0_i32_44 : i32 loc(#loc22)
    llvm.intr.assume %3 : i1 loc(#loc23)
    %c0_i32_45 = arith.constant 0 : i32 loc(#loc24)
    %4 = arith.cmpi sgt, %stride_cm, %c0_i32_45 : i32 loc(#loc24)
    llvm.intr.assume %4 : i1 loc(#loc25)
    %true_46 = arith.constant true loc(#loc26)
    llvm.intr.assume %true_46 : i1 loc(#loc26)
    %offs_am = arith.constant 64 : i32 loc(#loc117)
    %offs_am_47 = arith.constant 64 : i32 loc(#loc117)
    %offs_am_48 = arith.extsi %pid_m_39 : i32 to i64 loc(#loc117)
    %offs_am_49 = arith.extsi %offs_am_47 : i32 to i64 loc(#loc117)
    %offs_am_50 = arith.muli %offs_am_48, %offs_am_49 : i64 loc(#loc117)
    %offs_am_51 = arith.constant 2147483647 : i64 loc(#loc117)
    %offs_am_52 = arith.constant -2147483648 : i64 loc(#loc117)
    %offs_am_53 = arith.cmpi sle, %offs_am_50, %offs_am_51 : i64 loc(#loc117)
    %offs_am_54 = arith.cmpi sge, %offs_am_50, %offs_am_52 : i64 loc(#loc117)
    %offs_am_55 = arith.andi %offs_am_53, %offs_am_54 : i1 loc(#loc117)
    %offs_am_56 = arith.muli %pid_m_39, %offs_am_47 : i32 loc(#loc117)
    %offs_am_57 = tt.make_range {end = 64 : i32, start = 0 : i32} : tensor<64xi32> loc(#loc118)
    %offs_am_58 = tt.splat %offs_am_56 : i32 -> tensor<64xi32> loc(#loc119)
    %offs_am_59 = arith.extsi %offs_am_58 : tensor<64xi32> to tensor<64xi64> loc(#loc119)
    %offs_am_60 = arith.extsi %offs_am_57 : tensor<64xi32> to tensor<64xi64> loc(#loc119)
    %offs_am_61 = arith.addi %offs_am_59, %offs_am_60 : tensor<64xi64> loc(#loc119)
    %offs_am_62 = arith.constant 2147483647 : i64 loc(#loc119)
    %offs_am_63 = arith.constant -2147483648 : i64 loc(#loc119)
    %offs_am_64 = arith.constant dense<2147483647> : tensor<64xi64> loc(#loc119)
    %offs_am_65 = arith.cmpi sle, %offs_am_61, %offs_am_64 : tensor<64xi64> loc(#loc119)
    %offs_am_66 = arith.constant dense<-2147483648> : tensor<64xi64> loc(#loc119)
    %offs_am_67 = arith.cmpi sge, %offs_am_61, %offs_am_66 : tensor<64xi64> loc(#loc119)
    %offs_am_68 = arith.andi %offs_am_65, %offs_am_67 : tensor<64xi1> loc(#loc119)
    %offs_am_69 = arith.addi %offs_am_58, %offs_am_57 : tensor<64xi32> loc(#loc119)
    %offs_am_70 = tt.splat %M : i32 -> tensor<64xi32> loc(#loc120)
    %offs_am_71 = arith.remsi %offs_am_69, %offs_am_70 : tensor<64xi32> loc(#loc120)
    %offs_bn = arith.constant 32 : i32 loc(#loc121)
    %offs_bn_72 = arith.constant 32 : i32 loc(#loc121)
    %offs_bn_73 = arith.extsi %pid_n_40 : i32 to i64 loc(#loc121)
    %offs_bn_74 = arith.extsi %offs_bn_72 : i32 to i64 loc(#loc121)
    %offs_bn_75 = arith.muli %offs_bn_73, %offs_bn_74 : i64 loc(#loc121)
    %offs_bn_76 = arith.constant 2147483647 : i64 loc(#loc121)
    %offs_bn_77 = arith.constant -2147483648 : i64 loc(#loc121)
    %offs_bn_78 = arith.cmpi sle, %offs_bn_75, %offs_bn_76 : i64 loc(#loc121)
    %offs_bn_79 = arith.cmpi sge, %offs_bn_75, %offs_bn_77 : i64 loc(#loc121)
    %offs_bn_80 = arith.andi %offs_bn_78, %offs_bn_79 : i1 loc(#loc121)
    %offs_bn_81 = arith.muli %pid_n_40, %offs_bn_72 : i32 loc(#loc121)
    %offs_bn_82 = tt.make_range {end = 32 : i32, start = 0 : i32} : tensor<32xi32> loc(#loc122)
    %offs_bn_83 = tt.splat %offs_bn_81 : i32 -> tensor<32xi32> loc(#loc123)
    %offs_bn_84 = arith.extsi %offs_bn_83 : tensor<32xi32> to tensor<32xi64> loc(#loc123)
    %offs_bn_85 = arith.extsi %offs_bn_82 : tensor<32xi32> to tensor<32xi64> loc(#loc123)
    %offs_bn_86 = arith.addi %offs_bn_84, %offs_bn_85 : tensor<32xi64> loc(#loc123)
    %offs_bn_87 = arith.constant 2147483647 : i64 loc(#loc123)
    %offs_bn_88 = arith.constant -2147483648 : i64 loc(#loc123)
    %offs_bn_89 = arith.constant dense<2147483647> : tensor<32xi64> loc(#loc123)
    %offs_bn_90 = arith.cmpi sle, %offs_bn_86, %offs_bn_89 : tensor<32xi64> loc(#loc123)
    %offs_bn_91 = arith.constant dense<-2147483648> : tensor<32xi64> loc(#loc123)
    %offs_bn_92 = arith.cmpi sge, %offs_bn_86, %offs_bn_91 : tensor<32xi64> loc(#loc123)
    %offs_bn_93 = arith.andi %offs_bn_90, %offs_bn_92 : tensor<32xi1> loc(#loc123)
    %offs_bn_94 = arith.addi %offs_bn_83, %offs_bn_82 : tensor<32xi32> loc(#loc123)
    %offs_bn_95 = tt.splat %N : i32 -> tensor<32xi32> loc(#loc124)
    %offs_bn_96 = arith.remsi %offs_bn_94, %offs_bn_95 : tensor<32xi32> loc(#loc124)
    %offs_k = tt.make_range {end = 64 : i32, start = 0 : i32} : tensor<64xi32> loc(#loc125)
    %a_ptrs = tt.expand_dims %offs_am_71 {axis = 1 : i32} : tensor<64xi32> -> tensor<64x1xi32> loc(#loc126)
    %a_ptrs_97 = tt.splat %stride_am : i32 -> tensor<64x1xi32> loc(#loc127)
    %a_ptrs_98 = arith.extsi %a_ptrs : tensor<64x1xi32> to tensor<64x1xi64> loc(#loc127)
    %a_ptrs_99 = arith.extsi %a_ptrs_97 : tensor<64x1xi32> to tensor<64x1xi64> loc(#loc127)
    %a_ptrs_100 = arith.muli %a_ptrs_98, %a_ptrs_99 : tensor<64x1xi64> loc(#loc127)
    %a_ptrs_101 = arith.constant 2147483647 : i64 loc(#loc127)
    %a_ptrs_102 = arith.constant -2147483648 : i64 loc(#loc127)
    %a_ptrs_103 = arith.constant dense<2147483647> : tensor<64x1xi64> loc(#loc127)
    %a_ptrs_104 = arith.cmpi sle, %a_ptrs_100, %a_ptrs_103 : tensor<64x1xi64> loc(#loc127)
    %a_ptrs_105 = arith.constant dense<-2147483648> : tensor<64x1xi64> loc(#loc127)
    %a_ptrs_106 = arith.cmpi sge, %a_ptrs_100, %a_ptrs_105 : tensor<64x1xi64> loc(#loc127)
    %a_ptrs_107 = arith.andi %a_ptrs_104, %a_ptrs_106 : tensor<64x1xi1> loc(#loc127)
    %a_ptrs_108 = arith.muli %a_ptrs, %a_ptrs_97 : tensor<64x1xi32> loc(#loc127)
    %a_ptrs_109 = tt.expand_dims %offs_k {axis = 0 : i32} : tensor<64xi32> -> tensor<1x64xi32> loc(#loc128)
    %a_ptrs_110 = arith.constant 1 : i32 loc(#loc129)
    %a_ptrs_111 = arith.constant 1 : i32 loc(#loc129)
    %a_ptrs_112 = arith.constant dense<1> : tensor<1x64xi32> loc(#loc129)
    %a_ptrs_113 = arith.extsi %a_ptrs_109 : tensor<1x64xi32> to tensor<1x64xi64> loc(#loc129)
    %a_ptrs_114 = arith.extsi %a_ptrs_112 : tensor<1x64xi32> to tensor<1x64xi64> loc(#loc129)
    %a_ptrs_115 = arith.muli %a_ptrs_113, %a_ptrs_114 : tensor<1x64xi64> loc(#loc129)
    %a_ptrs_116 = arith.constant 2147483647 : i64 loc(#loc129)
    %a_ptrs_117 = arith.constant -2147483648 : i64 loc(#loc129)
    %a_ptrs_118 = arith.constant dense<2147483647> : tensor<1x64xi64> loc(#loc129)
    %a_ptrs_119 = arith.cmpi sle, %a_ptrs_115, %a_ptrs_118 : tensor<1x64xi64> loc(#loc129)
    %a_ptrs_120 = arith.constant dense<-2147483648> : tensor<1x64xi64> loc(#loc129)
    %a_ptrs_121 = arith.cmpi sge, %a_ptrs_115, %a_ptrs_120 : tensor<1x64xi64> loc(#loc129)
    %a_ptrs_122 = arith.andi %a_ptrs_119, %a_ptrs_121 : tensor<1x64xi1> loc(#loc129)
    %a_ptrs_123 = arith.muli %a_ptrs_109, %a_ptrs_112 : tensor<1x64xi32> loc(#loc129)
    %a_ptrs_124 = tt.broadcast %a_ptrs_108 : tensor<64x1xi32> -> tensor<64x64xi32> loc(#loc130)
    %a_ptrs_125 = tt.broadcast %a_ptrs_123 : tensor<1x64xi32> -> tensor<64x64xi32> loc(#loc130)
    %a_ptrs_126 = arith.extsi %a_ptrs_124 : tensor<64x64xi32> to tensor<64x64xi64> loc(#loc130)
    %a_ptrs_127 = arith.extsi %a_ptrs_125 : tensor<64x64xi32> to tensor<64x64xi64> loc(#loc130)
    %a_ptrs_128 = arith.addi %a_ptrs_126, %a_ptrs_127 : tensor<64x64xi64> loc(#loc130)
    %a_ptrs_129 = arith.constant 2147483647 : i64 loc(#loc130)
    %a_ptrs_130 = arith.constant -2147483648 : i64 loc(#loc130)
    %a_ptrs_131 = arith.constant dense<2147483647> : tensor<64x64xi64> loc(#loc130)
    %a_ptrs_132 = arith.cmpi sle, %a_ptrs_128, %a_ptrs_131 : tensor<64x64xi64> loc(#loc130)
    %a_ptrs_133 = arith.constant dense<-2147483648> : tensor<64x64xi64> loc(#loc130)
    %a_ptrs_134 = arith.cmpi sge, %a_ptrs_128, %a_ptrs_133 : tensor<64x64xi64> loc(#loc130)
    %a_ptrs_135 = arith.andi %a_ptrs_132, %a_ptrs_134 : tensor<64x64xi1> loc(#loc130)
    %a_ptrs_136 = arith.addi %a_ptrs_124, %a_ptrs_125 : tensor<64x64xi32> loc(#loc130)
    %a_ptrs_137 = tt.splat %a_ptr : !tt.ptr<f16> -> tensor<64x64x!tt.ptr<f16>> loc(#loc131)
    %a_ptrs_138 = tt.addptr %a_ptrs_137, %a_ptrs_136 : tensor<64x64x!tt.ptr<f16>>, tensor<64x64xi32> loc(#loc131)
    %b_ptrs = tt.expand_dims %offs_k {axis = 1 : i32} : tensor<64xi32> -> tensor<64x1xi32> loc(#loc132)
    %b_ptrs_139 = tt.splat %stride_bk : i32 -> tensor<64x1xi32> loc(#loc133)
    %b_ptrs_140 = arith.extsi %b_ptrs : tensor<64x1xi32> to tensor<64x1xi64> loc(#loc133)
    %b_ptrs_141 = arith.extsi %b_ptrs_139 : tensor<64x1xi32> to tensor<64x1xi64> loc(#loc133)
    %b_ptrs_142 = arith.muli %b_ptrs_140, %b_ptrs_141 : tensor<64x1xi64> loc(#loc133)
    %b_ptrs_143 = arith.constant 2147483647 : i64 loc(#loc133)
    %b_ptrs_144 = arith.constant -2147483648 : i64 loc(#loc133)
    %b_ptrs_145 = arith.constant dense<2147483647> : tensor<64x1xi64> loc(#loc133)
    %b_ptrs_146 = arith.cmpi sle, %b_ptrs_142, %b_ptrs_145 : tensor<64x1xi64> loc(#loc133)
    %b_ptrs_147 = arith.constant dense<-2147483648> : tensor<64x1xi64> loc(#loc133)
    %b_ptrs_148 = arith.cmpi sge, %b_ptrs_142, %b_ptrs_147 : tensor<64x1xi64> loc(#loc133)
    %b_ptrs_149 = arith.andi %b_ptrs_146, %b_ptrs_148 : tensor<64x1xi1> loc(#loc133)
    %b_ptrs_150 = arith.muli %b_ptrs, %b_ptrs_139 : tensor<64x1xi32> loc(#loc133)
    %b_ptrs_151 = tt.expand_dims %offs_bn_96 {axis = 0 : i32} : tensor<32xi32> -> tensor<1x32xi32> loc(#loc134)
    %b_ptrs_152 = arith.constant 1 : i32 loc(#loc135)
    %b_ptrs_153 = arith.constant 1 : i32 loc(#loc135)
    %b_ptrs_154 = arith.constant dense<1> : tensor<1x32xi32> loc(#loc135)
    %b_ptrs_155 = arith.extsi %b_ptrs_151 : tensor<1x32xi32> to tensor<1x32xi64> loc(#loc135)
    %b_ptrs_156 = arith.extsi %b_ptrs_154 : tensor<1x32xi32> to tensor<1x32xi64> loc(#loc135)
    %b_ptrs_157 = arith.muli %b_ptrs_155, %b_ptrs_156 : tensor<1x32xi64> loc(#loc135)
    %b_ptrs_158 = arith.constant 2147483647 : i64 loc(#loc135)
    %b_ptrs_159 = arith.constant -2147483648 : i64 loc(#loc135)
    %b_ptrs_160 = arith.constant dense<2147483647> : tensor<1x32xi64> loc(#loc135)
    %b_ptrs_161 = arith.cmpi sle, %b_ptrs_157, %b_ptrs_160 : tensor<1x32xi64> loc(#loc135)
    %b_ptrs_162 = arith.constant dense<-2147483648> : tensor<1x32xi64> loc(#loc135)
    %b_ptrs_163 = arith.cmpi sge, %b_ptrs_157, %b_ptrs_162 : tensor<1x32xi64> loc(#loc135)
    %b_ptrs_164 = arith.andi %b_ptrs_161, %b_ptrs_163 : tensor<1x32xi1> loc(#loc135)
    %b_ptrs_165 = arith.muli %b_ptrs_151, %b_ptrs_154 : tensor<1x32xi32> loc(#loc135)
    %b_ptrs_166 = tt.broadcast %b_ptrs_150 : tensor<64x1xi32> -> tensor<64x32xi32> loc(#loc136)
    %b_ptrs_167 = tt.broadcast %b_ptrs_165 : tensor<1x32xi32> -> tensor<64x32xi32> loc(#loc136)
    %b_ptrs_168 = arith.extsi %b_ptrs_166 : tensor<64x32xi32> to tensor<64x32xi64> loc(#loc136)
    %b_ptrs_169 = arith.extsi %b_ptrs_167 : tensor<64x32xi32> to tensor<64x32xi64> loc(#loc136)
    %b_ptrs_170 = arith.addi %b_ptrs_168, %b_ptrs_169 : tensor<64x32xi64> loc(#loc136)
    %b_ptrs_171 = arith.constant 2147483647 : i64 loc(#loc136)
    %b_ptrs_172 = arith.constant -2147483648 : i64 loc(#loc136)
    %b_ptrs_173 = arith.constant dense<2147483647> : tensor<64x32xi64> loc(#loc136)
    %b_ptrs_174 = arith.cmpi sle, %b_ptrs_170, %b_ptrs_173 : tensor<64x32xi64> loc(#loc136)
    %b_ptrs_175 = arith.constant dense<-2147483648> : tensor<64x32xi64> loc(#loc136)
    %b_ptrs_176 = arith.cmpi sge, %b_ptrs_170, %b_ptrs_175 : tensor<64x32xi64> loc(#loc136)
    %b_ptrs_177 = arith.andi %b_ptrs_174, %b_ptrs_176 : tensor<64x32xi1> loc(#loc136)
    %b_ptrs_178 = arith.addi %b_ptrs_166, %b_ptrs_167 : tensor<64x32xi32> loc(#loc136)
    %b_ptrs_179 = tt.splat %b_ptr : !tt.ptr<f16> -> tensor<64x32x!tt.ptr<f16>> loc(#loc137)
    %b_ptrs_180 = tt.addptr %b_ptrs_179, %b_ptrs_178 : tensor<64x32x!tt.ptr<f16>>, tensor<64x32xi32> loc(#loc137)
    %accumulator = tt.call @triton.language.standard.zeros__Tc64_c32T_cfp32() : () -> tensor<64x32xf32> loc(#loc138)
    %5 = tt.call @triton.language.standard.cdiv__i32_c64(%K) : (i32) -> i32 loc(#loc49)
    %c0_i32_181 = arith.constant 0 : i32 loc(#loc50)
    %c1_i32 = arith.constant 1 : i32 loc(#loc50)
    %6 = arith.bitcast %c0_i32_181 : i32 to i32 loc(#loc50)
    %7 = arith.bitcast %5 : i32 to i32 loc(#loc50)
    %8 = arith.bitcast %c1_i32 : i32 to i32 loc(#loc50)
    %9 = ub.poison : i32 loc(#loc50)
    %accumulator_182:3 = scf.for %k = %6 to %7 step %8 iter_args(%a_ptrs_269 = %a_ptrs_138, %b_ptrs_270 = %b_ptrs_180, %accumulator_271 = %accumulator) -> (tensor<64x64x!tt.ptr<f16>>, tensor<64x32x!tt.ptr<f16>>, tensor<64x32xf32>)  : i32 {
      %a = tt.expand_dims %offs_k {axis = 0 : i32} : tensor<64xi32> -> tensor<1x64xi32> loc(#loc140)
      %a_272 = arith.constant 64 : i32 loc(#loc141)
      %a_273 = arith.constant 64 : i32 loc(#loc141)
      %a_274 = arith.extsi %k : i32 to i64 loc(#loc141)
      %a_275 = arith.extsi %a_273 : i32 to i64 loc(#loc141)
      %a_276 = arith.muli %a_274, %a_275 : i64 loc(#loc141)
      %a_277 = arith.constant 2147483647 : i64 loc(#loc141)
      %a_278 = arith.constant -2147483648 : i64 loc(#loc141)
      %a_279 = arith.cmpi sle, %a_276, %a_277 : i64 loc(#loc141)
      %a_280 = arith.cmpi sge, %a_276, %a_278 : i64 loc(#loc141)
      %a_281 = arith.andi %a_279, %a_280 : i1 loc(#loc141)
      %a_282 = arith.muli %k, %a_273 : i32 loc(#loc141)
      %a_283 = arith.extsi %K : i32 to i64 loc(#loc142)
      %a_284 = arith.extsi %a_282 : i32 to i64 loc(#loc142)
      %a_285 = arith.subi %a_283, %a_284 : i64 loc(#loc142)
      %a_286 = arith.constant 2147483647 : i64 loc(#loc142)
      %a_287 = arith.constant -2147483648 : i64 loc(#loc142)
      %a_288 = arith.cmpi sle, %a_285, %a_286 : i64 loc(#loc142)
      %a_289 = arith.cmpi sge, %a_285, %a_287 : i64 loc(#loc142)
      %a_290 = arith.andi %a_288, %a_289 : i1 loc(#loc142)
      %a_291 = arith.subi %K, %a_282 : i32 loc(#loc142)
      %a_292 = tt.splat %a_291 : i32 -> tensor<1x64xi32> loc(#loc143)
      %a_293 = arith.cmpi slt, %a, %a_292 : tensor<1x64xi32> loc(#loc143)
      %a_294 = arith.constant 0.000000e+00 : f32 loc(#loc144)
      %a_295 = tt.broadcast %a_293 : tensor<1x64xi1> -> tensor<64x64xi1> loc(#loc144)
      %a_296 = arith.constant dense<0.000000e+00> : tensor<64x64xf32> loc(#loc144)
      %a_297 = arith.truncf %a_296 : tensor<64x64xf32> to tensor<64x64xf16> loc(#loc144)
      %a_298 = tt.load %a_ptrs_269, %a_295, %a_297 : tensor<64x64x!tt.ptr<f16>> loc(#loc144)
      %b = tt.expand_dims %offs_k {axis = 1 : i32} : tensor<64xi32> -> tensor<64x1xi32> loc(#loc145)
      %b_299 = arith.constant 64 : i32 loc(#loc146)
      %b_300 = arith.constant 64 : i32 loc(#loc146)
      %b_301 = arith.extsi %k : i32 to i64 loc(#loc146)
      %b_302 = arith.extsi %b_300 : i32 to i64 loc(#loc146)
      %b_303 = arith.muli %b_301, %b_302 : i64 loc(#loc146)
      %b_304 = arith.constant 2147483647 : i64 loc(#loc146)
      %b_305 = arith.constant -2147483648 : i64 loc(#loc146)
      %b_306 = arith.cmpi sle, %b_303, %b_304 : i64 loc(#loc146)
      %b_307 = arith.cmpi sge, %b_303, %b_305 : i64 loc(#loc146)
      %b_308 = arith.andi %b_306, %b_307 : i1 loc(#loc146)
      %b_309 = arith.muli %k, %b_300 : i32 loc(#loc146)
      %b_310 = arith.extsi %K : i32 to i64 loc(#loc147)
      %b_311 = arith.extsi %b_309 : i32 to i64 loc(#loc147)
      %b_312 = arith.subi %b_310, %b_311 : i64 loc(#loc147)
      %b_313 = arith.constant 2147483647 : i64 loc(#loc147)
      %b_314 = arith.constant -2147483648 : i64 loc(#loc147)
      %b_315 = arith.cmpi sle, %b_312, %b_313 : i64 loc(#loc147)
      %b_316 = arith.cmpi sge, %b_312, %b_314 : i64 loc(#loc147)
      %b_317 = arith.andi %b_315, %b_316 : i1 loc(#loc147)
      %b_318 = arith.subi %K, %b_309 : i32 loc(#loc147)
      %b_319 = tt.splat %b_318 : i32 -> tensor<64x1xi32> loc(#loc148)
      %b_320 = arith.cmpi slt, %b, %b_319 : tensor<64x1xi32> loc(#loc148)
      %b_321 = arith.constant 0.000000e+00 : f32 loc(#loc149)
      %b_322 = tt.broadcast %b_320 : tensor<64x1xi1> -> tensor<64x32xi1> loc(#loc149)
      %b_323 = arith.constant dense<0.000000e+00> : tensor<64x32xf32> loc(#loc149)
      %b_324 = arith.truncf %b_323 : tensor<64x32xf32> to tensor<64x32xf16> loc(#loc149)
      %b_325 = tt.load %b_ptrs_270, %b_322, %b_324 : tensor<64x32x!tt.ptr<f16>> loc(#loc149)
      %accumulator_326 = arith.constant 0.000000e+00 : f32 loc(#loc150)
      %accumulator_327 = tt.dot %a_298, %b_325, %accumulator_271, inputPrecision = tf32 : tensor<64x64xf16> * tensor<64x32xf16> -> tensor<64x32xf32> loc(#loc150)
      %a_ptrs_328 = arith.constant 64 : i32 loc(#loc151)
      %a_ptrs_329 = arith.constant dense<64> : tensor<64x64xi32> loc(#loc151)
      %a_ptrs_330 = tt.addptr %a_ptrs_269, %a_ptrs_329 : tensor<64x64x!tt.ptr<f16>>, tensor<64x64xi32> loc(#loc151)
      %b_ptrs_331 = arith.constant 64 : i32 loc(#loc152)
      %b_ptrs_332 = arith.constant 64 : i32 loc(#loc152)
      %b_ptrs_333 = arith.extsi %b_ptrs_332 : i32 to i64 loc(#loc152)
      %b_ptrs_334 = arith.extsi %stride_bk : i32 to i64 loc(#loc152)
      %b_ptrs_335 = arith.muli %b_ptrs_333, %b_ptrs_334 : i64 loc(#loc152)
      %b_ptrs_336 = arith.constant 2147483647 : i64 loc(#loc152)
      %b_ptrs_337 = arith.constant -2147483648 : i64 loc(#loc152)
      %b_ptrs_338 = arith.cmpi sle, %b_ptrs_335, %b_ptrs_336 : i64 loc(#loc152)
      %b_ptrs_339 = arith.cmpi sge, %b_ptrs_335, %b_ptrs_337 : i64 loc(#loc152)
      %b_ptrs_340 = arith.andi %b_ptrs_338, %b_ptrs_339 : i1 loc(#loc152)
      %b_ptrs_341 = arith.muli %b_ptrs_332, %stride_bk : i32 loc(#loc152)
      %b_ptrs_342 = tt.splat %b_ptrs_341 : i32 -> tensor<64x32xi32> loc(#loc153)
      %b_ptrs_343 = tt.addptr %b_ptrs_270, %b_ptrs_342 : tensor<64x32x!tt.ptr<f16>>, tensor<64x32xi32> loc(#loc153)
      scf.yield %a_ptrs_330, %b_ptrs_343, %accumulator_327 : tensor<64x64x!tt.ptr<f16>>, tensor<64x32x!tt.ptr<f16>>, tensor<64x32xf32> loc(#loc65)
    } loc(#loc174)
    %c = arith.truncf %accumulator_182#2 : tensor<64x32xf32> to tensor<64x32xf16> loc(#loc154)
    %offs_cm = arith.constant 64 : i32 loc(#loc155)
    %offs_cm_183 = arith.constant 64 : i32 loc(#loc155)
    %offs_cm_184 = arith.extsi %pid_m_39 : i32 to i64 loc(#loc155)
    %offs_cm_185 = arith.extsi %offs_cm_183 : i32 to i64 loc(#loc155)
    %offs_cm_186 = arith.muli %offs_cm_184, %offs_cm_185 : i64 loc(#loc155)
    %offs_cm_187 = arith.constant 2147483647 : i64 loc(#loc155)
    %offs_cm_188 = arith.constant -2147483648 : i64 loc(#loc155)
    %offs_cm_189 = arith.cmpi sle, %offs_cm_186, %offs_cm_187 : i64 loc(#loc155)
    %offs_cm_190 = arith.cmpi sge, %offs_cm_186, %offs_cm_188 : i64 loc(#loc155)
    %offs_cm_191 = arith.andi %offs_cm_189, %offs_cm_190 : i1 loc(#loc155)
    %offs_cm_192 = arith.muli %pid_m_39, %offs_cm_183 : i32 loc(#loc155)
    %offs_cm_193 = tt.make_range {end = 64 : i32, start = 0 : i32} : tensor<64xi32> loc(#loc156)
    %offs_cm_194 = tt.splat %offs_cm_192 : i32 -> tensor<64xi32> loc(#loc157)
    %offs_cm_195 = arith.extsi %offs_cm_194 : tensor<64xi32> to tensor<64xi64> loc(#loc157)
    %offs_cm_196 = arith.extsi %offs_cm_193 : tensor<64xi32> to tensor<64xi64> loc(#loc157)
    %offs_cm_197 = arith.addi %offs_cm_195, %offs_cm_196 : tensor<64xi64> loc(#loc157)
    %offs_cm_198 = arith.constant 2147483647 : i64 loc(#loc157)
    %offs_cm_199 = arith.constant -2147483648 : i64 loc(#loc157)
    %offs_cm_200 = arith.constant dense<2147483647> : tensor<64xi64> loc(#loc157)
    %offs_cm_201 = arith.cmpi sle, %offs_cm_197, %offs_cm_200 : tensor<64xi64> loc(#loc157)
    %offs_cm_202 = arith.constant dense<-2147483648> : tensor<64xi64> loc(#loc157)
    %offs_cm_203 = arith.cmpi sge, %offs_cm_197, %offs_cm_202 : tensor<64xi64> loc(#loc157)
    %offs_cm_204 = arith.andi %offs_cm_201, %offs_cm_203 : tensor<64xi1> loc(#loc157)
    %offs_cm_205 = arith.addi %offs_cm_194, %offs_cm_193 : tensor<64xi32> loc(#loc157)
    %offs_cn = arith.constant 32 : i32 loc(#loc158)
    %offs_cn_206 = arith.constant 32 : i32 loc(#loc158)
    %offs_cn_207 = arith.extsi %pid_n_40 : i32 to i64 loc(#loc158)
    %offs_cn_208 = arith.extsi %offs_cn_206 : i32 to i64 loc(#loc158)
    %offs_cn_209 = arith.muli %offs_cn_207, %offs_cn_208 : i64 loc(#loc158)
    %offs_cn_210 = arith.constant 2147483647 : i64 loc(#loc158)
    %offs_cn_211 = arith.constant -2147483648 : i64 loc(#loc158)
    %offs_cn_212 = arith.cmpi sle, %offs_cn_209, %offs_cn_210 : i64 loc(#loc158)
    %offs_cn_213 = arith.cmpi sge, %offs_cn_209, %offs_cn_211 : i64 loc(#loc158)
    %offs_cn_214 = arith.andi %offs_cn_212, %offs_cn_213 : i1 loc(#loc158)
    %offs_cn_215 = arith.muli %pid_n_40, %offs_cn_206 : i32 loc(#loc158)
    %offs_cn_216 = tt.make_range {end = 32 : i32, start = 0 : i32} : tensor<32xi32> loc(#loc159)
    %offs_cn_217 = tt.splat %offs_cn_215 : i32 -> tensor<32xi32> loc(#loc160)
    %offs_cn_218 = arith.extsi %offs_cn_217 : tensor<32xi32> to tensor<32xi64> loc(#loc160)
    %offs_cn_219 = arith.extsi %offs_cn_216 : tensor<32xi32> to tensor<32xi64> loc(#loc160)
    %offs_cn_220 = arith.addi %offs_cn_218, %offs_cn_219 : tensor<32xi64> loc(#loc160)
    %offs_cn_221 = arith.constant 2147483647 : i64 loc(#loc160)
    %offs_cn_222 = arith.constant -2147483648 : i64 loc(#loc160)
    %offs_cn_223 = arith.constant dense<2147483647> : tensor<32xi64> loc(#loc160)
    %offs_cn_224 = arith.cmpi sle, %offs_cn_220, %offs_cn_223 : tensor<32xi64> loc(#loc160)
    %offs_cn_225 = arith.constant dense<-2147483648> : tensor<32xi64> loc(#loc160)
    %offs_cn_226 = arith.cmpi sge, %offs_cn_220, %offs_cn_225 : tensor<32xi64> loc(#loc160)
    %offs_cn_227 = arith.andi %offs_cn_224, %offs_cn_226 : tensor<32xi1> loc(#loc160)
    %offs_cn_228 = arith.addi %offs_cn_217, %offs_cn_216 : tensor<32xi32> loc(#loc160)
    %c_ptrs = tt.expand_dims %offs_cm_205 {axis = 1 : i32} : tensor<64xi32> -> tensor<64x1xi32> loc(#loc161)
    %c_ptrs_229 = tt.splat %stride_cm : i32 -> tensor<64x1xi32> loc(#loc162)
    %c_ptrs_230 = arith.extsi %c_ptrs_229 : tensor<64x1xi32> to tensor<64x1xi64> loc(#loc162)
    %c_ptrs_231 = arith.extsi %c_ptrs : tensor<64x1xi32> to tensor<64x1xi64> loc(#loc162)
    %c_ptrs_232 = arith.muli %c_ptrs_230, %c_ptrs_231 : tensor<64x1xi64> loc(#loc162)
    %c_ptrs_233 = arith.constant 2147483647 : i64 loc(#loc162)
    %c_ptrs_234 = arith.constant -2147483648 : i64 loc(#loc162)
    %c_ptrs_235 = arith.constant dense<2147483647> : tensor<64x1xi64> loc(#loc162)
    %c_ptrs_236 = arith.cmpi sle, %c_ptrs_232, %c_ptrs_235 : tensor<64x1xi64> loc(#loc162)
    %c_ptrs_237 = arith.constant dense<-2147483648> : tensor<64x1xi64> loc(#loc162)
    %c_ptrs_238 = arith.cmpi sge, %c_ptrs_232, %c_ptrs_237 : tensor<64x1xi64> loc(#loc162)
    %c_ptrs_239 = arith.andi %c_ptrs_236, %c_ptrs_238 : tensor<64x1xi1> loc(#loc162)
    %c_ptrs_240 = arith.muli %c_ptrs_229, %c_ptrs : tensor<64x1xi32> loc(#loc162)
    %c_ptrs_241 = tt.splat %c_ptr : !tt.ptr<f16> -> tensor<64x1x!tt.ptr<f16>> loc(#loc163)
    %c_ptrs_242 = tt.addptr %c_ptrs_241, %c_ptrs_240 : tensor<64x1x!tt.ptr<f16>>, tensor<64x1xi32> loc(#loc163)
    %c_ptrs_243 = tt.expand_dims %offs_cn_228 {axis = 0 : i32} : tensor<32xi32> -> tensor<1x32xi32> loc(#loc164)
    %c_ptrs_244 = arith.constant 1 : i32 loc(#loc165)
    %c_ptrs_245 = arith.constant 1 : i32 loc(#loc165)
    %c_ptrs_246 = arith.constant dense<1> : tensor<1x32xi32> loc(#loc165)
    %c_ptrs_247 = arith.extsi %c_ptrs_246 : tensor<1x32xi32> to tensor<1x32xi64> loc(#loc165)
    %c_ptrs_248 = arith.extsi %c_ptrs_243 : tensor<1x32xi32> to tensor<1x32xi64> loc(#loc165)
    %c_ptrs_249 = arith.muli %c_ptrs_247, %c_ptrs_248 : tensor<1x32xi64> loc(#loc165)
    %c_ptrs_250 = arith.constant 2147483647 : i64 loc(#loc165)
    %c_ptrs_251 = arith.constant -2147483648 : i64 loc(#loc165)
    %c_ptrs_252 = arith.constant dense<2147483647> : tensor<1x32xi64> loc(#loc165)
    %c_ptrs_253 = arith.cmpi sle, %c_ptrs_249, %c_ptrs_252 : tensor<1x32xi64> loc(#loc165)
    %c_ptrs_254 = arith.constant dense<-2147483648> : tensor<1x32xi64> loc(#loc165)
    %c_ptrs_255 = arith.cmpi sge, %c_ptrs_249, %c_ptrs_254 : tensor<1x32xi64> loc(#loc165)
    %c_ptrs_256 = arith.andi %c_ptrs_253, %c_ptrs_255 : tensor<1x32xi1> loc(#loc165)
    %c_ptrs_257 = arith.muli %c_ptrs_246, %c_ptrs_243 : tensor<1x32xi32> loc(#loc165)
    %c_ptrs_258 = tt.broadcast %c_ptrs_242 : tensor<64x1x!tt.ptr<f16>> -> tensor<64x32x!tt.ptr<f16>> loc(#loc166)
    %c_ptrs_259 = tt.broadcast %c_ptrs_257 : tensor<1x32xi32> -> tensor<64x32xi32> loc(#loc166)
    %c_ptrs_260 = tt.addptr %c_ptrs_258, %c_ptrs_259 : tensor<64x32x!tt.ptr<f16>>, tensor<64x32xi32> loc(#loc166)
    %c_mask = tt.expand_dims %offs_cm_205 {axis = 1 : i32} : tensor<64xi32> -> tensor<64x1xi32> loc(#loc167)
    %c_mask_261 = tt.splat %M : i32 -> tensor<64x1xi32> loc(#loc168)
    %c_mask_262 = arith.cmpi slt, %c_mask, %c_mask_261 : tensor<64x1xi32> loc(#loc168)
    %c_mask_263 = tt.expand_dims %offs_cn_228 {axis = 0 : i32} : tensor<32xi32> -> tensor<1x32xi32> loc(#loc169)
    %c_mask_264 = tt.splat %N : i32 -> tensor<1x32xi32> loc(#loc170)
    %c_mask_265 = arith.cmpi slt, %c_mask_263, %c_mask_264 : tensor<1x32xi32> loc(#loc170)
    %c_mask_266 = tt.broadcast %c_mask_262 : tensor<64x1xi1> -> tensor<64x32xi1> loc(#loc171)
    %c_mask_267 = tt.broadcast %c_mask_265 : tensor<1x32xi1> -> tensor<64x32xi1> loc(#loc171)
    %c_mask_268 = arith.andi %c_mask_266, %c_mask_267 : tensor<64x32xi1> loc(#loc171)
    tt.store %c_ptrs_260, %c, %c_mask_268 : tensor<64x32x!tt.ptr<f16>> loc(#loc84)
    tt.return loc(#loc85)
  } loc(#loc)
  tt.func private @triton.language.standard.cdiv__i32_c64(%x: i32 loc("x"(#loc86))) -> i32 attributes {noinline = false} {
    %c63_i32 = arith.constant 63 : i32 loc(#loc87)
    %c63_i32_0 = arith.constant 63 : i32 loc(#loc87)
    %0 = arith.extsi %x : i32 to i64 loc(#loc87)
    %1 = arith.extsi %c63_i32_0 : i32 to i64 loc(#loc87)
    %2 = arith.addi %0, %1 : i64 loc(#loc87)
    %c2147483647_i64 = arith.constant 2147483647 : i64 loc(#loc87)
    %c-2147483648_i64 = arith.constant -2147483648 : i64 loc(#loc87)
    %3 = arith.cmpi sle, %2, %c2147483647_i64 : i64 loc(#loc87)
    %4 = arith.cmpi sge, %2, %c-2147483648_i64 : i64 loc(#loc87)
    %5 = arith.andi %3, %4 : i1 loc(#loc87)
    %6 = arith.addi %x, %c63_i32_0 : i32 loc(#loc87)
    %c64_i32 = arith.constant 64 : i32 loc(#loc88)
    %c64_i32_1 = arith.constant 64 : i32 loc(#loc88)
    %7 = arith.divsi %6, %c64_i32_1 : i32 loc(#loc88)
    tt.return %7 : i32 loc(#loc89)
  ^bb1:  // no predecessors
    %8 = ub.poison : i32 loc(#loc90)
    tt.return %8 : i32 loc(#loc90)
  } loc(#loc86)
  tt.func private @triton.language.standard.cdiv__i32_c32(%x: i32 loc("x"(#loc86))) -> i32 attributes {noinline = false} {
    %c31_i32 = arith.constant 31 : i32 loc(#loc87)
    %c31_i32_0 = arith.constant 31 : i32 loc(#loc87)
    %0 = arith.extsi %x : i32 to i64 loc(#loc87)
    %1 = arith.extsi %c31_i32_0 : i32 to i64 loc(#loc87)
    %2 = arith.addi %0, %1 : i64 loc(#loc87)
    %c2147483647_i64 = arith.constant 2147483647 : i64 loc(#loc87)
    %c-2147483648_i64 = arith.constant -2147483648 : i64 loc(#loc87)
    %3 = arith.cmpi sle, %2, %c2147483647_i64 : i64 loc(#loc87)
    %4 = arith.cmpi sge, %2, %c-2147483648_i64 : i64 loc(#loc87)
    %5 = arith.andi %3, %4 : i1 loc(#loc87)
    %6 = arith.addi %x, %c31_i32_0 : i32 loc(#loc87)
    %c32_i32 = arith.constant 32 : i32 loc(#loc88)
    %c32_i32_1 = arith.constant 32 : i32 loc(#loc88)
    %7 = arith.divsi %6, %c32_i32_1 : i32 loc(#loc88)
    tt.return %7 : i32 loc(#loc89)
  ^bb1:  // no predecessors
    %8 = ub.poison : i32 loc(#loc90)
    tt.return %8 : i32 loc(#loc90)
  } loc(#loc86)
  tt.func private @triton.language.standard.zeros__Tc64_c32T_cfp32() -> tensor<64x32xf32> attributes {noinline = false} {
    %cst = arith.constant 0.000000e+00 : f32 loc(#loc92)
    %cst_0 = arith.constant dense<0.000000e+00> : tensor<64x32xf32> loc(#loc92)
    tt.return %cst_0 : tensor<64x32xf32> loc(#loc93)
  ^bb1:  // no predecessors
    %0 = ub.poison : tensor<64x32xf32> loc(#loc94)
    tt.return %0 : tensor<64x32xf32> loc(#loc94)
  } loc(#loc91)
} loc(#loc)
#loc1 = loc("/root/workspace/dsl-lab/triton/matmul/03-matrix-multiplication.py":256:24)
#loc2 = loc("/root/workspace/dsl-lab/triton/matmul/03-matrix-multiplication.py":257:27)
#loc3 = loc("/root/workspace/dsl-lab/triton/matmul/03-matrix-multiplication.py":258:27)
#loc4 = loc("/root/workspace/dsl-lab/triton/matmul/03-matrix-multiplication.py":259:38)
#loc5 = loc("/root/workspace/dsl-lab/triton/matmul/03-matrix-multiplication.py":260:22)
#loc6 = loc("/root/workspace/dsl-lab/triton/matmul/03-matrix-multiplication.py":261:29)
#loc7 = loc("/root/workspace/dsl-lab/triton/matmul/03-matrix-multiplication.py":262:35)
#loc8 = loc("/root/workspace/dsl-lab/triton/matmul/03-matrix-multiplication.py":262:48)
#loc9 = loc("/root/workspace/dsl-lab/triton/matmul/03-matrix-multiplication.py":263:34)
#loc10 = loc("/root/workspace/dsl-lab/triton/matmul/03-matrix-multiplication.py":263:54)
#loc11 = loc("/root/workspace/dsl-lab/triton/matmul/03-matrix-multiplication.py":263:27)
#loc12 = loc("/root/workspace/dsl-lab/triton/matmul/03-matrix-multiplication.py":264:19)
#loc13 = loc("/root/workspace/dsl-lab/triton/matmul/03-matrix-multiplication.py":264:40)
#loc14 = loc("/root/workspace/dsl-lab/triton/matmul/03-matrix-multiplication.py":270:23)
#loc15 = loc("/root/workspace/dsl-lab/triton/matmul/03-matrix-multiplication.py":270:14)
#loc16 = loc("/root/workspace/dsl-lab/triton/matmul/03-matrix-multiplication.py":271:23)
#loc17 = loc("/root/workspace/dsl-lab/triton/matmul/03-matrix-multiplication.py":271:14)
#loc18 = loc("/root/workspace/dsl-lab/triton/matmul/03-matrix-multiplication.py":272:26)
#loc19 = loc("/root/workspace/dsl-lab/triton/matmul/03-matrix-multiplication.py":272:14)
#loc20 = loc("/root/workspace/dsl-lab/triton/matmul/03-matrix-multiplication.py":273:14)
#loc21 = loc("/root/workspace/dsl-lab/triton/matmul/03-matrix-multiplication.py":274:14)
#loc22 = loc("/root/workspace/dsl-lab/triton/matmul/03-matrix-multiplication.py":275:26)
#loc23 = loc("/root/workspace/dsl-lab/triton/matmul/03-matrix-multiplication.py":275:14)
#loc24 = loc("/root/workspace/dsl-lab/triton/matmul/03-matrix-multiplication.py":276:26)
#loc25 = loc("/root/workspace/dsl-lab/triton/matmul/03-matrix-multiplication.py":276:14)
#loc26 = loc("/root/workspace/dsl-lab/triton/matmul/03-matrix-multiplication.py":277:14)
#loc27 = loc("/root/workspace/dsl-lab/triton/matmul/03-matrix-multiplication.py":286:23)
#loc28 = loc("/root/workspace/dsl-lab/triton/matmul/03-matrix-multiplication.py":286:51)
#loc29 = loc("/root/workspace/dsl-lab/triton/matmul/03-matrix-multiplication.py":286:38)
#loc30 = loc("/root/workspace/dsl-lab/triton/matmul/03-matrix-multiplication.py":286:68)
#loc31 = loc("/root/workspace/dsl-lab/triton/matmul/03-matrix-multiplication.py":287:23)
#loc32 = loc("/root/workspace/dsl-lab/triton/matmul/03-matrix-multiplication.py":287:51)
#loc33 = loc("/root/workspace/dsl-lab/triton/matmul/03-matrix-multiplication.py":287:38)
#loc34 = loc("/root/workspace/dsl-lab/triton/matmul/03-matrix-multiplication.py":287:68)
#loc35 = loc("/root/workspace/dsl-lab/triton/matmul/03-matrix-multiplication.py":288:26)
#loc36 = loc("/root/workspace/dsl-lab/triton/matmul/03-matrix-multiplication.py":289:30)
#loc37 = loc("/root/workspace/dsl-lab/triton/matmul/03-matrix-multiplication.py":289:41)
#loc38 = loc("/root/workspace/dsl-lab/triton/matmul/03-matrix-multiplication.py":289:60)
#loc39 = loc("/root/workspace/dsl-lab/triton/matmul/03-matrix-multiplication.py":289:71)
#loc40 = loc("/root/workspace/dsl-lab/triton/matmul/03-matrix-multiplication.py":289:53)
#loc41 = loc("/root/workspace/dsl-lab/triton/matmul/03-matrix-multiplication.py":289:22)
#loc42 = loc("/root/workspace/dsl-lab/triton/matmul/03-matrix-multiplication.py":290:29)
#loc43 = loc("/root/workspace/dsl-lab/triton/matmul/03-matrix-multiplication.py":290:40)
#loc44 = loc("/root/workspace/dsl-lab/triton/matmul/03-matrix-multiplication.py":290:60)
#loc45 = loc("/root/workspace/dsl-lab/triton/matmul/03-matrix-multiplication.py":290:71)
#loc46 = loc("/root/workspace/dsl-lab/triton/matmul/03-matrix-multiplication.py":290:52)
#loc47 = loc("/root/workspace/dsl-lab/triton/matmul/03-matrix-multiplication.py":290:22)
#loc48 = loc("/root/workspace/dsl-lab/triton/matmul/03-matrix-multiplication.py":297:27)
#loc49 = loc("/root/workspace/dsl-lab/triton/matmul/03-matrix-multiplication.py":298:33)
#loc50 = loc("/root/workspace/dsl-lab/triton/matmul/03-matrix-multiplication.py":298:22)
#loc51 = loc("/root/workspace/dsl-lab/triton/matmul/03-matrix-multiplication.py":301:40)
#loc52 = loc("/root/workspace/dsl-lab/triton/matmul/03-matrix-multiplication.py":301:59)
#loc53 = loc("/root/workspace/dsl-lab/triton/matmul/03-matrix-multiplication.py":301:55)
#loc54 = loc("/root/workspace/dsl-lab/triton/matmul/03-matrix-multiplication.py":301:51)
#loc55 = loc("/root/workspace/dsl-lab/triton/matmul/03-matrix-multiplication.py":301:20)
#loc56 = loc("/root/workspace/dsl-lab/triton/matmul/03-matrix-multiplication.py":302:40)
#loc57 = loc("/root/workspace/dsl-lab/triton/matmul/03-matrix-multiplication.py":302:59)
#loc58 = loc("/root/workspace/dsl-lab/triton/matmul/03-matrix-multiplication.py":302:55)
#loc59 = loc("/root/workspace/dsl-lab/triton/matmul/03-matrix-multiplication.py":302:51)
#loc60 = loc("/root/workspace/dsl-lab/triton/matmul/03-matrix-multiplication.py":302:20)
#loc61 = loc("/root/workspace/dsl-lab/triton/matmul/03-matrix-multiplication.py":304:35)
#loc62 = loc("/root/workspace/dsl-lab/triton/matmul/03-matrix-multiplication.py":306:18)
#loc63 = loc("/root/workspace/dsl-lab/triton/matmul/03-matrix-multiplication.py":307:33)
#loc64 = loc("/root/workspace/dsl-lab/triton/matmul/03-matrix-multiplication.py":307:18)
#loc65 = loc("/root/workspace/dsl-lab/triton/matmul/03-matrix-multiplication.py":307:8)
#loc66 = loc("/root/workspace/dsl-lab/triton/matmul/03-matrix-multiplication.py":312:23)
#loc67 = loc("/root/workspace/dsl-lab/triton/matmul/03-matrix-multiplication.py":316:22)
#loc68 = loc("/root/workspace/dsl-lab/triton/matmul/03-matrix-multiplication.py":316:50)
#loc69 = loc("/root/workspace/dsl-lab/triton/matmul/03-matrix-multiplication.py":316:37)
#loc70 = loc("/root/workspace/dsl-lab/triton/matmul/03-matrix-multiplication.py":317:22)
#loc71 = loc("/root/workspace/dsl-lab/triton/matmul/03-matrix-multiplication.py":317:50)
#loc72 = loc("/root/workspace/dsl-lab/triton/matmul/03-matrix-multiplication.py":317:37)
#loc73 = loc("/root/workspace/dsl-lab/triton/matmul/03-matrix-multiplication.py":318:41)
#loc74 = loc("/root/workspace/dsl-lab/triton/matmul/03-matrix-multiplication.py":318:33)
#loc75 = loc("/root/workspace/dsl-lab/triton/matmul/03-matrix-multiplication.py":318:21)
#loc76 = loc("/root/workspace/dsl-lab/triton/matmul/03-matrix-multiplication.py":318:72)
#loc77 = loc("/root/workspace/dsl-lab/triton/matmul/03-matrix-multiplication.py":318:64)
#loc78 = loc("/root/workspace/dsl-lab/triton/matmul/03-matrix-multiplication.py":318:52)
#loc79 = loc("/root/workspace/dsl-lab/triton/matmul/03-matrix-multiplication.py":319:22)
#loc80 = loc("/root/workspace/dsl-lab/triton/matmul/03-matrix-multiplication.py":319:33)
#loc81 = loc("/root/workspace/dsl-lab/triton/matmul/03-matrix-multiplication.py":319:47)
#loc82 = loc("/root/workspace/dsl-lab/triton/matmul/03-matrix-multiplication.py":319:58)
#loc83 = loc("/root/workspace/dsl-lab/triton/matmul/03-matrix-multiplication.py":319:39)
#loc84 = loc("/root/workspace/dsl-lab/triton/matmul/03-matrix-multiplication.py":320:21)
#loc85 = loc("/root/workspace/dsl-lab/triton/matmul/03-matrix-multiplication.py":320:4)
#loc87 = loc("/opt/venv/lib/python3.11/site-packages/triton/language/standard.py":43:17)
#loc88 = loc("/opt/venv/lib/python3.11/site-packages/triton/language/standard.py":43:30)
#loc89 = loc("/opt/venv/lib/python3.11/site-packages/triton/language/standard.py":43:11)
#loc90 = loc("/opt/venv/lib/python3.11/site-packages/triton/language/standard.py":43:4)
#loc91 = loc("/opt/venv/lib/python3.11/site-packages/triton/language/standard.py":120:0)
#loc92 = loc("/opt/venv/lib/python3.11/site-packages/triton/language/standard.py":129:31)
#loc93 = loc("/opt/venv/lib/python3.11/site-packages/triton/language/standard.py":129:11)
#loc94 = loc("/opt/venv/lib/python3.11/site-packages/triton/language/standard.py":129:4)
#loc104 = loc("pid"(#loc1))
#loc105 = loc("num_pid_m"(#loc2))
#loc106 = loc("num_pid_n"(#loc3))
#loc107 = loc("num_pid_in_group"(#loc4))
#loc108 = loc("group_id"(#loc5))
#loc109 = loc("first_pid_m"(#loc6))
#loc110 = loc("group_size_m"(#loc7))
#loc111 = loc("group_size_m"(#loc8))
#loc112 = loc("pid_m"(#loc9))
#loc113 = loc("pid_m"(#loc10))
#loc114 = loc("pid_m"(#loc11))
#loc115 = loc("pid_n"(#loc12))
#loc116 = loc("pid_n"(#loc13))
#loc117 = loc("offs_am"(#loc27))
#loc118 = loc("offs_am"(#loc28))
#loc119 = loc("offs_am"(#loc29))
#loc120 = loc("offs_am"(#loc30))
#loc121 = loc("offs_bn"(#loc31))
#loc122 = loc("offs_bn"(#loc32))
#loc123 = loc("offs_bn"(#loc33))
#loc124 = loc("offs_bn"(#loc34))
#loc125 = loc("offs_k"(#loc35))
#loc126 = loc("a_ptrs"(#loc36))
#loc127 = loc("a_ptrs"(#loc37))
#loc128 = loc("a_ptrs"(#loc38))
#loc129 = loc("a_ptrs"(#loc39))
#loc130 = loc("a_ptrs"(#loc40))
#loc131 = loc("a_ptrs"(#loc41))
#loc132 = loc("b_ptrs"(#loc42))
#loc133 = loc("b_ptrs"(#loc43))
#loc134 = loc("b_ptrs"(#loc44))
#loc135 = loc("b_ptrs"(#loc45))
#loc136 = loc("b_ptrs"(#loc46))
#loc137 = loc("b_ptrs"(#loc47))
#loc138 = loc("accumulator"(#loc48))
#loc139 = loc("a_ptrs"(#loc50))
#loc140 = loc("a"(#loc51))
#loc141 = loc("a"(#loc52))
#loc142 = loc("a"(#loc53))
#loc143 = loc("a"(#loc54))
#loc144 = loc("a"(#loc55))
#loc145 = loc("b"(#loc56))
#loc146 = loc("b"(#loc57))
#loc147 = loc("b"(#loc58))
#loc148 = loc("b"(#loc59))
#loc149 = loc("b"(#loc60))
#loc150 = loc("accumulator"(#loc61))
#loc151 = loc("a_ptrs"(#loc62))
#loc152 = loc("b_ptrs"(#loc63))
#loc153 = loc("b_ptrs"(#loc64))
#loc154 = loc("c"(#loc66))
#loc155 = loc("offs_cm"(#loc67))
#loc156 = loc("offs_cm"(#loc68))
#loc157 = loc("offs_cm"(#loc69))
#loc158 = loc("offs_cn"(#loc70))
#loc159 = loc("offs_cn"(#loc71))
#loc160 = loc("offs_cn"(#loc72))
#loc161 = loc("c_ptrs"(#loc73))
#loc162 = loc("c_ptrs"(#loc74))
#loc163 = loc("c_ptrs"(#loc75))
#loc164 = loc("c_ptrs"(#loc76))
#loc165 = loc("c_ptrs"(#loc77))
#loc166 = loc("c_ptrs"(#loc78))
#loc167 = loc("c_mask"(#loc79))
#loc168 = loc("c_mask"(#loc80))
#loc169 = loc("c_mask"(#loc81))
#loc170 = loc("c_mask"(#loc82))
#loc171 = loc("c_mask"(#loc83))
#loc173 = loc("b_ptrs"(#loc139))
#loc174 = loc("accumulator"(#loc173))


// -----// IR Dump Before Canonicalizer (canonicalize) ('tt.func' operation: @triton.language.standard.cdiv__i32_c64) //----- //
#loc = loc("/root/workspace/dsl-lab/triton/matmul/03-matrix-multiplication.py":233:0)
#loc86 = loc("/opt/venv/lib/python3.11/site-packages/triton/language/standard.py":34:0)
#loc95 = loc("a_ptr"(#loc))
#loc96 = loc("b_ptr"(#loc))
#loc97 = loc("c_ptr"(#loc))
#loc98 = loc("M"(#loc))
#loc99 = loc("N"(#loc))
#loc100 = loc("K"(#loc))
#loc101 = loc("stride_am"(#loc))
#loc102 = loc("stride_bk"(#loc))
#loc103 = loc("stride_cm"(#loc))
#loc172 = loc("x"(#loc86))
module {
  tt.func public @matmul_kernel(%a_ptr: !tt.ptr<f16> {tt.divisibility = 16 : i32, tt.pointer_range = 32 : i32} loc("a_ptr"(#loc)), %b_ptr: !tt.ptr<f16> {tt.divisibility = 16 : i32, tt.pointer_range = 32 : i32} loc("b_ptr"(#loc)), %c_ptr: !tt.ptr<f16> {tt.divisibility = 16 : i32, tt.pointer_range = 32 : i32} loc("c_ptr"(#loc)), %M: i32 {tt.divisibility = 16 : i32} loc("M"(#loc)), %N: i32 {tt.divisibility = 16 : i32} loc("N"(#loc)), %K: i32 {tt.divisibility = 16 : i32} loc("K"(#loc)), %stride_am: i32 {tt.divisibility = 16 : i32} loc("stride_am"(#loc)), %stride_bk: i32 {tt.divisibility = 16 : i32} loc("stride_bk"(#loc)), %stride_cm: i32 {tt.divisibility = 16 : i32} loc("stride_cm"(#loc))) attributes {noinline = false} {
    %pid = tt.get_program_id x : i32 loc(#loc104)
    %num_pid_m = tt.call @triton.language.standard.cdiv__i32_c64(%M) : (i32) -> i32 loc(#loc105)
    %num_pid_n = tt.call @triton.language.standard.cdiv__i32_c32(%N) : (i32) -> i32 loc(#loc106)
    %num_pid_in_group = arith.constant 4 : i32 loc(#loc107)
    %num_pid_in_group_0 = arith.constant 4 : i32 loc(#loc107)
    %num_pid_in_group_1 = arith.extsi %num_pid_in_group_0 : i32 to i64 loc(#loc107)
    %num_pid_in_group_2 = arith.extsi %num_pid_n : i32 to i64 loc(#loc107)
    %num_pid_in_group_3 = arith.muli %num_pid_in_group_1, %num_pid_in_group_2 : i64 loc(#loc107)
    %num_pid_in_group_4 = arith.constant 2147483647 : i64 loc(#loc107)
    %num_pid_in_group_5 = arith.constant -2147483648 : i64 loc(#loc107)
    %num_pid_in_group_6 = arith.cmpi sle, %num_pid_in_group_3, %num_pid_in_group_4 : i64 loc(#loc107)
    %num_pid_in_group_7 = arith.cmpi sge, %num_pid_in_group_3, %num_pid_in_group_5 : i64 loc(#loc107)
    %num_pid_in_group_8 = arith.andi %num_pid_in_group_6, %num_pid_in_group_7 : i1 loc(#loc107)
    %num_pid_in_group_9 = arith.muli %num_pid_in_group_0, %num_pid_n : i32 loc(#loc107)
    %group_id = arith.divsi %pid, %num_pid_in_group_9 : i32 loc(#loc108)
    %first_pid_m = arith.constant 4 : i32 loc(#loc109)
    %first_pid_m_10 = arith.constant 4 : i32 loc(#loc109)
    %first_pid_m_11 = arith.extsi %group_id : i32 to i64 loc(#loc109)
    %first_pid_m_12 = arith.extsi %first_pid_m_10 : i32 to i64 loc(#loc109)
    %first_pid_m_13 = arith.muli %first_pid_m_11, %first_pid_m_12 : i64 loc(#loc109)
    %first_pid_m_14 = arith.constant 2147483647 : i64 loc(#loc109)
    %first_pid_m_15 = arith.constant -2147483648 : i64 loc(#loc109)
    %first_pid_m_16 = arith.cmpi sle, %first_pid_m_13, %first_pid_m_14 : i64 loc(#loc109)
    %first_pid_m_17 = arith.cmpi sge, %first_pid_m_13, %first_pid_m_15 : i64 loc(#loc109)
    %first_pid_m_18 = arith.andi %first_pid_m_16, %first_pid_m_17 : i1 loc(#loc109)
    %first_pid_m_19 = arith.muli %group_id, %first_pid_m_10 : i32 loc(#loc109)
    %group_size_m = arith.extsi %num_pid_m : i32 to i64 loc(#loc110)
    %group_size_m_20 = arith.extsi %first_pid_m_19 : i32 to i64 loc(#loc110)
    %group_size_m_21 = arith.subi %group_size_m, %group_size_m_20 : i64 loc(#loc110)
    %group_size_m_22 = arith.constant 2147483647 : i64 loc(#loc110)
    %group_size_m_23 = arith.constant -2147483648 : i64 loc(#loc110)
    %group_size_m_24 = arith.cmpi sle, %group_size_m_21, %group_size_m_22 : i64 loc(#loc110)
    %group_size_m_25 = arith.cmpi sge, %group_size_m_21, %group_size_m_23 : i64 loc(#loc110)
    %group_size_m_26 = arith.andi %group_size_m_24, %group_size_m_25 : i1 loc(#loc110)
    %group_size_m_27 = arith.subi %num_pid_m, %first_pid_m_19 : i32 loc(#loc110)
    %group_size_m_28 = arith.constant 4 : i32 loc(#loc111)
    %group_size_m_29 = arith.minsi %group_size_m_27, %group_size_m_28 : i32 loc(#loc111)
    %pid_m = arith.remsi %pid, %num_pid_in_group_9 : i32 loc(#loc112)
    %pid_m_30 = arith.remsi %pid_m, %group_size_m_29 : i32 loc(#loc113)
    %pid_m_31 = arith.extsi %first_pid_m_19 : i32 to i64 loc(#loc114)
    %pid_m_32 = arith.extsi %pid_m_30 : i32 to i64 loc(#loc114)
    %pid_m_33 = arith.addi %pid_m_31, %pid_m_32 : i64 loc(#loc114)
    %pid_m_34 = arith.constant 2147483647 : i64 loc(#loc114)
    %pid_m_35 = arith.constant -2147483648 : i64 loc(#loc114)
    %pid_m_36 = arith.cmpi sle, %pid_m_33, %pid_m_34 : i64 loc(#loc114)
    %pid_m_37 = arith.cmpi sge, %pid_m_33, %pid_m_35 : i64 loc(#loc114)
    %pid_m_38 = arith.andi %pid_m_36, %pid_m_37 : i1 loc(#loc114)
    %pid_m_39 = arith.addi %first_pid_m_19, %pid_m_30 : i32 loc(#loc114)
    %pid_n = arith.remsi %pid, %num_pid_in_group_9 : i32 loc(#loc115)
    %pid_n_40 = arith.divsi %pid_n, %group_size_m_29 : i32 loc(#loc116)
    %c0_i32 = arith.constant 0 : i32 loc(#loc14)
    %0 = arith.cmpi sge, %pid_m_39, %c0_i32 : i32 loc(#loc14)
    llvm.intr.assume %0 : i1 loc(#loc15)
    %c0_i32_41 = arith.constant 0 : i32 loc(#loc16)
    %1 = arith.cmpi sge, %pid_n_40, %c0_i32_41 : i32 loc(#loc16)
    llvm.intr.assume %1 : i1 loc(#loc17)
    %c0_i32_42 = arith.constant 0 : i32 loc(#loc18)
    %2 = arith.cmpi sgt, %stride_am, %c0_i32_42 : i32 loc(#loc18)
    llvm.intr.assume %2 : i1 loc(#loc19)
    %true = arith.constant true loc(#loc20)
    llvm.intr.assume %true : i1 loc(#loc20)
    %true_43 = arith.constant true loc(#loc21)
    llvm.intr.assume %true_43 : i1 loc(#loc21)
    %c0_i32_44 = arith.constant 0 : i32 loc(#loc22)
    %3 = arith.cmpi sgt, %stride_bk, %c0_i32_44 : i32 loc(#loc22)
    llvm.intr.assume %3 : i1 loc(#loc23)
    %c0_i32_45 = arith.constant 0 : i32 loc(#loc24)
    %4 = arith.cmpi sgt, %stride_cm, %c0_i32_45 : i32 loc(#loc24)
    llvm.intr.assume %4 : i1 loc(#loc25)
    %true_46 = arith.constant true loc(#loc26)
    llvm.intr.assume %true_46 : i1 loc(#loc26)
    %offs_am = arith.constant 64 : i32 loc(#loc117)
    %offs_am_47 = arith.constant 64 : i32 loc(#loc117)
    %offs_am_48 = arith.extsi %pid_m_39 : i32 to i64 loc(#loc117)
    %offs_am_49 = arith.extsi %offs_am_47 : i32 to i64 loc(#loc117)
    %offs_am_50 = arith.muli %offs_am_48, %offs_am_49 : i64 loc(#loc117)
    %offs_am_51 = arith.constant 2147483647 : i64 loc(#loc117)
    %offs_am_52 = arith.constant -2147483648 : i64 loc(#loc117)
    %offs_am_53 = arith.cmpi sle, %offs_am_50, %offs_am_51 : i64 loc(#loc117)
    %offs_am_54 = arith.cmpi sge, %offs_am_50, %offs_am_52 : i64 loc(#loc117)
    %offs_am_55 = arith.andi %offs_am_53, %offs_am_54 : i1 loc(#loc117)
    %offs_am_56 = arith.muli %pid_m_39, %offs_am_47 : i32 loc(#loc117)
    %offs_am_57 = tt.make_range {end = 64 : i32, start = 0 : i32} : tensor<64xi32> loc(#loc118)
    %offs_am_58 = tt.splat %offs_am_56 : i32 -> tensor<64xi32> loc(#loc119)
    %offs_am_59 = arith.extsi %offs_am_58 : tensor<64xi32> to tensor<64xi64> loc(#loc119)
    %offs_am_60 = arith.extsi %offs_am_57 : tensor<64xi32> to tensor<64xi64> loc(#loc119)
    %offs_am_61 = arith.addi %offs_am_59, %offs_am_60 : tensor<64xi64> loc(#loc119)
    %offs_am_62 = arith.constant 2147483647 : i64 loc(#loc119)
    %offs_am_63 = arith.constant -2147483648 : i64 loc(#loc119)
    %offs_am_64 = arith.constant dense<2147483647> : tensor<64xi64> loc(#loc119)
    %offs_am_65 = arith.cmpi sle, %offs_am_61, %offs_am_64 : tensor<64xi64> loc(#loc119)
    %offs_am_66 = arith.constant dense<-2147483648> : tensor<64xi64> loc(#loc119)
    %offs_am_67 = arith.cmpi sge, %offs_am_61, %offs_am_66 : tensor<64xi64> loc(#loc119)
    %offs_am_68 = arith.andi %offs_am_65, %offs_am_67 : tensor<64xi1> loc(#loc119)
    %offs_am_69 = arith.addi %offs_am_58, %offs_am_57 : tensor<64xi32> loc(#loc119)
    %offs_am_70 = tt.splat %M : i32 -> tensor<64xi32> loc(#loc120)
    %offs_am_71 = arith.remsi %offs_am_69, %offs_am_70 : tensor<64xi32> loc(#loc120)
    %offs_bn = arith.constant 32 : i32 loc(#loc121)
    %offs_bn_72 = arith.constant 32 : i32 loc(#loc121)
    %offs_bn_73 = arith.extsi %pid_n_40 : i32 to i64 loc(#loc121)
    %offs_bn_74 = arith.extsi %offs_bn_72 : i32 to i64 loc(#loc121)
    %offs_bn_75 = arith.muli %offs_bn_73, %offs_bn_74 : i64 loc(#loc121)
    %offs_bn_76 = arith.constant 2147483647 : i64 loc(#loc121)
    %offs_bn_77 = arith.constant -2147483648 : i64 loc(#loc121)
    %offs_bn_78 = arith.cmpi sle, %offs_bn_75, %offs_bn_76 : i64 loc(#loc121)
    %offs_bn_79 = arith.cmpi sge, %offs_bn_75, %offs_bn_77 : i64 loc(#loc121)
    %offs_bn_80 = arith.andi %offs_bn_78, %offs_bn_79 : i1 loc(#loc121)
    %offs_bn_81 = arith.muli %pid_n_40, %offs_bn_72 : i32 loc(#loc121)
    %offs_bn_82 = tt.make_range {end = 32 : i32, start = 0 : i32} : tensor<32xi32> loc(#loc122)
    %offs_bn_83 = tt.splat %offs_bn_81 : i32 -> tensor<32xi32> loc(#loc123)
    %offs_bn_84 = arith.extsi %offs_bn_83 : tensor<32xi32> to tensor<32xi64> loc(#loc123)
    %offs_bn_85 = arith.extsi %offs_bn_82 : tensor<32xi32> to tensor<32xi64> loc(#loc123)
    %offs_bn_86 = arith.addi %offs_bn_84, %offs_bn_85 : tensor<32xi64> loc(#loc123)
    %offs_bn_87 = arith.constant 2147483647 : i64 loc(#loc123)
    %offs_bn_88 = arith.constant -2147483648 : i64 loc(#loc123)
    %offs_bn_89 = arith.constant dense<2147483647> : tensor<32xi64> loc(#loc123)
    %offs_bn_90 = arith.cmpi sle, %offs_bn_86, %offs_bn_89 : tensor<32xi64> loc(#loc123)
    %offs_bn_91 = arith.constant dense<-2147483648> : tensor<32xi64> loc(#loc123)
    %offs_bn_92 = arith.cmpi sge, %offs_bn_86, %offs_bn_91 : tensor<32xi64> loc(#loc123)
    %offs_bn_93 = arith.andi %offs_bn_90, %offs_bn_92 : tensor<32xi1> loc(#loc123)
    %offs_bn_94 = arith.addi %offs_bn_83, %offs_bn_82 : tensor<32xi32> loc(#loc123)
    %offs_bn_95 = tt.splat %N : i32 -> tensor<32xi32> loc(#loc124)
    %offs_bn_96 = arith.remsi %offs_bn_94, %offs_bn_95 : tensor<32xi32> loc(#loc124)
    %offs_k = tt.make_range {end = 64 : i32, start = 0 : i32} : tensor<64xi32> loc(#loc125)
    %a_ptrs = tt.expand_dims %offs_am_71 {axis = 1 : i32} : tensor<64xi32> -> tensor<64x1xi32> loc(#loc126)
    %a_ptrs_97 = tt.splat %stride_am : i32 -> tensor<64x1xi32> loc(#loc127)
    %a_ptrs_98 = arith.extsi %a_ptrs : tensor<64x1xi32> to tensor<64x1xi64> loc(#loc127)
    %a_ptrs_99 = arith.extsi %a_ptrs_97 : tensor<64x1xi32> to tensor<64x1xi64> loc(#loc127)
    %a_ptrs_100 = arith.muli %a_ptrs_98, %a_ptrs_99 : tensor<64x1xi64> loc(#loc127)
    %a_ptrs_101 = arith.constant 2147483647 : i64 loc(#loc127)
    %a_ptrs_102 = arith.constant -2147483648 : i64 loc(#loc127)
    %a_ptrs_103 = arith.constant dense<2147483647> : tensor<64x1xi64> loc(#loc127)
    %a_ptrs_104 = arith.cmpi sle, %a_ptrs_100, %a_ptrs_103 : tensor<64x1xi64> loc(#loc127)
    %a_ptrs_105 = arith.constant dense<-2147483648> : tensor<64x1xi64> loc(#loc127)
    %a_ptrs_106 = arith.cmpi sge, %a_ptrs_100, %a_ptrs_105 : tensor<64x1xi64> loc(#loc127)
    %a_ptrs_107 = arith.andi %a_ptrs_104, %a_ptrs_106 : tensor<64x1xi1> loc(#loc127)
    %a_ptrs_108 = arith.muli %a_ptrs, %a_ptrs_97 : tensor<64x1xi32> loc(#loc127)
    %a_ptrs_109 = tt.expand_dims %offs_k {axis = 0 : i32} : tensor<64xi32> -> tensor<1x64xi32> loc(#loc128)
    %a_ptrs_110 = arith.constant 1 : i32 loc(#loc129)
    %a_ptrs_111 = arith.constant 1 : i32 loc(#loc129)
    %a_ptrs_112 = arith.constant dense<1> : tensor<1x64xi32> loc(#loc129)
    %a_ptrs_113 = arith.extsi %a_ptrs_109 : tensor<1x64xi32> to tensor<1x64xi64> loc(#loc129)
    %a_ptrs_114 = arith.extsi %a_ptrs_112 : tensor<1x64xi32> to tensor<1x64xi64> loc(#loc129)
    %a_ptrs_115 = arith.muli %a_ptrs_113, %a_ptrs_114 : tensor<1x64xi64> loc(#loc129)
    %a_ptrs_116 = arith.constant 2147483647 : i64 loc(#loc129)
    %a_ptrs_117 = arith.constant -2147483648 : i64 loc(#loc129)
    %a_ptrs_118 = arith.constant dense<2147483647> : tensor<1x64xi64> loc(#loc129)
    %a_ptrs_119 = arith.cmpi sle, %a_ptrs_115, %a_ptrs_118 : tensor<1x64xi64> loc(#loc129)
    %a_ptrs_120 = arith.constant dense<-2147483648> : tensor<1x64xi64> loc(#loc129)
    %a_ptrs_121 = arith.cmpi sge, %a_ptrs_115, %a_ptrs_120 : tensor<1x64xi64> loc(#loc129)
    %a_ptrs_122 = arith.andi %a_ptrs_119, %a_ptrs_121 : tensor<1x64xi1> loc(#loc129)
    %a_ptrs_123 = arith.muli %a_ptrs_109, %a_ptrs_112 : tensor<1x64xi32> loc(#loc129)
    %a_ptrs_124 = tt.broadcast %a_ptrs_108 : tensor<64x1xi32> -> tensor<64x64xi32> loc(#loc130)
    %a_ptrs_125 = tt.broadcast %a_ptrs_123 : tensor<1x64xi32> -> tensor<64x64xi32> loc(#loc130)
    %a_ptrs_126 = arith.extsi %a_ptrs_124 : tensor<64x64xi32> to tensor<64x64xi64> loc(#loc130)
    %a_ptrs_127 = arith.extsi %a_ptrs_125 : tensor<64x64xi32> to tensor<64x64xi64> loc(#loc130)
    %a_ptrs_128 = arith.addi %a_ptrs_126, %a_ptrs_127 : tensor<64x64xi64> loc(#loc130)
    %a_ptrs_129 = arith.constant 2147483647 : i64 loc(#loc130)
    %a_ptrs_130 = arith.constant -2147483648 : i64 loc(#loc130)
    %a_ptrs_131 = arith.constant dense<2147483647> : tensor<64x64xi64> loc(#loc130)
    %a_ptrs_132 = arith.cmpi sle, %a_ptrs_128, %a_ptrs_131 : tensor<64x64xi64> loc(#loc130)
    %a_ptrs_133 = arith.constant dense<-2147483648> : tensor<64x64xi64> loc(#loc130)
    %a_ptrs_134 = arith.cmpi sge, %a_ptrs_128, %a_ptrs_133 : tensor<64x64xi64> loc(#loc130)
    %a_ptrs_135 = arith.andi %a_ptrs_132, %a_ptrs_134 : tensor<64x64xi1> loc(#loc130)
    %a_ptrs_136 = arith.addi %a_ptrs_124, %a_ptrs_125 : tensor<64x64xi32> loc(#loc130)
    %a_ptrs_137 = tt.splat %a_ptr : !tt.ptr<f16> -> tensor<64x64x!tt.ptr<f16>> loc(#loc131)
    %a_ptrs_138 = tt.addptr %a_ptrs_137, %a_ptrs_136 : tensor<64x64x!tt.ptr<f16>>, tensor<64x64xi32> loc(#loc131)
    %b_ptrs = tt.expand_dims %offs_k {axis = 1 : i32} : tensor<64xi32> -> tensor<64x1xi32> loc(#loc132)
    %b_ptrs_139 = tt.splat %stride_bk : i32 -> tensor<64x1xi32> loc(#loc133)
    %b_ptrs_140 = arith.extsi %b_ptrs : tensor<64x1xi32> to tensor<64x1xi64> loc(#loc133)
    %b_ptrs_141 = arith.extsi %b_ptrs_139 : tensor<64x1xi32> to tensor<64x1xi64> loc(#loc133)
    %b_ptrs_142 = arith.muli %b_ptrs_140, %b_ptrs_141 : tensor<64x1xi64> loc(#loc133)
    %b_ptrs_143 = arith.constant 2147483647 : i64 loc(#loc133)
    %b_ptrs_144 = arith.constant -2147483648 : i64 loc(#loc133)
    %b_ptrs_145 = arith.constant dense<2147483647> : tensor<64x1xi64> loc(#loc133)
    %b_ptrs_146 = arith.cmpi sle, %b_ptrs_142, %b_ptrs_145 : tensor<64x1xi64> loc(#loc133)
    %b_ptrs_147 = arith.constant dense<-2147483648> : tensor<64x1xi64> loc(#loc133)
    %b_ptrs_148 = arith.cmpi sge, %b_ptrs_142, %b_ptrs_147 : tensor<64x1xi64> loc(#loc133)
    %b_ptrs_149 = arith.andi %b_ptrs_146, %b_ptrs_148 : tensor<64x1xi1> loc(#loc133)
    %b_ptrs_150 = arith.muli %b_ptrs, %b_ptrs_139 : tensor<64x1xi32> loc(#loc133)
    %b_ptrs_151 = tt.expand_dims %offs_bn_96 {axis = 0 : i32} : tensor<32xi32> -> tensor<1x32xi32> loc(#loc134)
    %b_ptrs_152 = arith.constant 1 : i32 loc(#loc135)
    %b_ptrs_153 = arith.constant 1 : i32 loc(#loc135)
    %b_ptrs_154 = arith.constant dense<1> : tensor<1x32xi32> loc(#loc135)
    %b_ptrs_155 = arith.extsi %b_ptrs_151 : tensor<1x32xi32> to tensor<1x32xi64> loc(#loc135)
    %b_ptrs_156 = arith.extsi %b_ptrs_154 : tensor<1x32xi32> to tensor<1x32xi64> loc(#loc135)
    %b_ptrs_157 = arith.muli %b_ptrs_155, %b_ptrs_156 : tensor<1x32xi64> loc(#loc135)
    %b_ptrs_158 = arith.constant 2147483647 : i64 loc(#loc135)
    %b_ptrs_159 = arith.constant -2147483648 : i64 loc(#loc135)
    %b_ptrs_160 = arith.constant dense<2147483647> : tensor<1x32xi64> loc(#loc135)
    %b_ptrs_161 = arith.cmpi sle, %b_ptrs_157, %b_ptrs_160 : tensor<1x32xi64> loc(#loc135)
    %b_ptrs_162 = arith.constant dense<-2147483648> : tensor<1x32xi64> loc(#loc135)
    %b_ptrs_163 = arith.cmpi sge, %b_ptrs_157, %b_ptrs_162 : tensor<1x32xi64> loc(#loc135)
    %b_ptrs_164 = arith.andi %b_ptrs_161, %b_ptrs_163 : tensor<1x32xi1> loc(#loc135)
    %b_ptrs_165 = arith.muli %b_ptrs_151, %b_ptrs_154 : tensor<1x32xi32> loc(#loc135)
    %b_ptrs_166 = tt.broadcast %b_ptrs_150 : tensor<64x1xi32> -> tensor<64x32xi32> loc(#loc136)
    %b_ptrs_167 = tt.broadcast %b_ptrs_165 : tensor<1x32xi32> -> tensor<64x32xi32> loc(#loc136)
    %b_ptrs_168 = arith.extsi %b_ptrs_166 : tensor<64x32xi32> to tensor<64x32xi64> loc(#loc136)
    %b_ptrs_169 = arith.extsi %b_ptrs_167 : tensor<64x32xi32> to tensor<64x32xi64> loc(#loc136)
    %b_ptrs_170 = arith.addi %b_ptrs_168, %b_ptrs_169 : tensor<64x32xi64> loc(#loc136)
    %b_ptrs_171 = arith.constant 2147483647 : i64 loc(#loc136)
    %b_ptrs_172 = arith.constant -2147483648 : i64 loc(#loc136)
    %b_ptrs_173 = arith.constant dense<2147483647> : tensor<64x32xi64> loc(#loc136)
    %b_ptrs_174 = arith.cmpi sle, %b_ptrs_170, %b_ptrs_173 : tensor<64x32xi64> loc(#loc136)
    %b_ptrs_175 = arith.constant dense<-2147483648> : tensor<64x32xi64> loc(#loc136)
    %b_ptrs_176 = arith.cmpi sge, %b_ptrs_170, %b_ptrs_175 : tensor<64x32xi64> loc(#loc136)
    %b_ptrs_177 = arith.andi %b_ptrs_174, %b_ptrs_176 : tensor<64x32xi1> loc(#loc136)
    %b_ptrs_178 = arith.addi %b_ptrs_166, %b_ptrs_167 : tensor<64x32xi32> loc(#loc136)
    %b_ptrs_179 = tt.splat %b_ptr : !tt.ptr<f16> -> tensor<64x32x!tt.ptr<f16>> loc(#loc137)
    %b_ptrs_180 = tt.addptr %b_ptrs_179, %b_ptrs_178 : tensor<64x32x!tt.ptr<f16>>, tensor<64x32xi32> loc(#loc137)
    %accumulator = tt.call @triton.language.standard.zeros__Tc64_c32T_cfp32() : () -> tensor<64x32xf32> loc(#loc138)
    %5 = tt.call @triton.language.standard.cdiv__i32_c64(%K) : (i32) -> i32 loc(#loc49)
    %c0_i32_181 = arith.constant 0 : i32 loc(#loc50)
    %c1_i32 = arith.constant 1 : i32 loc(#loc50)
    %6 = arith.bitcast %c0_i32_181 : i32 to i32 loc(#loc50)
    %7 = arith.bitcast %5 : i32 to i32 loc(#loc50)
    %8 = arith.bitcast %c1_i32 : i32 to i32 loc(#loc50)
    %9 = ub.poison : i32 loc(#loc50)
    %accumulator_182:3 = scf.for %k = %6 to %7 step %8 iter_args(%a_ptrs_269 = %a_ptrs_138, %b_ptrs_270 = %b_ptrs_180, %accumulator_271 = %accumulator) -> (tensor<64x64x!tt.ptr<f16>>, tensor<64x32x!tt.ptr<f16>>, tensor<64x32xf32>)  : i32 {
      %a = tt.expand_dims %offs_k {axis = 0 : i32} : tensor<64xi32> -> tensor<1x64xi32> loc(#loc140)
      %a_272 = arith.constant 64 : i32 loc(#loc141)
      %a_273 = arith.constant 64 : i32 loc(#loc141)
      %a_274 = arith.extsi %k : i32 to i64 loc(#loc141)
      %a_275 = arith.extsi %a_273 : i32 to i64 loc(#loc141)
      %a_276 = arith.muli %a_274, %a_275 : i64 loc(#loc141)
      %a_277 = arith.constant 2147483647 : i64 loc(#loc141)
      %a_278 = arith.constant -2147483648 : i64 loc(#loc141)
      %a_279 = arith.cmpi sle, %a_276, %a_277 : i64 loc(#loc141)
      %a_280 = arith.cmpi sge, %a_276, %a_278 : i64 loc(#loc141)
      %a_281 = arith.andi %a_279, %a_280 : i1 loc(#loc141)
      %a_282 = arith.muli %k, %a_273 : i32 loc(#loc141)
      %a_283 = arith.extsi %K : i32 to i64 loc(#loc142)
      %a_284 = arith.extsi %a_282 : i32 to i64 loc(#loc142)
      %a_285 = arith.subi %a_283, %a_284 : i64 loc(#loc142)
      %a_286 = arith.constant 2147483647 : i64 loc(#loc142)
      %a_287 = arith.constant -2147483648 : i64 loc(#loc142)
      %a_288 = arith.cmpi sle, %a_285, %a_286 : i64 loc(#loc142)
      %a_289 = arith.cmpi sge, %a_285, %a_287 : i64 loc(#loc142)
      %a_290 = arith.andi %a_288, %a_289 : i1 loc(#loc142)
      %a_291 = arith.subi %K, %a_282 : i32 loc(#loc142)
      %a_292 = tt.splat %a_291 : i32 -> tensor<1x64xi32> loc(#loc143)
      %a_293 = arith.cmpi slt, %a, %a_292 : tensor<1x64xi32> loc(#loc143)
      %a_294 = arith.constant 0.000000e+00 : f32 loc(#loc144)
      %a_295 = tt.broadcast %a_293 : tensor<1x64xi1> -> tensor<64x64xi1> loc(#loc144)
      %a_296 = arith.constant dense<0.000000e+00> : tensor<64x64xf32> loc(#loc144)
      %a_297 = arith.truncf %a_296 : tensor<64x64xf32> to tensor<64x64xf16> loc(#loc144)
      %a_298 = tt.load %a_ptrs_269, %a_295, %a_297 : tensor<64x64x!tt.ptr<f16>> loc(#loc144)
      %b = tt.expand_dims %offs_k {axis = 1 : i32} : tensor<64xi32> -> tensor<64x1xi32> loc(#loc145)
      %b_299 = arith.constant 64 : i32 loc(#loc146)
      %b_300 = arith.constant 64 : i32 loc(#loc146)
      %b_301 = arith.extsi %k : i32 to i64 loc(#loc146)
      %b_302 = arith.extsi %b_300 : i32 to i64 loc(#loc146)
      %b_303 = arith.muli %b_301, %b_302 : i64 loc(#loc146)
      %b_304 = arith.constant 2147483647 : i64 loc(#loc146)
      %b_305 = arith.constant -2147483648 : i64 loc(#loc146)
      %b_306 = arith.cmpi sle, %b_303, %b_304 : i64 loc(#loc146)
      %b_307 = arith.cmpi sge, %b_303, %b_305 : i64 loc(#loc146)
      %b_308 = arith.andi %b_306, %b_307 : i1 loc(#loc146)
      %b_309 = arith.muli %k, %b_300 : i32 loc(#loc146)
      %b_310 = arith.extsi %K : i32 to i64 loc(#loc147)
      %b_311 = arith.extsi %b_309 : i32 to i64 loc(#loc147)
      %b_312 = arith.subi %b_310, %b_311 : i64 loc(#loc147)
      %b_313 = arith.constant 2147483647 : i64 loc(#loc147)
      %b_314 = arith.constant -2147483648 : i64 loc(#loc147)
      %b_315 = arith.cmpi sle, %b_312, %b_313 : i64 loc(#loc147)
      %b_316 = arith.cmpi sge, %b_312, %b_314 : i64 loc(#loc147)
      %b_317 = arith.andi %b_315, %b_316 : i1 loc(#loc147)
      %b_318 = arith.subi %K, %b_309 : i32 loc(#loc147)
      %b_319 = tt.splat %b_318 : i32 -> tensor<64x1xi32> loc(#loc148)
      %b_320 = arith.cmpi slt, %b, %b_319 : tensor<64x1xi32> loc(#loc148)
      %b_321 = arith.constant 0.000000e+00 : f32 loc(#loc149)
      %b_322 = tt.broadcast %b_320 : tensor<64x1xi1> -> tensor<64x32xi1> loc(#loc149)
      %b_323 = arith.constant dense<0.000000e+00> : tensor<64x32xf32> loc(#loc149)
      %b_324 = arith.truncf %b_323 : tensor<64x32xf32> to tensor<64x32xf16> loc(#loc149)
      %b_325 = tt.load %b_ptrs_270, %b_322, %b_324 : tensor<64x32x!tt.ptr<f16>> loc(#loc149)
      %accumulator_326 = arith.constant 0.000000e+00 : f32 loc(#loc150)
      %accumulator_327 = tt.dot %a_298, %b_325, %accumulator_271, inputPrecision = tf32 : tensor<64x64xf16> * tensor<64x32xf16> -> tensor<64x32xf32> loc(#loc150)
      %a_ptrs_328 = arith.constant 64 : i32 loc(#loc151)
      %a_ptrs_329 = arith.constant dense<64> : tensor<64x64xi32> loc(#loc151)
      %a_ptrs_330 = tt.addptr %a_ptrs_269, %a_ptrs_329 : tensor<64x64x!tt.ptr<f16>>, tensor<64x64xi32> loc(#loc151)
      %b_ptrs_331 = arith.constant 64 : i32 loc(#loc152)
      %b_ptrs_332 = arith.constant 64 : i32 loc(#loc152)
      %b_ptrs_333 = arith.extsi %b_ptrs_332 : i32 to i64 loc(#loc152)
      %b_ptrs_334 = arith.extsi %stride_bk : i32 to i64 loc(#loc152)
      %b_ptrs_335 = arith.muli %b_ptrs_333, %b_ptrs_334 : i64 loc(#loc152)
      %b_ptrs_336 = arith.constant 2147483647 : i64 loc(#loc152)
      %b_ptrs_337 = arith.constant -2147483648 : i64 loc(#loc152)
      %b_ptrs_338 = arith.cmpi sle, %b_ptrs_335, %b_ptrs_336 : i64 loc(#loc152)
      %b_ptrs_339 = arith.cmpi sge, %b_ptrs_335, %b_ptrs_337 : i64 loc(#loc152)
      %b_ptrs_340 = arith.andi %b_ptrs_338, %b_ptrs_339 : i1 loc(#loc152)
      %b_ptrs_341 = arith.muli %b_ptrs_332, %stride_bk : i32 loc(#loc152)
      %b_ptrs_342 = tt.splat %b_ptrs_341 : i32 -> tensor<64x32xi32> loc(#loc153)
      %b_ptrs_343 = tt.addptr %b_ptrs_270, %b_ptrs_342 : tensor<64x32x!tt.ptr<f16>>, tensor<64x32xi32> loc(#loc153)
      scf.yield %a_ptrs_330, %b_ptrs_343, %accumulator_327 : tensor<64x64x!tt.ptr<f16>>, tensor<64x32x!tt.ptr<f16>>, tensor<64x32xf32> loc(#loc65)
    } loc(#loc174)
    %c = arith.truncf %accumulator_182#2 : tensor<64x32xf32> to tensor<64x32xf16> loc(#loc154)
    %offs_cm = arith.constant 64 : i32 loc(#loc155)
    %offs_cm_183 = arith.constant 64 : i32 loc(#loc155)
    %offs_cm_184 = arith.extsi %pid_m_39 : i32 to i64 loc(#loc155)
    %offs_cm_185 = arith.extsi %offs_cm_183 : i32 to i64 loc(#loc155)
    %offs_cm_186 = arith.muli %offs_cm_184, %offs_cm_185 : i64 loc(#loc155)
    %offs_cm_187 = arith.constant 2147483647 : i64 loc(#loc155)
    %offs_cm_188 = arith.constant -2147483648 : i64 loc(#loc155)
    %offs_cm_189 = arith.cmpi sle, %offs_cm_186, %offs_cm_187 : i64 loc(#loc155)
    %offs_cm_190 = arith.cmpi sge, %offs_cm_186, %offs_cm_188 : i64 loc(#loc155)
    %offs_cm_191 = arith.andi %offs_cm_189, %offs_cm_190 : i1 loc(#loc155)
    %offs_cm_192 = arith.muli %pid_m_39, %offs_cm_183 : i32 loc(#loc155)
    %offs_cm_193 = tt.make_range {end = 64 : i32, start = 0 : i32} : tensor<64xi32> loc(#loc156)
    %offs_cm_194 = tt.splat %offs_cm_192 : i32 -> tensor<64xi32> loc(#loc157)
    %offs_cm_195 = arith.extsi %offs_cm_194 : tensor<64xi32> to tensor<64xi64> loc(#loc157)
    %offs_cm_196 = arith.extsi %offs_cm_193 : tensor<64xi32> to tensor<64xi64> loc(#loc157)
    %offs_cm_197 = arith.addi %offs_cm_195, %offs_cm_196 : tensor<64xi64> loc(#loc157)
    %offs_cm_198 = arith.constant 2147483647 : i64 loc(#loc157)
    %offs_cm_199 = arith.constant -2147483648 : i64 loc(#loc157)
    %offs_cm_200 = arith.constant dense<2147483647> : tensor<64xi64> loc(#loc157)
    %offs_cm_201 = arith.cmpi sle, %offs_cm_197, %offs_cm_200 : tensor<64xi64> loc(#loc157)
    %offs_cm_202 = arith.constant dense<-2147483648> : tensor<64xi64> loc(#loc157)
    %offs_cm_203 = arith.cmpi sge, %offs_cm_197, %offs_cm_202 : tensor<64xi64> loc(#loc157)
    %offs_cm_204 = arith.andi %offs_cm_201, %offs_cm_203 : tensor<64xi1> loc(#loc157)
    %offs_cm_205 = arith.addi %offs_cm_194, %offs_cm_193 : tensor<64xi32> loc(#loc157)
    %offs_cn = arith.constant 32 : i32 loc(#loc158)
    %offs_cn_206 = arith.constant 32 : i32 loc(#loc158)
    %offs_cn_207 = arith.extsi %pid_n_40 : i32 to i64 loc(#loc158)
    %offs_cn_208 = arith.extsi %offs_cn_206 : i32 to i64 loc(#loc158)
    %offs_cn_209 = arith.muli %offs_cn_207, %offs_cn_208 : i64 loc(#loc158)
    %offs_cn_210 = arith.constant 2147483647 : i64 loc(#loc158)
    %offs_cn_211 = arith.constant -2147483648 : i64 loc(#loc158)
    %offs_cn_212 = arith.cmpi sle, %offs_cn_209, %offs_cn_210 : i64 loc(#loc158)
    %offs_cn_213 = arith.cmpi sge, %offs_cn_209, %offs_cn_211 : i64 loc(#loc158)
    %offs_cn_214 = arith.andi %offs_cn_212, %offs_cn_213 : i1 loc(#loc158)
    %offs_cn_215 = arith.muli %pid_n_40, %offs_cn_206 : i32 loc(#loc158)
    %offs_cn_216 = tt.make_range {end = 32 : i32, start = 0 : i32} : tensor<32xi32> loc(#loc159)
    %offs_cn_217 = tt.splat %offs_cn_215 : i32 -> tensor<32xi32> loc(#loc160)
    %offs_cn_218 = arith.extsi %offs_cn_217 : tensor<32xi32> to tensor<32xi64> loc(#loc160)
    %offs_cn_219 = arith.extsi %offs_cn_216 : tensor<32xi32> to tensor<32xi64> loc(#loc160)
    %offs_cn_220 = arith.addi %offs_cn_218, %offs_cn_219 : tensor<32xi64> loc(#loc160)
    %offs_cn_221 = arith.constant 2147483647 : i64 loc(#loc160)
    %offs_cn_222 = arith.constant -2147483648 : i64 loc(#loc160)
    %offs_cn_223 = arith.constant dense<2147483647> : tensor<32xi64> loc(#loc160)
    %offs_cn_224 = arith.cmpi sle, %offs_cn_220, %offs_cn_223 : tensor<32xi64> loc(#loc160)
    %offs_cn_225 = arith.constant dense<-2147483648> : tensor<32xi64> loc(#loc160)
    %offs_cn_226 = arith.cmpi sge, %offs_cn_220, %offs_cn_225 : tensor<32xi64> loc(#loc160)
    %offs_cn_227 = arith.andi %offs_cn_224, %offs_cn_226 : tensor<32xi1> loc(#loc160)
    %offs_cn_228 = arith.addi %offs_cn_217, %offs_cn_216 : tensor<32xi32> loc(#loc160)
    %c_ptrs = tt.expand_dims %offs_cm_205 {axis = 1 : i32} : tensor<64xi32> -> tensor<64x1xi32> loc(#loc161)
    %c_ptrs_229 = tt.splat %stride_cm : i32 -> tensor<64x1xi32> loc(#loc162)
    %c_ptrs_230 = arith.extsi %c_ptrs_229 : tensor<64x1xi32> to tensor<64x1xi64> loc(#loc162)
    %c_ptrs_231 = arith.extsi %c_ptrs : tensor<64x1xi32> to tensor<64x1xi64> loc(#loc162)
    %c_ptrs_232 = arith.muli %c_ptrs_230, %c_ptrs_231 : tensor<64x1xi64> loc(#loc162)
    %c_ptrs_233 = arith.constant 2147483647 : i64 loc(#loc162)
    %c_ptrs_234 = arith.constant -2147483648 : i64 loc(#loc162)
    %c_ptrs_235 = arith.constant dense<2147483647> : tensor<64x1xi64> loc(#loc162)
    %c_ptrs_236 = arith.cmpi sle, %c_ptrs_232, %c_ptrs_235 : tensor<64x1xi64> loc(#loc162)
    %c_ptrs_237 = arith.constant dense<-2147483648> : tensor<64x1xi64> loc(#loc162)
    %c_ptrs_238 = arith.cmpi sge, %c_ptrs_232, %c_ptrs_237 : tensor<64x1xi64> loc(#loc162)
    %c_ptrs_239 = arith.andi %c_ptrs_236, %c_ptrs_238 : tensor<64x1xi1> loc(#loc162)
    %c_ptrs_240 = arith.muli %c_ptrs_229, %c_ptrs : tensor<64x1xi32> loc(#loc162)
    %c_ptrs_241 = tt.splat %c_ptr : !tt.ptr<f16> -> tensor<64x1x!tt.ptr<f16>> loc(#loc163)
    %c_ptrs_242 = tt.addptr %c_ptrs_241, %c_ptrs_240 : tensor<64x1x!tt.ptr<f16>>, tensor<64x1xi32> loc(#loc163)
    %c_ptrs_243 = tt.expand_dims %offs_cn_228 {axis = 0 : i32} : tensor<32xi32> -> tensor<1x32xi32> loc(#loc164)
    %c_ptrs_244 = arith.constant 1 : i32 loc(#loc165)
    %c_ptrs_245 = arith.constant 1 : i32 loc(#loc165)
    %c_ptrs_246 = arith.constant dense<1> : tensor<1x32xi32> loc(#loc165)
    %c_ptrs_247 = arith.extsi %c_ptrs_246 : tensor<1x32xi32> to tensor<1x32xi64> loc(#loc165)
    %c_ptrs_248 = arith.extsi %c_ptrs_243 : tensor<1x32xi32> to tensor<1x32xi64> loc(#loc165)
    %c_ptrs_249 = arith.muli %c_ptrs_247, %c_ptrs_248 : tensor<1x32xi64> loc(#loc165)
    %c_ptrs_250 = arith.constant 2147483647 : i64 loc(#loc165)
    %c_ptrs_251 = arith.constant -2147483648 : i64 loc(#loc165)
    %c_ptrs_252 = arith.constant dense<2147483647> : tensor<1x32xi64> loc(#loc165)
    %c_ptrs_253 = arith.cmpi sle, %c_ptrs_249, %c_ptrs_252 : tensor<1x32xi64> loc(#loc165)
    %c_ptrs_254 = arith.constant dense<-2147483648> : tensor<1x32xi64> loc(#loc165)
    %c_ptrs_255 = arith.cmpi sge, %c_ptrs_249, %c_ptrs_254 : tensor<1x32xi64> loc(#loc165)
    %c_ptrs_256 = arith.andi %c_ptrs_253, %c_ptrs_255 : tensor<1x32xi1> loc(#loc165)
    %c_ptrs_257 = arith.muli %c_ptrs_246, %c_ptrs_243 : tensor<1x32xi32> loc(#loc165)
    %c_ptrs_258 = tt.broadcast %c_ptrs_242 : tensor<64x1x!tt.ptr<f16>> -> tensor<64x32x!tt.ptr<f16>> loc(#loc166)
    %c_ptrs_259 = tt.broadcast %c_ptrs_257 : tensor<1x32xi32> -> tensor<64x32xi32> loc(#loc166)
    %c_ptrs_260 = tt.addptr %c_ptrs_258, %c_ptrs_259 : tensor<64x32x!tt.ptr<f16>>, tensor<64x32xi32> loc(#loc166)
    %c_mask = tt.expand_dims %offs_cm_205 {axis = 1 : i32} : tensor<64xi32> -> tensor<64x1xi32> loc(#loc167)
    %c_mask_261 = tt.splat %M : i32 -> tensor<64x1xi32> loc(#loc168)
    %c_mask_262 = arith.cmpi slt, %c_mask, %c_mask_261 : tensor<64x1xi32> loc(#loc168)
    %c_mask_263 = tt.expand_dims %offs_cn_228 {axis = 0 : i32} : tensor<32xi32> -> tensor<1x32xi32> loc(#loc169)
    %c_mask_264 = tt.splat %N : i32 -> tensor<1x32xi32> loc(#loc170)
    %c_mask_265 = arith.cmpi slt, %c_mask_263, %c_mask_264 : tensor<1x32xi32> loc(#loc170)
    %c_mask_266 = tt.broadcast %c_mask_262 : tensor<64x1xi1> -> tensor<64x32xi1> loc(#loc171)
    %c_mask_267 = tt.broadcast %c_mask_265 : tensor<1x32xi1> -> tensor<64x32xi1> loc(#loc171)
    %c_mask_268 = arith.andi %c_mask_266, %c_mask_267 : tensor<64x32xi1> loc(#loc171)
    tt.store %c_ptrs_260, %c, %c_mask_268 : tensor<64x32x!tt.ptr<f16>> loc(#loc84)
    tt.return loc(#loc85)
  } loc(#loc)
  tt.func private @triton.language.standard.cdiv__i32_c64(%x: i32 loc("x"(#loc86))) -> i32 attributes {noinline = false} {
    %c63_i32 = arith.constant 63 : i32 loc(#loc87)
    %c63_i32_0 = arith.constant 63 : i32 loc(#loc87)
    %0 = arith.extsi %x : i32 to i64 loc(#loc87)
    %1 = arith.extsi %c63_i32_0 : i32 to i64 loc(#loc87)
    %2 = arith.addi %0, %1 : i64 loc(#loc87)
    %c2147483647_i64 = arith.constant 2147483647 : i64 loc(#loc87)
    %c-2147483648_i64 = arith.constant -2147483648 : i64 loc(#loc87)
    %3 = arith.cmpi sle, %2, %c2147483647_i64 : i64 loc(#loc87)
    %4 = arith.cmpi sge, %2, %c-2147483648_i64 : i64 loc(#loc87)
    %5 = arith.andi %3, %4 : i1 loc(#loc87)
    %6 = arith.addi %x, %c63_i32_0 : i32 loc(#loc87)
    %c64_i32 = arith.constant 64 : i32 loc(#loc88)
    %c64_i32_1 = arith.constant 64 : i32 loc(#loc88)
    %7 = arith.divsi %6, %c64_i32_1 : i32 loc(#loc88)
    tt.return %7 : i32 loc(#loc89)
  ^bb1:  // no predecessors
    %8 = ub.poison : i32 loc(#loc90)
    tt.return %8 : i32 loc(#loc90)
  } loc(#loc86)
  tt.func private @triton.language.standard.cdiv__i32_c32(%x: i32 loc("x"(#loc86))) -> i32 attributes {noinline = false} {
    %c31_i32 = arith.constant 31 : i32 loc(#loc87)
    %c31_i32_0 = arith.constant 31 : i32 loc(#loc87)
    %0 = arith.extsi %x : i32 to i64 loc(#loc87)
    %1 = arith.extsi %c31_i32_0 : i32 to i64 loc(#loc87)
    %2 = arith.addi %0, %1 : i64 loc(#loc87)
    %c2147483647_i64 = arith.constant 2147483647 : i64 loc(#loc87)
    %c-2147483648_i64 = arith.constant -2147483648 : i64 loc(#loc87)
    %3 = arith.cmpi sle, %2, %c2147483647_i64 : i64 loc(#loc87)
    %4 = arith.cmpi sge, %2, %c-2147483648_i64 : i64 loc(#loc87)
    %5 = arith.andi %3, %4 : i1 loc(#loc87)
    %6 = arith.addi %x, %c31_i32_0 : i32 loc(#loc87)
    %c32_i32 = arith.constant 32 : i32 loc(#loc88)
    %c32_i32_1 = arith.constant 32 : i32 loc(#loc88)
    %7 = arith.divsi %6, %c32_i32_1 : i32 loc(#loc88)
    tt.return %7 : i32 loc(#loc89)
  ^bb1:  // no predecessors
    %8 = ub.poison : i32 loc(#loc90)
    tt.return %8 : i32 loc(#loc90)
  } loc(#loc86)
  tt.func private @triton.language.standard.zeros__Tc64_c32T_cfp32() -> tensor<64x32xf32> attributes {noinline = false} {
    %cst = arith.constant 0.000000e+00 : f32 loc(#loc92)
    %cst_0 = arith.constant dense<0.000000e+00> : tensor<64x32xf32> loc(#loc92)
    tt.return %cst_0 : tensor<64x32xf32> loc(#loc93)
  ^bb1:  // no predecessors
    %0 = ub.poison : tensor<64x32xf32> loc(#loc94)
    tt.return %0 : tensor<64x32xf32> loc(#loc94)
  } loc(#loc91)
} loc(#loc)
#loc1 = loc("/root/workspace/dsl-lab/triton/matmul/03-matrix-multiplication.py":256:24)
#loc2 = loc("/root/workspace/dsl-lab/triton/matmul/03-matrix-multiplication.py":257:27)
#loc3 = loc("/root/workspace/dsl-lab/triton/matmul/03-matrix-multiplication.py":258:27)
#loc4 = loc("/root/workspace/dsl-lab/triton/matmul/03-matrix-multiplication.py":259:38)
#loc5 = loc("/root/workspace/dsl-lab/triton/matmul/03-matrix-multiplication.py":260:22)
#loc6 = loc("/root/workspace/dsl-lab/triton/matmul/03-matrix-multiplication.py":261:29)
#loc7 = loc("/root/workspace/dsl-lab/triton/matmul/03-matrix-multiplication.py":262:35)
#loc8 = loc("/root/workspace/dsl-lab/triton/matmul/03-matrix-multiplication.py":262:48)
#loc9 = loc("/root/workspace/dsl-lab/triton/matmul/03-matrix-multiplication.py":263:34)
#loc10 = loc("/root/workspace/dsl-lab/triton/matmul/03-matrix-multiplication.py":263:54)
#loc11 = loc("/root/workspace/dsl-lab/triton/matmul/03-matrix-multiplication.py":263:27)
#loc12 = loc("/root/workspace/dsl-lab/triton/matmul/03-matrix-multiplication.py":264:19)
#loc13 = loc("/root/workspace/dsl-lab/triton/matmul/03-matrix-multiplication.py":264:40)
#loc14 = loc("/root/workspace/dsl-lab/triton/matmul/03-matrix-multiplication.py":270:23)
#loc15 = loc("/root/workspace/dsl-lab/triton/matmul/03-matrix-multiplication.py":270:14)
#loc16 = loc("/root/workspace/dsl-lab/triton/matmul/03-matrix-multiplication.py":271:23)
#loc17 = loc("/root/workspace/dsl-lab/triton/matmul/03-matrix-multiplication.py":271:14)
#loc18 = loc("/root/workspace/dsl-lab/triton/matmul/03-matrix-multiplication.py":272:26)
#loc19 = loc("/root/workspace/dsl-lab/triton/matmul/03-matrix-multiplication.py":272:14)
#loc20 = loc("/root/workspace/dsl-lab/triton/matmul/03-matrix-multiplication.py":273:14)
#loc21 = loc("/root/workspace/dsl-lab/triton/matmul/03-matrix-multiplication.py":274:14)
#loc22 = loc("/root/workspace/dsl-lab/triton/matmul/03-matrix-multiplication.py":275:26)
#loc23 = loc("/root/workspace/dsl-lab/triton/matmul/03-matrix-multiplication.py":275:14)
#loc24 = loc("/root/workspace/dsl-lab/triton/matmul/03-matrix-multiplication.py":276:26)
#loc25 = loc("/root/workspace/dsl-lab/triton/matmul/03-matrix-multiplication.py":276:14)
#loc26 = loc("/root/workspace/dsl-lab/triton/matmul/03-matrix-multiplication.py":277:14)
#loc27 = loc("/root/workspace/dsl-lab/triton/matmul/03-matrix-multiplication.py":286:23)
#loc28 = loc("/root/workspace/dsl-lab/triton/matmul/03-matrix-multiplication.py":286:51)
#loc29 = loc("/root/workspace/dsl-lab/triton/matmul/03-matrix-multiplication.py":286:38)
#loc30 = loc("/root/workspace/dsl-lab/triton/matmul/03-matrix-multiplication.py":286:68)
#loc31 = loc("/root/workspace/dsl-lab/triton/matmul/03-matrix-multiplication.py":287:23)
#loc32 = loc("/root/workspace/dsl-lab/triton/matmul/03-matrix-multiplication.py":287:51)
#loc33 = loc("/root/workspace/dsl-lab/triton/matmul/03-matrix-multiplication.py":287:38)
#loc34 = loc("/root/workspace/dsl-lab/triton/matmul/03-matrix-multiplication.py":287:68)
#loc35 = loc("/root/workspace/dsl-lab/triton/matmul/03-matrix-multiplication.py":288:26)
#loc36 = loc("/root/workspace/dsl-lab/triton/matmul/03-matrix-multiplication.py":289:30)
#loc37 = loc("/root/workspace/dsl-lab/triton/matmul/03-matrix-multiplication.py":289:41)
#loc38 = loc("/root/workspace/dsl-lab/triton/matmul/03-matrix-multiplication.py":289:60)
#loc39 = loc("/root/workspace/dsl-lab/triton/matmul/03-matrix-multiplication.py":289:71)
#loc40 = loc("/root/workspace/dsl-lab/triton/matmul/03-matrix-multiplication.py":289:53)
#loc41 = loc("/root/workspace/dsl-lab/triton/matmul/03-matrix-multiplication.py":289:22)
#loc42 = loc("/root/workspace/dsl-lab/triton/matmul/03-matrix-multiplication.py":290:29)
#loc43 = loc("/root/workspace/dsl-lab/triton/matmul/03-matrix-multiplication.py":290:40)
#loc44 = loc("/root/workspace/dsl-lab/triton/matmul/03-matrix-multiplication.py":290:60)
#loc45 = loc("/root/workspace/dsl-lab/triton/matmul/03-matrix-multiplication.py":290:71)
#loc46 = loc("/root/workspace/dsl-lab/triton/matmul/03-matrix-multiplication.py":290:52)
#loc47 = loc("/root/workspace/dsl-lab/triton/matmul/03-matrix-multiplication.py":290:22)
#loc48 = loc("/root/workspace/dsl-lab/triton/matmul/03-matrix-multiplication.py":297:27)
#loc49 = loc("/root/workspace/dsl-lab/triton/matmul/03-matrix-multiplication.py":298:33)
#loc50 = loc("/root/workspace/dsl-lab/triton/matmul/03-matrix-multiplication.py":298:22)
#loc51 = loc("/root/workspace/dsl-lab/triton/matmul/03-matrix-multiplication.py":301:40)
#loc52 = loc("/root/workspace/dsl-lab/triton/matmul/03-matrix-multiplication.py":301:59)
#loc53 = loc("/root/workspace/dsl-lab/triton/matmul/03-matrix-multiplication.py":301:55)
#loc54 = loc("/root/workspace/dsl-lab/triton/matmul/03-matrix-multiplication.py":301:51)
#loc55 = loc("/root/workspace/dsl-lab/triton/matmul/03-matrix-multiplication.py":301:20)
#loc56 = loc("/root/workspace/dsl-lab/triton/matmul/03-matrix-multiplication.py":302:40)
#loc57 = loc("/root/workspace/dsl-lab/triton/matmul/03-matrix-multiplication.py":302:59)
#loc58 = loc("/root/workspace/dsl-lab/triton/matmul/03-matrix-multiplication.py":302:55)
#loc59 = loc("/root/workspace/dsl-lab/triton/matmul/03-matrix-multiplication.py":302:51)
#loc60 = loc("/root/workspace/dsl-lab/triton/matmul/03-matrix-multiplication.py":302:20)
#loc61 = loc("/root/workspace/dsl-lab/triton/matmul/03-matrix-multiplication.py":304:35)
#loc62 = loc("/root/workspace/dsl-lab/triton/matmul/03-matrix-multiplication.py":306:18)
#loc63 = loc("/root/workspace/dsl-lab/triton/matmul/03-matrix-multiplication.py":307:33)
#loc64 = loc("/root/workspace/dsl-lab/triton/matmul/03-matrix-multiplication.py":307:18)
#loc65 = loc("/root/workspace/dsl-lab/triton/matmul/03-matrix-multiplication.py":307:8)
#loc66 = loc("/root/workspace/dsl-lab/triton/matmul/03-matrix-multiplication.py":312:23)
#loc67 = loc("/root/workspace/dsl-lab/triton/matmul/03-matrix-multiplication.py":316:22)
#loc68 = loc("/root/workspace/dsl-lab/triton/matmul/03-matrix-multiplication.py":316:50)
#loc69 = loc("/root/workspace/dsl-lab/triton/matmul/03-matrix-multiplication.py":316:37)
#loc70 = loc("/root/workspace/dsl-lab/triton/matmul/03-matrix-multiplication.py":317:22)
#loc71 = loc("/root/workspace/dsl-lab/triton/matmul/03-matrix-multiplication.py":317:50)
#loc72 = loc("/root/workspace/dsl-lab/triton/matmul/03-matrix-multiplication.py":317:37)
#loc73 = loc("/root/workspace/dsl-lab/triton/matmul/03-matrix-multiplication.py":318:41)
#loc74 = loc("/root/workspace/dsl-lab/triton/matmul/03-matrix-multiplication.py":318:33)
#loc75 = loc("/root/workspace/dsl-lab/triton/matmul/03-matrix-multiplication.py":318:21)
#loc76 = loc("/root/workspace/dsl-lab/triton/matmul/03-matrix-multiplication.py":318:72)
#loc77 = loc("/root/workspace/dsl-lab/triton/matmul/03-matrix-multiplication.py":318:64)
#loc78 = loc("/root/workspace/dsl-lab/triton/matmul/03-matrix-multiplication.py":318:52)
#loc79 = loc("/root/workspace/dsl-lab/triton/matmul/03-matrix-multiplication.py":319:22)
#loc80 = loc("/root/workspace/dsl-lab/triton/matmul/03-matrix-multiplication.py":319:33)
#loc81 = loc("/root/workspace/dsl-lab/triton/matmul/03-matrix-multiplication.py":319:47)
#loc82 = loc("/root/workspace/dsl-lab/triton/matmul/03-matrix-multiplication.py":319:58)
#loc83 = loc("/root/workspace/dsl-lab/triton/matmul/03-matrix-multiplication.py":319:39)
#loc84 = loc("/root/workspace/dsl-lab/triton/matmul/03-matrix-multiplication.py":320:21)
#loc85 = loc("/root/workspace/dsl-lab/triton/matmul/03-matrix-multiplication.py":320:4)
#loc87 = loc("/opt/venv/lib/python3.11/site-packages/triton/language/standard.py":43:17)
#loc88 = loc("/opt/venv/lib/python3.11/site-packages/triton/language/standard.py":43:30)
#loc89 = loc("/opt/venv/lib/python3.11/site-packages/triton/language/standard.py":43:11)
#loc90 = loc("/opt/venv/lib/python3.11/site-packages/triton/language/standard.py":43:4)
#loc91 = loc("/opt/venv/lib/python3.11/site-packages/triton/language/standard.py":120:0)
#loc92 = loc("/opt/venv/lib/python3.11/site-packages/triton/language/standard.py":129:31)
#loc93 = loc("/opt/venv/lib/python3.11/site-packages/triton/language/standard.py":129:11)
#loc94 = loc("/opt/venv/lib/python3.11/site-packages/triton/language/standard.py":129:4)
#loc104 = loc("pid"(#loc1))
#loc105 = loc("num_pid_m"(#loc2))
#loc106 = loc("num_pid_n"(#loc3))
#loc107 = loc("num_pid_in_group"(#loc4))
#loc108 = loc("group_id"(#loc5))
#loc109 = loc("first_pid_m"(#loc6))
#loc110 = loc("group_size_m"(#loc7))
#loc111 = loc("group_size_m"(#loc8))
#loc112 = loc("pid_m"(#loc9))
#loc113 = loc("pid_m"(#loc10))
#loc114 = loc("pid_m"(#loc11))
#loc115 = loc("pid_n"(#loc12))
#loc116 = loc("pid_n"(#loc13))
#loc117 = loc("offs_am"(#loc27))
#loc118 = loc("offs_am"(#loc28))
#loc119 = loc("offs_am"(#loc29))
#loc120 = loc("offs_am"(#loc30))
#loc121 = loc("offs_bn"(#loc31))
#loc122 = loc("offs_bn"(#loc32))
#loc123 = loc("offs_bn"(#loc33))
#loc124 = loc("offs_bn"(#loc34))
#loc125 = loc("offs_k"(#loc35))
#loc126 = loc("a_ptrs"(#loc36))
#loc127 = loc("a_ptrs"(#loc37))
#loc128 = loc("a_ptrs"(#loc38))
#loc129 = loc("a_ptrs"(#loc39))
#loc130 = loc("a_ptrs"(#loc40))
#loc131 = loc("a_ptrs"(#loc41))
#loc132 = loc("b_ptrs"(#loc42))
#loc133 = loc("b_ptrs"(#loc43))
#loc134 = loc("b_ptrs"(#loc44))
#loc135 = loc("b_ptrs"(#loc45))
#loc136 = loc("b_ptrs"(#loc46))
#loc137 = loc("b_ptrs"(#loc47))
#loc138 = loc("accumulator"(#loc48))
#loc139 = loc("a_ptrs"(#loc50))
#loc140 = loc("a"(#loc51))
#loc141 = loc("a"(#loc52))
#loc142 = loc("a"(#loc53))
#loc143 = loc("a"(#loc54))
#loc144 = loc("a"(#loc55))
#loc145 = loc("b"(#loc56))
#loc146 = loc("b"(#loc57))
#loc147 = loc("b"(#loc58))
#loc148 = loc("b"(#loc59))
#loc149 = loc("b"(#loc60))
#loc150 = loc("accumulator"(#loc61))
#loc151 = loc("a_ptrs"(#loc62))
#loc152 = loc("b_ptrs"(#loc63))
#loc153 = loc("b_ptrs"(#loc64))
#loc154 = loc("c"(#loc66))
#loc155 = loc("offs_cm"(#loc67))
#loc156 = loc("offs_cm"(#loc68))
#loc157 = loc("offs_cm"(#loc69))
#loc158 = loc("offs_cn"(#loc70))
#loc159 = loc("offs_cn"(#loc71))
#loc160 = loc("offs_cn"(#loc72))
#loc161 = loc("c_ptrs"(#loc73))
#loc162 = loc("c_ptrs"(#loc74))
#loc163 = loc("c_ptrs"(#loc75))
#loc164 = loc("c_ptrs"(#loc76))
#loc165 = loc("c_ptrs"(#loc77))
#loc166 = loc("c_ptrs"(#loc78))
#loc167 = loc("c_mask"(#loc79))
#loc168 = loc("c_mask"(#loc80))
#loc169 = loc("c_mask"(#loc81))
#loc170 = loc("c_mask"(#loc82))
#loc171 = loc("c_mask"(#loc83))
#loc173 = loc("b_ptrs"(#loc139))
#loc174 = loc("accumulator"(#loc173))


// -----// IR Dump Before Canonicalizer (canonicalize) ('tt.func' operation: @triton.language.standard.cdiv__i32_c32) //----- //
#loc = loc("/root/workspace/dsl-lab/triton/matmul/03-matrix-multiplication.py":233:0)
#loc86 = loc("/opt/venv/lib/python3.11/site-packages/triton/language/standard.py":34:0)
#loc96 = loc("a_ptr"(#loc))
#loc97 = loc("b_ptr"(#loc))
#loc98 = loc("c_ptr"(#loc))
#loc99 = loc("M"(#loc))
#loc100 = loc("N"(#loc))
#loc101 = loc("K"(#loc))
#loc102 = loc("stride_am"(#loc))
#loc103 = loc("stride_bk"(#loc))
#loc104 = loc("stride_cm"(#loc))
#loc173 = loc("x"(#loc86))
module {
  tt.func public @matmul_kernel(%a_ptr: !tt.ptr<f16> {tt.divisibility = 16 : i32, tt.pointer_range = 32 : i32} loc("a_ptr"(#loc)), %b_ptr: !tt.ptr<f16> {tt.divisibility = 16 : i32, tt.pointer_range = 32 : i32} loc("b_ptr"(#loc)), %c_ptr: !tt.ptr<f16> {tt.divisibility = 16 : i32, tt.pointer_range = 32 : i32} loc("c_ptr"(#loc)), %M: i32 {tt.divisibility = 16 : i32} loc("M"(#loc)), %N: i32 {tt.divisibility = 16 : i32} loc("N"(#loc)), %K: i32 {tt.divisibility = 16 : i32} loc("K"(#loc)), %stride_am: i32 {tt.divisibility = 16 : i32} loc("stride_am"(#loc)), %stride_bk: i32 {tt.divisibility = 16 : i32} loc("stride_bk"(#loc)), %stride_cm: i32 {tt.divisibility = 16 : i32} loc("stride_cm"(#loc))) attributes {noinline = false} {
    %pid = tt.get_program_id x : i32 loc(#loc105)
    %num_pid_m = tt.call @triton.language.standard.cdiv__i32_c64(%M) : (i32) -> i32 loc(#loc106)
    %num_pid_n = tt.call @triton.language.standard.cdiv__i32_c32(%N) : (i32) -> i32 loc(#loc107)
    %num_pid_in_group = arith.constant 4 : i32 loc(#loc108)
    %num_pid_in_group_0 = arith.constant 4 : i32 loc(#loc108)
    %num_pid_in_group_1 = arith.extsi %num_pid_in_group_0 : i32 to i64 loc(#loc108)
    %num_pid_in_group_2 = arith.extsi %num_pid_n : i32 to i64 loc(#loc108)
    %num_pid_in_group_3 = arith.muli %num_pid_in_group_1, %num_pid_in_group_2 : i64 loc(#loc108)
    %num_pid_in_group_4 = arith.constant 2147483647 : i64 loc(#loc108)
    %num_pid_in_group_5 = arith.constant -2147483648 : i64 loc(#loc108)
    %num_pid_in_group_6 = arith.cmpi sle, %num_pid_in_group_3, %num_pid_in_group_4 : i64 loc(#loc108)
    %num_pid_in_group_7 = arith.cmpi sge, %num_pid_in_group_3, %num_pid_in_group_5 : i64 loc(#loc108)
    %num_pid_in_group_8 = arith.andi %num_pid_in_group_6, %num_pid_in_group_7 : i1 loc(#loc108)
    %num_pid_in_group_9 = arith.muli %num_pid_in_group_0, %num_pid_n : i32 loc(#loc108)
    %group_id = arith.divsi %pid, %num_pid_in_group_9 : i32 loc(#loc109)
    %first_pid_m = arith.constant 4 : i32 loc(#loc110)
    %first_pid_m_10 = arith.constant 4 : i32 loc(#loc110)
    %first_pid_m_11 = arith.extsi %group_id : i32 to i64 loc(#loc110)
    %first_pid_m_12 = arith.extsi %first_pid_m_10 : i32 to i64 loc(#loc110)
    %first_pid_m_13 = arith.muli %first_pid_m_11, %first_pid_m_12 : i64 loc(#loc110)
    %first_pid_m_14 = arith.constant 2147483647 : i64 loc(#loc110)
    %first_pid_m_15 = arith.constant -2147483648 : i64 loc(#loc110)
    %first_pid_m_16 = arith.cmpi sle, %first_pid_m_13, %first_pid_m_14 : i64 loc(#loc110)
    %first_pid_m_17 = arith.cmpi sge, %first_pid_m_13, %first_pid_m_15 : i64 loc(#loc110)
    %first_pid_m_18 = arith.andi %first_pid_m_16, %first_pid_m_17 : i1 loc(#loc110)
    %first_pid_m_19 = arith.muli %group_id, %first_pid_m_10 : i32 loc(#loc110)
    %group_size_m = arith.extsi %num_pid_m : i32 to i64 loc(#loc111)
    %group_size_m_20 = arith.extsi %first_pid_m_19 : i32 to i64 loc(#loc111)
    %group_size_m_21 = arith.subi %group_size_m, %group_size_m_20 : i64 loc(#loc111)
    %group_size_m_22 = arith.constant 2147483647 : i64 loc(#loc111)
    %group_size_m_23 = arith.constant -2147483648 : i64 loc(#loc111)
    %group_size_m_24 = arith.cmpi sle, %group_size_m_21, %group_size_m_22 : i64 loc(#loc111)
    %group_size_m_25 = arith.cmpi sge, %group_size_m_21, %group_size_m_23 : i64 loc(#loc111)
    %group_size_m_26 = arith.andi %group_size_m_24, %group_size_m_25 : i1 loc(#loc111)
    %group_size_m_27 = arith.subi %num_pid_m, %first_pid_m_19 : i32 loc(#loc111)
    %group_size_m_28 = arith.constant 4 : i32 loc(#loc112)
    %group_size_m_29 = arith.minsi %group_size_m_27, %group_size_m_28 : i32 loc(#loc112)
    %pid_m = arith.remsi %pid, %num_pid_in_group_9 : i32 loc(#loc113)
    %pid_m_30 = arith.remsi %pid_m, %group_size_m_29 : i32 loc(#loc114)
    %pid_m_31 = arith.extsi %first_pid_m_19 : i32 to i64 loc(#loc115)
    %pid_m_32 = arith.extsi %pid_m_30 : i32 to i64 loc(#loc115)
    %pid_m_33 = arith.addi %pid_m_31, %pid_m_32 : i64 loc(#loc115)
    %pid_m_34 = arith.constant 2147483647 : i64 loc(#loc115)
    %pid_m_35 = arith.constant -2147483648 : i64 loc(#loc115)
    %pid_m_36 = arith.cmpi sle, %pid_m_33, %pid_m_34 : i64 loc(#loc115)
    %pid_m_37 = arith.cmpi sge, %pid_m_33, %pid_m_35 : i64 loc(#loc115)
    %pid_m_38 = arith.andi %pid_m_36, %pid_m_37 : i1 loc(#loc115)
    %pid_m_39 = arith.addi %first_pid_m_19, %pid_m_30 : i32 loc(#loc115)
    %pid_n = arith.remsi %pid, %num_pid_in_group_9 : i32 loc(#loc116)
    %pid_n_40 = arith.divsi %pid_n, %group_size_m_29 : i32 loc(#loc117)
    %c0_i32 = arith.constant 0 : i32 loc(#loc14)
    %0 = arith.cmpi sge, %pid_m_39, %c0_i32 : i32 loc(#loc14)
    llvm.intr.assume %0 : i1 loc(#loc15)
    %c0_i32_41 = arith.constant 0 : i32 loc(#loc16)
    %1 = arith.cmpi sge, %pid_n_40, %c0_i32_41 : i32 loc(#loc16)
    llvm.intr.assume %1 : i1 loc(#loc17)
    %c0_i32_42 = arith.constant 0 : i32 loc(#loc18)
    %2 = arith.cmpi sgt, %stride_am, %c0_i32_42 : i32 loc(#loc18)
    llvm.intr.assume %2 : i1 loc(#loc19)
    %true = arith.constant true loc(#loc20)
    llvm.intr.assume %true : i1 loc(#loc20)
    %true_43 = arith.constant true loc(#loc21)
    llvm.intr.assume %true_43 : i1 loc(#loc21)
    %c0_i32_44 = arith.constant 0 : i32 loc(#loc22)
    %3 = arith.cmpi sgt, %stride_bk, %c0_i32_44 : i32 loc(#loc22)
    llvm.intr.assume %3 : i1 loc(#loc23)
    %c0_i32_45 = arith.constant 0 : i32 loc(#loc24)
    %4 = arith.cmpi sgt, %stride_cm, %c0_i32_45 : i32 loc(#loc24)
    llvm.intr.assume %4 : i1 loc(#loc25)
    %true_46 = arith.constant true loc(#loc26)
    llvm.intr.assume %true_46 : i1 loc(#loc26)
    %offs_am = arith.constant 64 : i32 loc(#loc118)
    %offs_am_47 = arith.constant 64 : i32 loc(#loc118)
    %offs_am_48 = arith.extsi %pid_m_39 : i32 to i64 loc(#loc118)
    %offs_am_49 = arith.extsi %offs_am_47 : i32 to i64 loc(#loc118)
    %offs_am_50 = arith.muli %offs_am_48, %offs_am_49 : i64 loc(#loc118)
    %offs_am_51 = arith.constant 2147483647 : i64 loc(#loc118)
    %offs_am_52 = arith.constant -2147483648 : i64 loc(#loc118)
    %offs_am_53 = arith.cmpi sle, %offs_am_50, %offs_am_51 : i64 loc(#loc118)
    %offs_am_54 = arith.cmpi sge, %offs_am_50, %offs_am_52 : i64 loc(#loc118)
    %offs_am_55 = arith.andi %offs_am_53, %offs_am_54 : i1 loc(#loc118)
    %offs_am_56 = arith.muli %pid_m_39, %offs_am_47 : i32 loc(#loc118)
    %offs_am_57 = tt.make_range {end = 64 : i32, start = 0 : i32} : tensor<64xi32> loc(#loc119)
    %offs_am_58 = tt.splat %offs_am_56 : i32 -> tensor<64xi32> loc(#loc120)
    %offs_am_59 = arith.extsi %offs_am_58 : tensor<64xi32> to tensor<64xi64> loc(#loc120)
    %offs_am_60 = arith.extsi %offs_am_57 : tensor<64xi32> to tensor<64xi64> loc(#loc120)
    %offs_am_61 = arith.addi %offs_am_59, %offs_am_60 : tensor<64xi64> loc(#loc120)
    %offs_am_62 = arith.constant 2147483647 : i64 loc(#loc120)
    %offs_am_63 = arith.constant -2147483648 : i64 loc(#loc120)
    %offs_am_64 = arith.constant dense<2147483647> : tensor<64xi64> loc(#loc120)
    %offs_am_65 = arith.cmpi sle, %offs_am_61, %offs_am_64 : tensor<64xi64> loc(#loc120)
    %offs_am_66 = arith.constant dense<-2147483648> : tensor<64xi64> loc(#loc120)
    %offs_am_67 = arith.cmpi sge, %offs_am_61, %offs_am_66 : tensor<64xi64> loc(#loc120)
    %offs_am_68 = arith.andi %offs_am_65, %offs_am_67 : tensor<64xi1> loc(#loc120)
    %offs_am_69 = arith.addi %offs_am_58, %offs_am_57 : tensor<64xi32> loc(#loc120)
    %offs_am_70 = tt.splat %M : i32 -> tensor<64xi32> loc(#loc121)
    %offs_am_71 = arith.remsi %offs_am_69, %offs_am_70 : tensor<64xi32> loc(#loc121)
    %offs_bn = arith.constant 32 : i32 loc(#loc122)
    %offs_bn_72 = arith.constant 32 : i32 loc(#loc122)
    %offs_bn_73 = arith.extsi %pid_n_40 : i32 to i64 loc(#loc122)
    %offs_bn_74 = arith.extsi %offs_bn_72 : i32 to i64 loc(#loc122)
    %offs_bn_75 = arith.muli %offs_bn_73, %offs_bn_74 : i64 loc(#loc122)
    %offs_bn_76 = arith.constant 2147483647 : i64 loc(#loc122)
    %offs_bn_77 = arith.constant -2147483648 : i64 loc(#loc122)
    %offs_bn_78 = arith.cmpi sle, %offs_bn_75, %offs_bn_76 : i64 loc(#loc122)
    %offs_bn_79 = arith.cmpi sge, %offs_bn_75, %offs_bn_77 : i64 loc(#loc122)
    %offs_bn_80 = arith.andi %offs_bn_78, %offs_bn_79 : i1 loc(#loc122)
    %offs_bn_81 = arith.muli %pid_n_40, %offs_bn_72 : i32 loc(#loc122)
    %offs_bn_82 = tt.make_range {end = 32 : i32, start = 0 : i32} : tensor<32xi32> loc(#loc123)
    %offs_bn_83 = tt.splat %offs_bn_81 : i32 -> tensor<32xi32> loc(#loc124)
    %offs_bn_84 = arith.extsi %offs_bn_83 : tensor<32xi32> to tensor<32xi64> loc(#loc124)
    %offs_bn_85 = arith.extsi %offs_bn_82 : tensor<32xi32> to tensor<32xi64> loc(#loc124)
    %offs_bn_86 = arith.addi %offs_bn_84, %offs_bn_85 : tensor<32xi64> loc(#loc124)
    %offs_bn_87 = arith.constant 2147483647 : i64 loc(#loc124)
    %offs_bn_88 = arith.constant -2147483648 : i64 loc(#loc124)
    %offs_bn_89 = arith.constant dense<2147483647> : tensor<32xi64> loc(#loc124)
    %offs_bn_90 = arith.cmpi sle, %offs_bn_86, %offs_bn_89 : tensor<32xi64> loc(#loc124)
    %offs_bn_91 = arith.constant dense<-2147483648> : tensor<32xi64> loc(#loc124)
    %offs_bn_92 = arith.cmpi sge, %offs_bn_86, %offs_bn_91 : tensor<32xi64> loc(#loc124)
    %offs_bn_93 = arith.andi %offs_bn_90, %offs_bn_92 : tensor<32xi1> loc(#loc124)
    %offs_bn_94 = arith.addi %offs_bn_83, %offs_bn_82 : tensor<32xi32> loc(#loc124)
    %offs_bn_95 = tt.splat %N : i32 -> tensor<32xi32> loc(#loc125)
    %offs_bn_96 = arith.remsi %offs_bn_94, %offs_bn_95 : tensor<32xi32> loc(#loc125)
    %offs_k = tt.make_range {end = 64 : i32, start = 0 : i32} : tensor<64xi32> loc(#loc126)
    %a_ptrs = tt.expand_dims %offs_am_71 {axis = 1 : i32} : tensor<64xi32> -> tensor<64x1xi32> loc(#loc127)
    %a_ptrs_97 = tt.splat %stride_am : i32 -> tensor<64x1xi32> loc(#loc128)
    %a_ptrs_98 = arith.extsi %a_ptrs : tensor<64x1xi32> to tensor<64x1xi64> loc(#loc128)
    %a_ptrs_99 = arith.extsi %a_ptrs_97 : tensor<64x1xi32> to tensor<64x1xi64> loc(#loc128)
    %a_ptrs_100 = arith.muli %a_ptrs_98, %a_ptrs_99 : tensor<64x1xi64> loc(#loc128)
    %a_ptrs_101 = arith.constant 2147483647 : i64 loc(#loc128)
    %a_ptrs_102 = arith.constant -2147483648 : i64 loc(#loc128)
    %a_ptrs_103 = arith.constant dense<2147483647> : tensor<64x1xi64> loc(#loc128)
    %a_ptrs_104 = arith.cmpi sle, %a_ptrs_100, %a_ptrs_103 : tensor<64x1xi64> loc(#loc128)
    %a_ptrs_105 = arith.constant dense<-2147483648> : tensor<64x1xi64> loc(#loc128)
    %a_ptrs_106 = arith.cmpi sge, %a_ptrs_100, %a_ptrs_105 : tensor<64x1xi64> loc(#loc128)
    %a_ptrs_107 = arith.andi %a_ptrs_104, %a_ptrs_106 : tensor<64x1xi1> loc(#loc128)
    %a_ptrs_108 = arith.muli %a_ptrs, %a_ptrs_97 : tensor<64x1xi32> loc(#loc128)
    %a_ptrs_109 = tt.expand_dims %offs_k {axis = 0 : i32} : tensor<64xi32> -> tensor<1x64xi32> loc(#loc129)
    %a_ptrs_110 = arith.constant 1 : i32 loc(#loc130)
    %a_ptrs_111 = arith.constant 1 : i32 loc(#loc130)
    %a_ptrs_112 = arith.constant dense<1> : tensor<1x64xi32> loc(#loc130)
    %a_ptrs_113 = arith.extsi %a_ptrs_109 : tensor<1x64xi32> to tensor<1x64xi64> loc(#loc130)
    %a_ptrs_114 = arith.extsi %a_ptrs_112 : tensor<1x64xi32> to tensor<1x64xi64> loc(#loc130)
    %a_ptrs_115 = arith.muli %a_ptrs_113, %a_ptrs_114 : tensor<1x64xi64> loc(#loc130)
    %a_ptrs_116 = arith.constant 2147483647 : i64 loc(#loc130)
    %a_ptrs_117 = arith.constant -2147483648 : i64 loc(#loc130)
    %a_ptrs_118 = arith.constant dense<2147483647> : tensor<1x64xi64> loc(#loc130)
    %a_ptrs_119 = arith.cmpi sle, %a_ptrs_115, %a_ptrs_118 : tensor<1x64xi64> loc(#loc130)
    %a_ptrs_120 = arith.constant dense<-2147483648> : tensor<1x64xi64> loc(#loc130)
    %a_ptrs_121 = arith.cmpi sge, %a_ptrs_115, %a_ptrs_120 : tensor<1x64xi64> loc(#loc130)
    %a_ptrs_122 = arith.andi %a_ptrs_119, %a_ptrs_121 : tensor<1x64xi1> loc(#loc130)
    %a_ptrs_123 = arith.muli %a_ptrs_109, %a_ptrs_112 : tensor<1x64xi32> loc(#loc130)
    %a_ptrs_124 = tt.broadcast %a_ptrs_108 : tensor<64x1xi32> -> tensor<64x64xi32> loc(#loc131)
    %a_ptrs_125 = tt.broadcast %a_ptrs_123 : tensor<1x64xi32> -> tensor<64x64xi32> loc(#loc131)
    %a_ptrs_126 = arith.extsi %a_ptrs_124 : tensor<64x64xi32> to tensor<64x64xi64> loc(#loc131)
    %a_ptrs_127 = arith.extsi %a_ptrs_125 : tensor<64x64xi32> to tensor<64x64xi64> loc(#loc131)
    %a_ptrs_128 = arith.addi %a_ptrs_126, %a_ptrs_127 : tensor<64x64xi64> loc(#loc131)
    %a_ptrs_129 = arith.constant 2147483647 : i64 loc(#loc131)
    %a_ptrs_130 = arith.constant -2147483648 : i64 loc(#loc131)
    %a_ptrs_131 = arith.constant dense<2147483647> : tensor<64x64xi64> loc(#loc131)
    %a_ptrs_132 = arith.cmpi sle, %a_ptrs_128, %a_ptrs_131 : tensor<64x64xi64> loc(#loc131)
    %a_ptrs_133 = arith.constant dense<-2147483648> : tensor<64x64xi64> loc(#loc131)
    %a_ptrs_134 = arith.cmpi sge, %a_ptrs_128, %a_ptrs_133 : tensor<64x64xi64> loc(#loc131)
    %a_ptrs_135 = arith.andi %a_ptrs_132, %a_ptrs_134 : tensor<64x64xi1> loc(#loc131)
    %a_ptrs_136 = arith.addi %a_ptrs_124, %a_ptrs_125 : tensor<64x64xi32> loc(#loc131)
    %a_ptrs_137 = tt.splat %a_ptr : !tt.ptr<f16> -> tensor<64x64x!tt.ptr<f16>> loc(#loc132)
    %a_ptrs_138 = tt.addptr %a_ptrs_137, %a_ptrs_136 : tensor<64x64x!tt.ptr<f16>>, tensor<64x64xi32> loc(#loc132)
    %b_ptrs = tt.expand_dims %offs_k {axis = 1 : i32} : tensor<64xi32> -> tensor<64x1xi32> loc(#loc133)
    %b_ptrs_139 = tt.splat %stride_bk : i32 -> tensor<64x1xi32> loc(#loc134)
    %b_ptrs_140 = arith.extsi %b_ptrs : tensor<64x1xi32> to tensor<64x1xi64> loc(#loc134)
    %b_ptrs_141 = arith.extsi %b_ptrs_139 : tensor<64x1xi32> to tensor<64x1xi64> loc(#loc134)
    %b_ptrs_142 = arith.muli %b_ptrs_140, %b_ptrs_141 : tensor<64x1xi64> loc(#loc134)
    %b_ptrs_143 = arith.constant 2147483647 : i64 loc(#loc134)
    %b_ptrs_144 = arith.constant -2147483648 : i64 loc(#loc134)
    %b_ptrs_145 = arith.constant dense<2147483647> : tensor<64x1xi64> loc(#loc134)
    %b_ptrs_146 = arith.cmpi sle, %b_ptrs_142, %b_ptrs_145 : tensor<64x1xi64> loc(#loc134)
    %b_ptrs_147 = arith.constant dense<-2147483648> : tensor<64x1xi64> loc(#loc134)
    %b_ptrs_148 = arith.cmpi sge, %b_ptrs_142, %b_ptrs_147 : tensor<64x1xi64> loc(#loc134)
    %b_ptrs_149 = arith.andi %b_ptrs_146, %b_ptrs_148 : tensor<64x1xi1> loc(#loc134)
    %b_ptrs_150 = arith.muli %b_ptrs, %b_ptrs_139 : tensor<64x1xi32> loc(#loc134)
    %b_ptrs_151 = tt.expand_dims %offs_bn_96 {axis = 0 : i32} : tensor<32xi32> -> tensor<1x32xi32> loc(#loc135)
    %b_ptrs_152 = arith.constant 1 : i32 loc(#loc136)
    %b_ptrs_153 = arith.constant 1 : i32 loc(#loc136)
    %b_ptrs_154 = arith.constant dense<1> : tensor<1x32xi32> loc(#loc136)
    %b_ptrs_155 = arith.extsi %b_ptrs_151 : tensor<1x32xi32> to tensor<1x32xi64> loc(#loc136)
    %b_ptrs_156 = arith.extsi %b_ptrs_154 : tensor<1x32xi32> to tensor<1x32xi64> loc(#loc136)
    %b_ptrs_157 = arith.muli %b_ptrs_155, %b_ptrs_156 : tensor<1x32xi64> loc(#loc136)
    %b_ptrs_158 = arith.constant 2147483647 : i64 loc(#loc136)
    %b_ptrs_159 = arith.constant -2147483648 : i64 loc(#loc136)
    %b_ptrs_160 = arith.constant dense<2147483647> : tensor<1x32xi64> loc(#loc136)
    %b_ptrs_161 = arith.cmpi sle, %b_ptrs_157, %b_ptrs_160 : tensor<1x32xi64> loc(#loc136)
    %b_ptrs_162 = arith.constant dense<-2147483648> : tensor<1x32xi64> loc(#loc136)
    %b_ptrs_163 = arith.cmpi sge, %b_ptrs_157, %b_ptrs_162 : tensor<1x32xi64> loc(#loc136)
    %b_ptrs_164 = arith.andi %b_ptrs_161, %b_ptrs_163 : tensor<1x32xi1> loc(#loc136)
    %b_ptrs_165 = arith.muli %b_ptrs_151, %b_ptrs_154 : tensor<1x32xi32> loc(#loc136)
    %b_ptrs_166 = tt.broadcast %b_ptrs_150 : tensor<64x1xi32> -> tensor<64x32xi32> loc(#loc137)
    %b_ptrs_167 = tt.broadcast %b_ptrs_165 : tensor<1x32xi32> -> tensor<64x32xi32> loc(#loc137)
    %b_ptrs_168 = arith.extsi %b_ptrs_166 : tensor<64x32xi32> to tensor<64x32xi64> loc(#loc137)
    %b_ptrs_169 = arith.extsi %b_ptrs_167 : tensor<64x32xi32> to tensor<64x32xi64> loc(#loc137)
    %b_ptrs_170 = arith.addi %b_ptrs_168, %b_ptrs_169 : tensor<64x32xi64> loc(#loc137)
    %b_ptrs_171 = arith.constant 2147483647 : i64 loc(#loc137)
    %b_ptrs_172 = arith.constant -2147483648 : i64 loc(#loc137)
    %b_ptrs_173 = arith.constant dense<2147483647> : tensor<64x32xi64> loc(#loc137)
    %b_ptrs_174 = arith.cmpi sle, %b_ptrs_170, %b_ptrs_173 : tensor<64x32xi64> loc(#loc137)
    %b_ptrs_175 = arith.constant dense<-2147483648> : tensor<64x32xi64> loc(#loc137)
    %b_ptrs_176 = arith.cmpi sge, %b_ptrs_170, %b_ptrs_175 : tensor<64x32xi64> loc(#loc137)
    %b_ptrs_177 = arith.andi %b_ptrs_174, %b_ptrs_176 : tensor<64x32xi1> loc(#loc137)
    %b_ptrs_178 = arith.addi %b_ptrs_166, %b_ptrs_167 : tensor<64x32xi32> loc(#loc137)
    %b_ptrs_179 = tt.splat %b_ptr : !tt.ptr<f16> -> tensor<64x32x!tt.ptr<f16>> loc(#loc138)
    %b_ptrs_180 = tt.addptr %b_ptrs_179, %b_ptrs_178 : tensor<64x32x!tt.ptr<f16>>, tensor<64x32xi32> loc(#loc138)
    %accumulator = tt.call @triton.language.standard.zeros__Tc64_c32T_cfp32() : () -> tensor<64x32xf32> loc(#loc139)
    %5 = tt.call @triton.language.standard.cdiv__i32_c64(%K) : (i32) -> i32 loc(#loc49)
    %c0_i32_181 = arith.constant 0 : i32 loc(#loc50)
    %c1_i32 = arith.constant 1 : i32 loc(#loc50)
    %6 = arith.bitcast %c0_i32_181 : i32 to i32 loc(#loc50)
    %7 = arith.bitcast %5 : i32 to i32 loc(#loc50)
    %8 = arith.bitcast %c1_i32 : i32 to i32 loc(#loc50)
    %9 = ub.poison : i32 loc(#loc50)
    %accumulator_182:3 = scf.for %k = %6 to %7 step %8 iter_args(%a_ptrs_269 = %a_ptrs_138, %b_ptrs_270 = %b_ptrs_180, %accumulator_271 = %accumulator) -> (tensor<64x64x!tt.ptr<f16>>, tensor<64x32x!tt.ptr<f16>>, tensor<64x32xf32>)  : i32 {
      %a = tt.expand_dims %offs_k {axis = 0 : i32} : tensor<64xi32> -> tensor<1x64xi32> loc(#loc141)
      %a_272 = arith.constant 64 : i32 loc(#loc142)
      %a_273 = arith.constant 64 : i32 loc(#loc142)
      %a_274 = arith.extsi %k : i32 to i64 loc(#loc142)
      %a_275 = arith.extsi %a_273 : i32 to i64 loc(#loc142)
      %a_276 = arith.muli %a_274, %a_275 : i64 loc(#loc142)
      %a_277 = arith.constant 2147483647 : i64 loc(#loc142)
      %a_278 = arith.constant -2147483648 : i64 loc(#loc142)
      %a_279 = arith.cmpi sle, %a_276, %a_277 : i64 loc(#loc142)
      %a_280 = arith.cmpi sge, %a_276, %a_278 : i64 loc(#loc142)
      %a_281 = arith.andi %a_279, %a_280 : i1 loc(#loc142)
      %a_282 = arith.muli %k, %a_273 : i32 loc(#loc142)
      %a_283 = arith.extsi %K : i32 to i64 loc(#loc143)
      %a_284 = arith.extsi %a_282 : i32 to i64 loc(#loc143)
      %a_285 = arith.subi %a_283, %a_284 : i64 loc(#loc143)
      %a_286 = arith.constant 2147483647 : i64 loc(#loc143)
      %a_287 = arith.constant -2147483648 : i64 loc(#loc143)
      %a_288 = arith.cmpi sle, %a_285, %a_286 : i64 loc(#loc143)
      %a_289 = arith.cmpi sge, %a_285, %a_287 : i64 loc(#loc143)
      %a_290 = arith.andi %a_288, %a_289 : i1 loc(#loc143)
      %a_291 = arith.subi %K, %a_282 : i32 loc(#loc143)
      %a_292 = tt.splat %a_291 : i32 -> tensor<1x64xi32> loc(#loc144)
      %a_293 = arith.cmpi slt, %a, %a_292 : tensor<1x64xi32> loc(#loc144)
      %a_294 = arith.constant 0.000000e+00 : f32 loc(#loc145)
      %a_295 = tt.broadcast %a_293 : tensor<1x64xi1> -> tensor<64x64xi1> loc(#loc145)
      %a_296 = arith.constant dense<0.000000e+00> : tensor<64x64xf32> loc(#loc145)
      %a_297 = arith.truncf %a_296 : tensor<64x64xf32> to tensor<64x64xf16> loc(#loc145)
      %a_298 = tt.load %a_ptrs_269, %a_295, %a_297 : tensor<64x64x!tt.ptr<f16>> loc(#loc145)
      %b = tt.expand_dims %offs_k {axis = 1 : i32} : tensor<64xi32> -> tensor<64x1xi32> loc(#loc146)
      %b_299 = arith.constant 64 : i32 loc(#loc147)
      %b_300 = arith.constant 64 : i32 loc(#loc147)
      %b_301 = arith.extsi %k : i32 to i64 loc(#loc147)
      %b_302 = arith.extsi %b_300 : i32 to i64 loc(#loc147)
      %b_303 = arith.muli %b_301, %b_302 : i64 loc(#loc147)
      %b_304 = arith.constant 2147483647 : i64 loc(#loc147)
      %b_305 = arith.constant -2147483648 : i64 loc(#loc147)
      %b_306 = arith.cmpi sle, %b_303, %b_304 : i64 loc(#loc147)
      %b_307 = arith.cmpi sge, %b_303, %b_305 : i64 loc(#loc147)
      %b_308 = arith.andi %b_306, %b_307 : i1 loc(#loc147)
      %b_309 = arith.muli %k, %b_300 : i32 loc(#loc147)
      %b_310 = arith.extsi %K : i32 to i64 loc(#loc148)
      %b_311 = arith.extsi %b_309 : i32 to i64 loc(#loc148)
      %b_312 = arith.subi %b_310, %b_311 : i64 loc(#loc148)
      %b_313 = arith.constant 2147483647 : i64 loc(#loc148)
      %b_314 = arith.constant -2147483648 : i64 loc(#loc148)
      %b_315 = arith.cmpi sle, %b_312, %b_313 : i64 loc(#loc148)
      %b_316 = arith.cmpi sge, %b_312, %b_314 : i64 loc(#loc148)
      %b_317 = arith.andi %b_315, %b_316 : i1 loc(#loc148)
      %b_318 = arith.subi %K, %b_309 : i32 loc(#loc148)
      %b_319 = tt.splat %b_318 : i32 -> tensor<64x1xi32> loc(#loc149)
      %b_320 = arith.cmpi slt, %b, %b_319 : tensor<64x1xi32> loc(#loc149)
      %b_321 = arith.constant 0.000000e+00 : f32 loc(#loc150)
      %b_322 = tt.broadcast %b_320 : tensor<64x1xi1> -> tensor<64x32xi1> loc(#loc150)
      %b_323 = arith.constant dense<0.000000e+00> : tensor<64x32xf32> loc(#loc150)
      %b_324 = arith.truncf %b_323 : tensor<64x32xf32> to tensor<64x32xf16> loc(#loc150)
      %b_325 = tt.load %b_ptrs_270, %b_322, %b_324 : tensor<64x32x!tt.ptr<f16>> loc(#loc150)
      %accumulator_326 = arith.constant 0.000000e+00 : f32 loc(#loc151)
      %accumulator_327 = tt.dot %a_298, %b_325, %accumulator_271, inputPrecision = tf32 : tensor<64x64xf16> * tensor<64x32xf16> -> tensor<64x32xf32> loc(#loc151)
      %a_ptrs_328 = arith.constant 64 : i32 loc(#loc152)
      %a_ptrs_329 = arith.constant dense<64> : tensor<64x64xi32> loc(#loc152)
      %a_ptrs_330 = tt.addptr %a_ptrs_269, %a_ptrs_329 : tensor<64x64x!tt.ptr<f16>>, tensor<64x64xi32> loc(#loc152)
      %b_ptrs_331 = arith.constant 64 : i32 loc(#loc153)
      %b_ptrs_332 = arith.constant 64 : i32 loc(#loc153)
      %b_ptrs_333 = arith.extsi %b_ptrs_332 : i32 to i64 loc(#loc153)
      %b_ptrs_334 = arith.extsi %stride_bk : i32 to i64 loc(#loc153)
      %b_ptrs_335 = arith.muli %b_ptrs_333, %b_ptrs_334 : i64 loc(#loc153)
      %b_ptrs_336 = arith.constant 2147483647 : i64 loc(#loc153)
      %b_ptrs_337 = arith.constant -2147483648 : i64 loc(#loc153)
      %b_ptrs_338 = arith.cmpi sle, %b_ptrs_335, %b_ptrs_336 : i64 loc(#loc153)
      %b_ptrs_339 = arith.cmpi sge, %b_ptrs_335, %b_ptrs_337 : i64 loc(#loc153)
      %b_ptrs_340 = arith.andi %b_ptrs_338, %b_ptrs_339 : i1 loc(#loc153)
      %b_ptrs_341 = arith.muli %b_ptrs_332, %stride_bk : i32 loc(#loc153)
      %b_ptrs_342 = tt.splat %b_ptrs_341 : i32 -> tensor<64x32xi32> loc(#loc154)
      %b_ptrs_343 = tt.addptr %b_ptrs_270, %b_ptrs_342 : tensor<64x32x!tt.ptr<f16>>, tensor<64x32xi32> loc(#loc154)
      scf.yield %a_ptrs_330, %b_ptrs_343, %accumulator_327 : tensor<64x64x!tt.ptr<f16>>, tensor<64x32x!tt.ptr<f16>>, tensor<64x32xf32> loc(#loc65)
    } loc(#loc175)
    %c = arith.truncf %accumulator_182#2 : tensor<64x32xf32> to tensor<64x32xf16> loc(#loc155)
    %offs_cm = arith.constant 64 : i32 loc(#loc156)
    %offs_cm_183 = arith.constant 64 : i32 loc(#loc156)
    %offs_cm_184 = arith.extsi %pid_m_39 : i32 to i64 loc(#loc156)
    %offs_cm_185 = arith.extsi %offs_cm_183 : i32 to i64 loc(#loc156)
    %offs_cm_186 = arith.muli %offs_cm_184, %offs_cm_185 : i64 loc(#loc156)
    %offs_cm_187 = arith.constant 2147483647 : i64 loc(#loc156)
    %offs_cm_188 = arith.constant -2147483648 : i64 loc(#loc156)
    %offs_cm_189 = arith.cmpi sle, %offs_cm_186, %offs_cm_187 : i64 loc(#loc156)
    %offs_cm_190 = arith.cmpi sge, %offs_cm_186, %offs_cm_188 : i64 loc(#loc156)
    %offs_cm_191 = arith.andi %offs_cm_189, %offs_cm_190 : i1 loc(#loc156)
    %offs_cm_192 = arith.muli %pid_m_39, %offs_cm_183 : i32 loc(#loc156)
    %offs_cm_193 = tt.make_range {end = 64 : i32, start = 0 : i32} : tensor<64xi32> loc(#loc157)
    %offs_cm_194 = tt.splat %offs_cm_192 : i32 -> tensor<64xi32> loc(#loc158)
    %offs_cm_195 = arith.extsi %offs_cm_194 : tensor<64xi32> to tensor<64xi64> loc(#loc158)
    %offs_cm_196 = arith.extsi %offs_cm_193 : tensor<64xi32> to tensor<64xi64> loc(#loc158)
    %offs_cm_197 = arith.addi %offs_cm_195, %offs_cm_196 : tensor<64xi64> loc(#loc158)
    %offs_cm_198 = arith.constant 2147483647 : i64 loc(#loc158)
    %offs_cm_199 = arith.constant -2147483648 : i64 loc(#loc158)
    %offs_cm_200 = arith.constant dense<2147483647> : tensor<64xi64> loc(#loc158)
    %offs_cm_201 = arith.cmpi sle, %offs_cm_197, %offs_cm_200 : tensor<64xi64> loc(#loc158)
    %offs_cm_202 = arith.constant dense<-2147483648> : tensor<64xi64> loc(#loc158)
    %offs_cm_203 = arith.cmpi sge, %offs_cm_197, %offs_cm_202 : tensor<64xi64> loc(#loc158)
    %offs_cm_204 = arith.andi %offs_cm_201, %offs_cm_203 : tensor<64xi1> loc(#loc158)
    %offs_cm_205 = arith.addi %offs_cm_194, %offs_cm_193 : tensor<64xi32> loc(#loc158)
    %offs_cn = arith.constant 32 : i32 loc(#loc159)
    %offs_cn_206 = arith.constant 32 : i32 loc(#loc159)
    %offs_cn_207 = arith.extsi %pid_n_40 : i32 to i64 loc(#loc159)
    %offs_cn_208 = arith.extsi %offs_cn_206 : i32 to i64 loc(#loc159)
    %offs_cn_209 = arith.muli %offs_cn_207, %offs_cn_208 : i64 loc(#loc159)
    %offs_cn_210 = arith.constant 2147483647 : i64 loc(#loc159)
    %offs_cn_211 = arith.constant -2147483648 : i64 loc(#loc159)
    %offs_cn_212 = arith.cmpi sle, %offs_cn_209, %offs_cn_210 : i64 loc(#loc159)
    %offs_cn_213 = arith.cmpi sge, %offs_cn_209, %offs_cn_211 : i64 loc(#loc159)
    %offs_cn_214 = arith.andi %offs_cn_212, %offs_cn_213 : i1 loc(#loc159)
    %offs_cn_215 = arith.muli %pid_n_40, %offs_cn_206 : i32 loc(#loc159)
    %offs_cn_216 = tt.make_range {end = 32 : i32, start = 0 : i32} : tensor<32xi32> loc(#loc160)
    %offs_cn_217 = tt.splat %offs_cn_215 : i32 -> tensor<32xi32> loc(#loc161)
    %offs_cn_218 = arith.extsi %offs_cn_217 : tensor<32xi32> to tensor<32xi64> loc(#loc161)
    %offs_cn_219 = arith.extsi %offs_cn_216 : tensor<32xi32> to tensor<32xi64> loc(#loc161)
    %offs_cn_220 = arith.addi %offs_cn_218, %offs_cn_219 : tensor<32xi64> loc(#loc161)
    %offs_cn_221 = arith.constant 2147483647 : i64 loc(#loc161)
    %offs_cn_222 = arith.constant -2147483648 : i64 loc(#loc161)
    %offs_cn_223 = arith.constant dense<2147483647> : tensor<32xi64> loc(#loc161)
    %offs_cn_224 = arith.cmpi sle, %offs_cn_220, %offs_cn_223 : tensor<32xi64> loc(#loc161)
    %offs_cn_225 = arith.constant dense<-2147483648> : tensor<32xi64> loc(#loc161)
    %offs_cn_226 = arith.cmpi sge, %offs_cn_220, %offs_cn_225 : tensor<32xi64> loc(#loc161)
    %offs_cn_227 = arith.andi %offs_cn_224, %offs_cn_226 : tensor<32xi1> loc(#loc161)
    %offs_cn_228 = arith.addi %offs_cn_217, %offs_cn_216 : tensor<32xi32> loc(#loc161)
    %c_ptrs = tt.expand_dims %offs_cm_205 {axis = 1 : i32} : tensor<64xi32> -> tensor<64x1xi32> loc(#loc162)
    %c_ptrs_229 = tt.splat %stride_cm : i32 -> tensor<64x1xi32> loc(#loc163)
    %c_ptrs_230 = arith.extsi %c_ptrs_229 : tensor<64x1xi32> to tensor<64x1xi64> loc(#loc163)
    %c_ptrs_231 = arith.extsi %c_ptrs : tensor<64x1xi32> to tensor<64x1xi64> loc(#loc163)
    %c_ptrs_232 = arith.muli %c_ptrs_230, %c_ptrs_231 : tensor<64x1xi64> loc(#loc163)
    %c_ptrs_233 = arith.constant 2147483647 : i64 loc(#loc163)
    %c_ptrs_234 = arith.constant -2147483648 : i64 loc(#loc163)
    %c_ptrs_235 = arith.constant dense<2147483647> : tensor<64x1xi64> loc(#loc163)
    %c_ptrs_236 = arith.cmpi sle, %c_ptrs_232, %c_ptrs_235 : tensor<64x1xi64> loc(#loc163)
    %c_ptrs_237 = arith.constant dense<-2147483648> : tensor<64x1xi64> loc(#loc163)
    %c_ptrs_238 = arith.cmpi sge, %c_ptrs_232, %c_ptrs_237 : tensor<64x1xi64> loc(#loc163)
    %c_ptrs_239 = arith.andi %c_ptrs_236, %c_ptrs_238 : tensor<64x1xi1> loc(#loc163)
    %c_ptrs_240 = arith.muli %c_ptrs_229, %c_ptrs : tensor<64x1xi32> loc(#loc163)
    %c_ptrs_241 = tt.splat %c_ptr : !tt.ptr<f16> -> tensor<64x1x!tt.ptr<f16>> loc(#loc164)
    %c_ptrs_242 = tt.addptr %c_ptrs_241, %c_ptrs_240 : tensor<64x1x!tt.ptr<f16>>, tensor<64x1xi32> loc(#loc164)
    %c_ptrs_243 = tt.expand_dims %offs_cn_228 {axis = 0 : i32} : tensor<32xi32> -> tensor<1x32xi32> loc(#loc165)
    %c_ptrs_244 = arith.constant 1 : i32 loc(#loc166)
    %c_ptrs_245 = arith.constant 1 : i32 loc(#loc166)
    %c_ptrs_246 = arith.constant dense<1> : tensor<1x32xi32> loc(#loc166)
    %c_ptrs_247 = arith.extsi %c_ptrs_246 : tensor<1x32xi32> to tensor<1x32xi64> loc(#loc166)
    %c_ptrs_248 = arith.extsi %c_ptrs_243 : tensor<1x32xi32> to tensor<1x32xi64> loc(#loc166)
    %c_ptrs_249 = arith.muli %c_ptrs_247, %c_ptrs_248 : tensor<1x32xi64> loc(#loc166)
    %c_ptrs_250 = arith.constant 2147483647 : i64 loc(#loc166)
    %c_ptrs_251 = arith.constant -2147483648 : i64 loc(#loc166)
    %c_ptrs_252 = arith.constant dense<2147483647> : tensor<1x32xi64> loc(#loc166)
    %c_ptrs_253 = arith.cmpi sle, %c_ptrs_249, %c_ptrs_252 : tensor<1x32xi64> loc(#loc166)
    %c_ptrs_254 = arith.constant dense<-2147483648> : tensor<1x32xi64> loc(#loc166)
    %c_ptrs_255 = arith.cmpi sge, %c_ptrs_249, %c_ptrs_254 : tensor<1x32xi64> loc(#loc166)
    %c_ptrs_256 = arith.andi %c_ptrs_253, %c_ptrs_255 : tensor<1x32xi1> loc(#loc166)
    %c_ptrs_257 = arith.muli %c_ptrs_246, %c_ptrs_243 : tensor<1x32xi32> loc(#loc166)
    %c_ptrs_258 = tt.broadcast %c_ptrs_242 : tensor<64x1x!tt.ptr<f16>> -> tensor<64x32x!tt.ptr<f16>> loc(#loc167)
    %c_ptrs_259 = tt.broadcast %c_ptrs_257 : tensor<1x32xi32> -> tensor<64x32xi32> loc(#loc167)
    %c_ptrs_260 = tt.addptr %c_ptrs_258, %c_ptrs_259 : tensor<64x32x!tt.ptr<f16>>, tensor<64x32xi32> loc(#loc167)
    %c_mask = tt.expand_dims %offs_cm_205 {axis = 1 : i32} : tensor<64xi32> -> tensor<64x1xi32> loc(#loc168)
    %c_mask_261 = tt.splat %M : i32 -> tensor<64x1xi32> loc(#loc169)
    %c_mask_262 = arith.cmpi slt, %c_mask, %c_mask_261 : tensor<64x1xi32> loc(#loc169)
    %c_mask_263 = tt.expand_dims %offs_cn_228 {axis = 0 : i32} : tensor<32xi32> -> tensor<1x32xi32> loc(#loc170)
    %c_mask_264 = tt.splat %N : i32 -> tensor<1x32xi32> loc(#loc171)
    %c_mask_265 = arith.cmpi slt, %c_mask_263, %c_mask_264 : tensor<1x32xi32> loc(#loc171)
    %c_mask_266 = tt.broadcast %c_mask_262 : tensor<64x1xi1> -> tensor<64x32xi1> loc(#loc172)
    %c_mask_267 = tt.broadcast %c_mask_265 : tensor<1x32xi1> -> tensor<64x32xi1> loc(#loc172)
    %c_mask_268 = arith.andi %c_mask_266, %c_mask_267 : tensor<64x32xi1> loc(#loc172)
    tt.store %c_ptrs_260, %c, %c_mask_268 : tensor<64x32x!tt.ptr<f16>> loc(#loc84)
    tt.return loc(#loc85)
  } loc(#loc)
  tt.func private @triton.language.standard.cdiv__i32_c64(%x: i32 loc("x"(#loc86))) -> i32 attributes {noinline = false} {
    %c64_i32 = arith.constant 64 : i32 loc(#loc87)
    %c63_i32 = arith.constant 63 : i32 loc(#loc87)
    %0 = arith.addi %x, %c63_i32 : i32 loc(#loc88)
    %1 = arith.divsi %0, %c64_i32 : i32 loc(#loc89)
    tt.return %1 : i32 loc(#loc90)
  } loc(#loc86)
  tt.func private @triton.language.standard.cdiv__i32_c32(%x: i32 loc("x"(#loc86))) -> i32 attributes {noinline = false} {
    %c31_i32 = arith.constant 31 : i32 loc(#loc88)
    %c31_i32_0 = arith.constant 31 : i32 loc(#loc88)
    %0 = arith.extsi %x : i32 to i64 loc(#loc88)
    %1 = arith.extsi %c31_i32_0 : i32 to i64 loc(#loc88)
    %2 = arith.addi %0, %1 : i64 loc(#loc88)
    %c2147483647_i64 = arith.constant 2147483647 : i64 loc(#loc88)
    %c-2147483648_i64 = arith.constant -2147483648 : i64 loc(#loc88)
    %3 = arith.cmpi sle, %2, %c2147483647_i64 : i64 loc(#loc88)
    %4 = arith.cmpi sge, %2, %c-2147483648_i64 : i64 loc(#loc88)
    %5 = arith.andi %3, %4 : i1 loc(#loc88)
    %6 = arith.addi %x, %c31_i32_0 : i32 loc(#loc88)
    %c32_i32 = arith.constant 32 : i32 loc(#loc89)
    %c32_i32_1 = arith.constant 32 : i32 loc(#loc89)
    %7 = arith.divsi %6, %c32_i32_1 : i32 loc(#loc89)
    tt.return %7 : i32 loc(#loc90)
  ^bb1:  // no predecessors
    %8 = ub.poison : i32 loc(#loc91)
    tt.return %8 : i32 loc(#loc91)
  } loc(#loc86)
  tt.func private @triton.language.standard.zeros__Tc64_c32T_cfp32() -> tensor<64x32xf32> attributes {noinline = false} {
    %cst = arith.constant 0.000000e+00 : f32 loc(#loc93)
    %cst_0 = arith.constant dense<0.000000e+00> : tensor<64x32xf32> loc(#loc93)
    tt.return %cst_0 : tensor<64x32xf32> loc(#loc94)
  ^bb1:  // no predecessors
    %0 = ub.poison : tensor<64x32xf32> loc(#loc95)
    tt.return %0 : tensor<64x32xf32> loc(#loc95)
  } loc(#loc92)
} loc(#loc)
#loc1 = loc("/root/workspace/dsl-lab/triton/matmul/03-matrix-multiplication.py":256:24)
#loc2 = loc("/root/workspace/dsl-lab/triton/matmul/03-matrix-multiplication.py":257:27)
#loc3 = loc("/root/workspace/dsl-lab/triton/matmul/03-matrix-multiplication.py":258:27)
#loc4 = loc("/root/workspace/dsl-lab/triton/matmul/03-matrix-multiplication.py":259:38)
#loc5 = loc("/root/workspace/dsl-lab/triton/matmul/03-matrix-multiplication.py":260:22)
#loc6 = loc("/root/workspace/dsl-lab/triton/matmul/03-matrix-multiplication.py":261:29)
#loc7 = loc("/root/workspace/dsl-lab/triton/matmul/03-matrix-multiplication.py":262:35)
#loc8 = loc("/root/workspace/dsl-lab/triton/matmul/03-matrix-multiplication.py":262:48)
#loc9 = loc("/root/workspace/dsl-lab/triton/matmul/03-matrix-multiplication.py":263:34)
#loc10 = loc("/root/workspace/dsl-lab/triton/matmul/03-matrix-multiplication.py":263:54)
#loc11 = loc("/root/workspace/dsl-lab/triton/matmul/03-matrix-multiplication.py":263:27)
#loc12 = loc("/root/workspace/dsl-lab/triton/matmul/03-matrix-multiplication.py":264:19)
#loc13 = loc("/root/workspace/dsl-lab/triton/matmul/03-matrix-multiplication.py":264:40)
#loc14 = loc("/root/workspace/dsl-lab/triton/matmul/03-matrix-multiplication.py":270:23)
#loc15 = loc("/root/workspace/dsl-lab/triton/matmul/03-matrix-multiplication.py":270:14)
#loc16 = loc("/root/workspace/dsl-lab/triton/matmul/03-matrix-multiplication.py":271:23)
#loc17 = loc("/root/workspace/dsl-lab/triton/matmul/03-matrix-multiplication.py":271:14)
#loc18 = loc("/root/workspace/dsl-lab/triton/matmul/03-matrix-multiplication.py":272:26)
#loc19 = loc("/root/workspace/dsl-lab/triton/matmul/03-matrix-multiplication.py":272:14)
#loc20 = loc("/root/workspace/dsl-lab/triton/matmul/03-matrix-multiplication.py":273:14)
#loc21 = loc("/root/workspace/dsl-lab/triton/matmul/03-matrix-multiplication.py":274:14)
#loc22 = loc("/root/workspace/dsl-lab/triton/matmul/03-matrix-multiplication.py":275:26)
#loc23 = loc("/root/workspace/dsl-lab/triton/matmul/03-matrix-multiplication.py":275:14)
#loc24 = loc("/root/workspace/dsl-lab/triton/matmul/03-matrix-multiplication.py":276:26)
#loc25 = loc("/root/workspace/dsl-lab/triton/matmul/03-matrix-multiplication.py":276:14)
#loc26 = loc("/root/workspace/dsl-lab/triton/matmul/03-matrix-multiplication.py":277:14)
#loc27 = loc("/root/workspace/dsl-lab/triton/matmul/03-matrix-multiplication.py":286:23)
#loc28 = loc("/root/workspace/dsl-lab/triton/matmul/03-matrix-multiplication.py":286:51)
#loc29 = loc("/root/workspace/dsl-lab/triton/matmul/03-matrix-multiplication.py":286:38)
#loc30 = loc("/root/workspace/dsl-lab/triton/matmul/03-matrix-multiplication.py":286:68)
#loc31 = loc("/root/workspace/dsl-lab/triton/matmul/03-matrix-multiplication.py":287:23)
#loc32 = loc("/root/workspace/dsl-lab/triton/matmul/03-matrix-multiplication.py":287:51)
#loc33 = loc("/root/workspace/dsl-lab/triton/matmul/03-matrix-multiplication.py":287:38)
#loc34 = loc("/root/workspace/dsl-lab/triton/matmul/03-matrix-multiplication.py":287:68)
#loc35 = loc("/root/workspace/dsl-lab/triton/matmul/03-matrix-multiplication.py":288:26)
#loc36 = loc("/root/workspace/dsl-lab/triton/matmul/03-matrix-multiplication.py":289:30)
#loc37 = loc("/root/workspace/dsl-lab/triton/matmul/03-matrix-multiplication.py":289:41)
#loc38 = loc("/root/workspace/dsl-lab/triton/matmul/03-matrix-multiplication.py":289:60)
#loc39 = loc("/root/workspace/dsl-lab/triton/matmul/03-matrix-multiplication.py":289:71)
#loc40 = loc("/root/workspace/dsl-lab/triton/matmul/03-matrix-multiplication.py":289:53)
#loc41 = loc("/root/workspace/dsl-lab/triton/matmul/03-matrix-multiplication.py":289:22)
#loc42 = loc("/root/workspace/dsl-lab/triton/matmul/03-matrix-multiplication.py":290:29)
#loc43 = loc("/root/workspace/dsl-lab/triton/matmul/03-matrix-multiplication.py":290:40)
#loc44 = loc("/root/workspace/dsl-lab/triton/matmul/03-matrix-multiplication.py":290:60)
#loc45 = loc("/root/workspace/dsl-lab/triton/matmul/03-matrix-multiplication.py":290:71)
#loc46 = loc("/root/workspace/dsl-lab/triton/matmul/03-matrix-multiplication.py":290:52)
#loc47 = loc("/root/workspace/dsl-lab/triton/matmul/03-matrix-multiplication.py":290:22)
#loc48 = loc("/root/workspace/dsl-lab/triton/matmul/03-matrix-multiplication.py":297:27)
#loc49 = loc("/root/workspace/dsl-lab/triton/matmul/03-matrix-multiplication.py":298:33)
#loc50 = loc("/root/workspace/dsl-lab/triton/matmul/03-matrix-multiplication.py":298:22)
#loc51 = loc("/root/workspace/dsl-lab/triton/matmul/03-matrix-multiplication.py":301:40)
#loc52 = loc("/root/workspace/dsl-lab/triton/matmul/03-matrix-multiplication.py":301:59)
#loc53 = loc("/root/workspace/dsl-lab/triton/matmul/03-matrix-multiplication.py":301:55)
#loc54 = loc("/root/workspace/dsl-lab/triton/matmul/03-matrix-multiplication.py":301:51)
#loc55 = loc("/root/workspace/dsl-lab/triton/matmul/03-matrix-multiplication.py":301:20)
#loc56 = loc("/root/workspace/dsl-lab/triton/matmul/03-matrix-multiplication.py":302:40)
#loc57 = loc("/root/workspace/dsl-lab/triton/matmul/03-matrix-multiplication.py":302:59)
#loc58 = loc("/root/workspace/dsl-lab/triton/matmul/03-matrix-multiplication.py":302:55)
#loc59 = loc("/root/workspace/dsl-lab/triton/matmul/03-matrix-multiplication.py":302:51)
#loc60 = loc("/root/workspace/dsl-lab/triton/matmul/03-matrix-multiplication.py":302:20)
#loc61 = loc("/root/workspace/dsl-lab/triton/matmul/03-matrix-multiplication.py":304:35)
#loc62 = loc("/root/workspace/dsl-lab/triton/matmul/03-matrix-multiplication.py":306:18)
#loc63 = loc("/root/workspace/dsl-lab/triton/matmul/03-matrix-multiplication.py":307:33)
#loc64 = loc("/root/workspace/dsl-lab/triton/matmul/03-matrix-multiplication.py":307:18)
#loc65 = loc("/root/workspace/dsl-lab/triton/matmul/03-matrix-multiplication.py":307:8)
#loc66 = loc("/root/workspace/dsl-lab/triton/matmul/03-matrix-multiplication.py":312:23)
#loc67 = loc("/root/workspace/dsl-lab/triton/matmul/03-matrix-multiplication.py":316:22)
#loc68 = loc("/root/workspace/dsl-lab/triton/matmul/03-matrix-multiplication.py":316:50)
#loc69 = loc("/root/workspace/dsl-lab/triton/matmul/03-matrix-multiplication.py":316:37)
#loc70 = loc("/root/workspace/dsl-lab/triton/matmul/03-matrix-multiplication.py":317:22)
#loc71 = loc("/root/workspace/dsl-lab/triton/matmul/03-matrix-multiplication.py":317:50)
#loc72 = loc("/root/workspace/dsl-lab/triton/matmul/03-matrix-multiplication.py":317:37)
#loc73 = loc("/root/workspace/dsl-lab/triton/matmul/03-matrix-multiplication.py":318:41)
#loc74 = loc("/root/workspace/dsl-lab/triton/matmul/03-matrix-multiplication.py":318:33)
#loc75 = loc("/root/workspace/dsl-lab/triton/matmul/03-matrix-multiplication.py":318:21)
#loc76 = loc("/root/workspace/dsl-lab/triton/matmul/03-matrix-multiplication.py":318:72)
#loc77 = loc("/root/workspace/dsl-lab/triton/matmul/03-matrix-multiplication.py":318:64)
#loc78 = loc("/root/workspace/dsl-lab/triton/matmul/03-matrix-multiplication.py":318:52)
#loc79 = loc("/root/workspace/dsl-lab/triton/matmul/03-matrix-multiplication.py":319:22)
#loc80 = loc("/root/workspace/dsl-lab/triton/matmul/03-matrix-multiplication.py":319:33)
#loc81 = loc("/root/workspace/dsl-lab/triton/matmul/03-matrix-multiplication.py":319:47)
#loc82 = loc("/root/workspace/dsl-lab/triton/matmul/03-matrix-multiplication.py":319:58)
#loc83 = loc("/root/workspace/dsl-lab/triton/matmul/03-matrix-multiplication.py":319:39)
#loc84 = loc("/root/workspace/dsl-lab/triton/matmul/03-matrix-multiplication.py":320:21)
#loc85 = loc("/root/workspace/dsl-lab/triton/matmul/03-matrix-multiplication.py":320:4)
#loc87 = loc(unknown)
#loc88 = loc("/opt/venv/lib/python3.11/site-packages/triton/language/standard.py":43:17)
#loc89 = loc("/opt/venv/lib/python3.11/site-packages/triton/language/standard.py":43:30)
#loc90 = loc("/opt/venv/lib/python3.11/site-packages/triton/language/standard.py":43:11)
#loc91 = loc("/opt/venv/lib/python3.11/site-packages/triton/language/standard.py":43:4)
#loc92 = loc("/opt/venv/lib/python3.11/site-packages/triton/language/standard.py":120:0)
#loc93 = loc("/opt/venv/lib/python3.11/site-packages/triton/language/standard.py":129:31)
#loc94 = loc("/opt/venv/lib/python3.11/site-packages/triton/language/standard.py":129:11)
#loc95 = loc("/opt/venv/lib/python3.11/site-packages/triton/language/standard.py":129:4)
#loc105 = loc("pid"(#loc1))
#loc106 = loc("num_pid_m"(#loc2))
#loc107 = loc("num_pid_n"(#loc3))
#loc108 = loc("num_pid_in_group"(#loc4))
#loc109 = loc("group_id"(#loc5))
#loc110 = loc("first_pid_m"(#loc6))
#loc111 = loc("group_size_m"(#loc7))
#loc112 = loc("group_size_m"(#loc8))
#loc113 = loc("pid_m"(#loc9))
#loc114 = loc("pid_m"(#loc10))
#loc115 = loc("pid_m"(#loc11))
#loc116 = loc("pid_n"(#loc12))
#loc117 = loc("pid_n"(#loc13))
#loc118 = loc("offs_am"(#loc27))
#loc119 = loc("offs_am"(#loc28))
#loc120 = loc("offs_am"(#loc29))
#loc121 = loc("offs_am"(#loc30))
#loc122 = loc("offs_bn"(#loc31))
#loc123 = loc("offs_bn"(#loc32))
#loc124 = loc("offs_bn"(#loc33))
#loc125 = loc("offs_bn"(#loc34))
#loc126 = loc("offs_k"(#loc35))
#loc127 = loc("a_ptrs"(#loc36))
#loc128 = loc("a_ptrs"(#loc37))
#loc129 = loc("a_ptrs"(#loc38))
#loc130 = loc("a_ptrs"(#loc39))
#loc131 = loc("a_ptrs"(#loc40))
#loc132 = loc("a_ptrs"(#loc41))
#loc133 = loc("b_ptrs"(#loc42))
#loc134 = loc("b_ptrs"(#loc43))
#loc135 = loc("b_ptrs"(#loc44))
#loc136 = loc("b_ptrs"(#loc45))
#loc137 = loc("b_ptrs"(#loc46))
#loc138 = loc("b_ptrs"(#loc47))
#loc139 = loc("accumulator"(#loc48))
#loc140 = loc("a_ptrs"(#loc50))
#loc141 = loc("a"(#loc51))
#loc142 = loc("a"(#loc52))
#loc143 = loc("a"(#loc53))
#loc144 = loc("a"(#loc54))
#loc145 = loc("a"(#loc55))
#loc146 = loc("b"(#loc56))
#loc147 = loc("b"(#loc57))
#loc148 = loc("b"(#loc58))
#loc149 = loc("b"(#loc59))
#loc150 = loc("b"(#loc60))
#loc151 = loc("accumulator"(#loc61))
#loc152 = loc("a_ptrs"(#loc62))
#loc153 = loc("b_ptrs"(#loc63))
#loc154 = loc("b_ptrs"(#loc64))
#loc155 = loc("c"(#loc66))
#loc156 = loc("offs_cm"(#loc67))
#loc157 = loc("offs_cm"(#loc68))
#loc158 = loc("offs_cm"(#loc69))
#loc159 = loc("offs_cn"(#loc70))
#loc160 = loc("offs_cn"(#loc71))
#loc161 = loc("offs_cn"(#loc72))
#loc162 = loc("c_ptrs"(#loc73))
#loc163 = loc("c_ptrs"(#loc74))
#loc164 = loc("c_ptrs"(#loc75))
#loc165 = loc("c_ptrs"(#loc76))
#loc166 = loc("c_ptrs"(#loc77))
#loc167 = loc("c_ptrs"(#loc78))
#loc168 = loc("c_mask"(#loc79))
#loc169 = loc("c_mask"(#loc80))
#loc170 = loc("c_mask"(#loc81))
#loc171 = loc("c_mask"(#loc82))
#loc172 = loc("c_mask"(#loc83))
#loc174 = loc("b_ptrs"(#loc140))
#loc175 = loc("accumulator"(#loc174))


// -----// IR Dump Before Canonicalizer (canonicalize) ('tt.func' operation: @triton.language.standard.zeros__Tc64_c32T_cfp32) //----- //
#loc = loc("/root/workspace/dsl-lab/triton/matmul/03-matrix-multiplication.py":233:0)
#loc86 = loc("/opt/venv/lib/python3.11/site-packages/triton/language/standard.py":34:0)
#loc95 = loc("a_ptr"(#loc))
#loc96 = loc("b_ptr"(#loc))
#loc97 = loc("c_ptr"(#loc))
#loc98 = loc("M"(#loc))
#loc99 = loc("N"(#loc))
#loc100 = loc("K"(#loc))
#loc101 = loc("stride_am"(#loc))
#loc102 = loc("stride_bk"(#loc))
#loc103 = loc("stride_cm"(#loc))
#loc172 = loc("x"(#loc86))
module {
  tt.func public @matmul_kernel(%a_ptr: !tt.ptr<f16> {tt.divisibility = 16 : i32, tt.pointer_range = 32 : i32} loc("a_ptr"(#loc)), %b_ptr: !tt.ptr<f16> {tt.divisibility = 16 : i32, tt.pointer_range = 32 : i32} loc("b_ptr"(#loc)), %c_ptr: !tt.ptr<f16> {tt.divisibility = 16 : i32, tt.pointer_range = 32 : i32} loc("c_ptr"(#loc)), %M: i32 {tt.divisibility = 16 : i32} loc("M"(#loc)), %N: i32 {tt.divisibility = 16 : i32} loc("N"(#loc)), %K: i32 {tt.divisibility = 16 : i32} loc("K"(#loc)), %stride_am: i32 {tt.divisibility = 16 : i32} loc("stride_am"(#loc)), %stride_bk: i32 {tt.divisibility = 16 : i32} loc("stride_bk"(#loc)), %stride_cm: i32 {tt.divisibility = 16 : i32} loc("stride_cm"(#loc))) attributes {noinline = false} {
    %pid = tt.get_program_id x : i32 loc(#loc104)
    %num_pid_m = tt.call @triton.language.standard.cdiv__i32_c64(%M) : (i32) -> i32 loc(#loc105)
    %num_pid_n = tt.call @triton.language.standard.cdiv__i32_c32(%N) : (i32) -> i32 loc(#loc106)
    %num_pid_in_group = arith.constant 4 : i32 loc(#loc107)
    %num_pid_in_group_0 = arith.constant 4 : i32 loc(#loc107)
    %num_pid_in_group_1 = arith.extsi %num_pid_in_group_0 : i32 to i64 loc(#loc107)
    %num_pid_in_group_2 = arith.extsi %num_pid_n : i32 to i64 loc(#loc107)
    %num_pid_in_group_3 = arith.muli %num_pid_in_group_1, %num_pid_in_group_2 : i64 loc(#loc107)
    %num_pid_in_group_4 = arith.constant 2147483647 : i64 loc(#loc107)
    %num_pid_in_group_5 = arith.constant -2147483648 : i64 loc(#loc107)
    %num_pid_in_group_6 = arith.cmpi sle, %num_pid_in_group_3, %num_pid_in_group_4 : i64 loc(#loc107)
    %num_pid_in_group_7 = arith.cmpi sge, %num_pid_in_group_3, %num_pid_in_group_5 : i64 loc(#loc107)
    %num_pid_in_group_8 = arith.andi %num_pid_in_group_6, %num_pid_in_group_7 : i1 loc(#loc107)
    %num_pid_in_group_9 = arith.muli %num_pid_in_group_0, %num_pid_n : i32 loc(#loc107)
    %group_id = arith.divsi %pid, %num_pid_in_group_9 : i32 loc(#loc108)
    %first_pid_m = arith.constant 4 : i32 loc(#loc109)
    %first_pid_m_10 = arith.constant 4 : i32 loc(#loc109)
    %first_pid_m_11 = arith.extsi %group_id : i32 to i64 loc(#loc109)
    %first_pid_m_12 = arith.extsi %first_pid_m_10 : i32 to i64 loc(#loc109)
    %first_pid_m_13 = arith.muli %first_pid_m_11, %first_pid_m_12 : i64 loc(#loc109)
    %first_pid_m_14 = arith.constant 2147483647 : i64 loc(#loc109)
    %first_pid_m_15 = arith.constant -2147483648 : i64 loc(#loc109)
    %first_pid_m_16 = arith.cmpi sle, %first_pid_m_13, %first_pid_m_14 : i64 loc(#loc109)
    %first_pid_m_17 = arith.cmpi sge, %first_pid_m_13, %first_pid_m_15 : i64 loc(#loc109)
    %first_pid_m_18 = arith.andi %first_pid_m_16, %first_pid_m_17 : i1 loc(#loc109)
    %first_pid_m_19 = arith.muli %group_id, %first_pid_m_10 : i32 loc(#loc109)
    %group_size_m = arith.extsi %num_pid_m : i32 to i64 loc(#loc110)
    %group_size_m_20 = arith.extsi %first_pid_m_19 : i32 to i64 loc(#loc110)
    %group_size_m_21 = arith.subi %group_size_m, %group_size_m_20 : i64 loc(#loc110)
    %group_size_m_22 = arith.constant 2147483647 : i64 loc(#loc110)
    %group_size_m_23 = arith.constant -2147483648 : i64 loc(#loc110)
    %group_size_m_24 = arith.cmpi sle, %group_size_m_21, %group_size_m_22 : i64 loc(#loc110)
    %group_size_m_25 = arith.cmpi sge, %group_size_m_21, %group_size_m_23 : i64 loc(#loc110)
    %group_size_m_26 = arith.andi %group_size_m_24, %group_size_m_25 : i1 loc(#loc110)
    %group_size_m_27 = arith.subi %num_pid_m, %first_pid_m_19 : i32 loc(#loc110)
    %group_size_m_28 = arith.constant 4 : i32 loc(#loc111)
    %group_size_m_29 = arith.minsi %group_size_m_27, %group_size_m_28 : i32 loc(#loc111)
    %pid_m = arith.remsi %pid, %num_pid_in_group_9 : i32 loc(#loc112)
    %pid_m_30 = arith.remsi %pid_m, %group_size_m_29 : i32 loc(#loc113)
    %pid_m_31 = arith.extsi %first_pid_m_19 : i32 to i64 loc(#loc114)
    %pid_m_32 = arith.extsi %pid_m_30 : i32 to i64 loc(#loc114)
    %pid_m_33 = arith.addi %pid_m_31, %pid_m_32 : i64 loc(#loc114)
    %pid_m_34 = arith.constant 2147483647 : i64 loc(#loc114)
    %pid_m_35 = arith.constant -2147483648 : i64 loc(#loc114)
    %pid_m_36 = arith.cmpi sle, %pid_m_33, %pid_m_34 : i64 loc(#loc114)
    %pid_m_37 = arith.cmpi sge, %pid_m_33, %pid_m_35 : i64 loc(#loc114)
    %pid_m_38 = arith.andi %pid_m_36, %pid_m_37 : i1 loc(#loc114)
    %pid_m_39 = arith.addi %first_pid_m_19, %pid_m_30 : i32 loc(#loc114)
    %pid_n = arith.remsi %pid, %num_pid_in_group_9 : i32 loc(#loc115)
    %pid_n_40 = arith.divsi %pid_n, %group_size_m_29 : i32 loc(#loc116)
    %c0_i32 = arith.constant 0 : i32 loc(#loc14)
    %0 = arith.cmpi sge, %pid_m_39, %c0_i32 : i32 loc(#loc14)
    llvm.intr.assume %0 : i1 loc(#loc15)
    %c0_i32_41 = arith.constant 0 : i32 loc(#loc16)
    %1 = arith.cmpi sge, %pid_n_40, %c0_i32_41 : i32 loc(#loc16)
    llvm.intr.assume %1 : i1 loc(#loc17)
    %c0_i32_42 = arith.constant 0 : i32 loc(#loc18)
    %2 = arith.cmpi sgt, %stride_am, %c0_i32_42 : i32 loc(#loc18)
    llvm.intr.assume %2 : i1 loc(#loc19)
    %true = arith.constant true loc(#loc20)
    llvm.intr.assume %true : i1 loc(#loc20)
    %true_43 = arith.constant true loc(#loc21)
    llvm.intr.assume %true_43 : i1 loc(#loc21)
    %c0_i32_44 = arith.constant 0 : i32 loc(#loc22)
    %3 = arith.cmpi sgt, %stride_bk, %c0_i32_44 : i32 loc(#loc22)
    llvm.intr.assume %3 : i1 loc(#loc23)
    %c0_i32_45 = arith.constant 0 : i32 loc(#loc24)
    %4 = arith.cmpi sgt, %stride_cm, %c0_i32_45 : i32 loc(#loc24)
    llvm.intr.assume %4 : i1 loc(#loc25)
    %true_46 = arith.constant true loc(#loc26)
    llvm.intr.assume %true_46 : i1 loc(#loc26)
    %offs_am = arith.constant 64 : i32 loc(#loc117)
    %offs_am_47 = arith.constant 64 : i32 loc(#loc117)
    %offs_am_48 = arith.extsi %pid_m_39 : i32 to i64 loc(#loc117)
    %offs_am_49 = arith.extsi %offs_am_47 : i32 to i64 loc(#loc117)
    %offs_am_50 = arith.muli %offs_am_48, %offs_am_49 : i64 loc(#loc117)
    %offs_am_51 = arith.constant 2147483647 : i64 loc(#loc117)
    %offs_am_52 = arith.constant -2147483648 : i64 loc(#loc117)
    %offs_am_53 = arith.cmpi sle, %offs_am_50, %offs_am_51 : i64 loc(#loc117)
    %offs_am_54 = arith.cmpi sge, %offs_am_50, %offs_am_52 : i64 loc(#loc117)
    %offs_am_55 = arith.andi %offs_am_53, %offs_am_54 : i1 loc(#loc117)
    %offs_am_56 = arith.muli %pid_m_39, %offs_am_47 : i32 loc(#loc117)
    %offs_am_57 = tt.make_range {end = 64 : i32, start = 0 : i32} : tensor<64xi32> loc(#loc118)
    %offs_am_58 = tt.splat %offs_am_56 : i32 -> tensor<64xi32> loc(#loc119)
    %offs_am_59 = arith.extsi %offs_am_58 : tensor<64xi32> to tensor<64xi64> loc(#loc119)
    %offs_am_60 = arith.extsi %offs_am_57 : tensor<64xi32> to tensor<64xi64> loc(#loc119)
    %offs_am_61 = arith.addi %offs_am_59, %offs_am_60 : tensor<64xi64> loc(#loc119)
    %offs_am_62 = arith.constant 2147483647 : i64 loc(#loc119)
    %offs_am_63 = arith.constant -2147483648 : i64 loc(#loc119)
    %offs_am_64 = arith.constant dense<2147483647> : tensor<64xi64> loc(#loc119)
    %offs_am_65 = arith.cmpi sle, %offs_am_61, %offs_am_64 : tensor<64xi64> loc(#loc119)
    %offs_am_66 = arith.constant dense<-2147483648> : tensor<64xi64> loc(#loc119)
    %offs_am_67 = arith.cmpi sge, %offs_am_61, %offs_am_66 : tensor<64xi64> loc(#loc119)
    %offs_am_68 = arith.andi %offs_am_65, %offs_am_67 : tensor<64xi1> loc(#loc119)
    %offs_am_69 = arith.addi %offs_am_58, %offs_am_57 : tensor<64xi32> loc(#loc119)
    %offs_am_70 = tt.splat %M : i32 -> tensor<64xi32> loc(#loc120)
    %offs_am_71 = arith.remsi %offs_am_69, %offs_am_70 : tensor<64xi32> loc(#loc120)
    %offs_bn = arith.constant 32 : i32 loc(#loc121)
    %offs_bn_72 = arith.constant 32 : i32 loc(#loc121)
    %offs_bn_73 = arith.extsi %pid_n_40 : i32 to i64 loc(#loc121)
    %offs_bn_74 = arith.extsi %offs_bn_72 : i32 to i64 loc(#loc121)
    %offs_bn_75 = arith.muli %offs_bn_73, %offs_bn_74 : i64 loc(#loc121)
    %offs_bn_76 = arith.constant 2147483647 : i64 loc(#loc121)
    %offs_bn_77 = arith.constant -2147483648 : i64 loc(#loc121)
    %offs_bn_78 = arith.cmpi sle, %offs_bn_75, %offs_bn_76 : i64 loc(#loc121)
    %offs_bn_79 = arith.cmpi sge, %offs_bn_75, %offs_bn_77 : i64 loc(#loc121)
    %offs_bn_80 = arith.andi %offs_bn_78, %offs_bn_79 : i1 loc(#loc121)
    %offs_bn_81 = arith.muli %pid_n_40, %offs_bn_72 : i32 loc(#loc121)
    %offs_bn_82 = tt.make_range {end = 32 : i32, start = 0 : i32} : tensor<32xi32> loc(#loc122)
    %offs_bn_83 = tt.splat %offs_bn_81 : i32 -> tensor<32xi32> loc(#loc123)
    %offs_bn_84 = arith.extsi %offs_bn_83 : tensor<32xi32> to tensor<32xi64> loc(#loc123)
    %offs_bn_85 = arith.extsi %offs_bn_82 : tensor<32xi32> to tensor<32xi64> loc(#loc123)
    %offs_bn_86 = arith.addi %offs_bn_84, %offs_bn_85 : tensor<32xi64> loc(#loc123)
    %offs_bn_87 = arith.constant 2147483647 : i64 loc(#loc123)
    %offs_bn_88 = arith.constant -2147483648 : i64 loc(#loc123)
    %offs_bn_89 = arith.constant dense<2147483647> : tensor<32xi64> loc(#loc123)
    %offs_bn_90 = arith.cmpi sle, %offs_bn_86, %offs_bn_89 : tensor<32xi64> loc(#loc123)
    %offs_bn_91 = arith.constant dense<-2147483648> : tensor<32xi64> loc(#loc123)
    %offs_bn_92 = arith.cmpi sge, %offs_bn_86, %offs_bn_91 : tensor<32xi64> loc(#loc123)
    %offs_bn_93 = arith.andi %offs_bn_90, %offs_bn_92 : tensor<32xi1> loc(#loc123)
    %offs_bn_94 = arith.addi %offs_bn_83, %offs_bn_82 : tensor<32xi32> loc(#loc123)
    %offs_bn_95 = tt.splat %N : i32 -> tensor<32xi32> loc(#loc124)
    %offs_bn_96 = arith.remsi %offs_bn_94, %offs_bn_95 : tensor<32xi32> loc(#loc124)
    %offs_k = tt.make_range {end = 64 : i32, start = 0 : i32} : tensor<64xi32> loc(#loc125)
    %a_ptrs = tt.expand_dims %offs_am_71 {axis = 1 : i32} : tensor<64xi32> -> tensor<64x1xi32> loc(#loc126)
    %a_ptrs_97 = tt.splat %stride_am : i32 -> tensor<64x1xi32> loc(#loc127)
    %a_ptrs_98 = arith.extsi %a_ptrs : tensor<64x1xi32> to tensor<64x1xi64> loc(#loc127)
    %a_ptrs_99 = arith.extsi %a_ptrs_97 : tensor<64x1xi32> to tensor<64x1xi64> loc(#loc127)
    %a_ptrs_100 = arith.muli %a_ptrs_98, %a_ptrs_99 : tensor<64x1xi64> loc(#loc127)
    %a_ptrs_101 = arith.constant 2147483647 : i64 loc(#loc127)
    %a_ptrs_102 = arith.constant -2147483648 : i64 loc(#loc127)
    %a_ptrs_103 = arith.constant dense<2147483647> : tensor<64x1xi64> loc(#loc127)
    %a_ptrs_104 = arith.cmpi sle, %a_ptrs_100, %a_ptrs_103 : tensor<64x1xi64> loc(#loc127)
    %a_ptrs_105 = arith.constant dense<-2147483648> : tensor<64x1xi64> loc(#loc127)
    %a_ptrs_106 = arith.cmpi sge, %a_ptrs_100, %a_ptrs_105 : tensor<64x1xi64> loc(#loc127)
    %a_ptrs_107 = arith.andi %a_ptrs_104, %a_ptrs_106 : tensor<64x1xi1> loc(#loc127)
    %a_ptrs_108 = arith.muli %a_ptrs, %a_ptrs_97 : tensor<64x1xi32> loc(#loc127)
    %a_ptrs_109 = tt.expand_dims %offs_k {axis = 0 : i32} : tensor<64xi32> -> tensor<1x64xi32> loc(#loc128)
    %a_ptrs_110 = arith.constant 1 : i32 loc(#loc129)
    %a_ptrs_111 = arith.constant 1 : i32 loc(#loc129)
    %a_ptrs_112 = arith.constant dense<1> : tensor<1x64xi32> loc(#loc129)
    %a_ptrs_113 = arith.extsi %a_ptrs_109 : tensor<1x64xi32> to tensor<1x64xi64> loc(#loc129)
    %a_ptrs_114 = arith.extsi %a_ptrs_112 : tensor<1x64xi32> to tensor<1x64xi64> loc(#loc129)
    %a_ptrs_115 = arith.muli %a_ptrs_113, %a_ptrs_114 : tensor<1x64xi64> loc(#loc129)
    %a_ptrs_116 = arith.constant 2147483647 : i64 loc(#loc129)
    %a_ptrs_117 = arith.constant -2147483648 : i64 loc(#loc129)
    %a_ptrs_118 = arith.constant dense<2147483647> : tensor<1x64xi64> loc(#loc129)
    %a_ptrs_119 = arith.cmpi sle, %a_ptrs_115, %a_ptrs_118 : tensor<1x64xi64> loc(#loc129)
    %a_ptrs_120 = arith.constant dense<-2147483648> : tensor<1x64xi64> loc(#loc129)
    %a_ptrs_121 = arith.cmpi sge, %a_ptrs_115, %a_ptrs_120 : tensor<1x64xi64> loc(#loc129)
    %a_ptrs_122 = arith.andi %a_ptrs_119, %a_ptrs_121 : tensor<1x64xi1> loc(#loc129)
    %a_ptrs_123 = arith.muli %a_ptrs_109, %a_ptrs_112 : tensor<1x64xi32> loc(#loc129)
    %a_ptrs_124 = tt.broadcast %a_ptrs_108 : tensor<64x1xi32> -> tensor<64x64xi32> loc(#loc130)
    %a_ptrs_125 = tt.broadcast %a_ptrs_123 : tensor<1x64xi32> -> tensor<64x64xi32> loc(#loc130)
    %a_ptrs_126 = arith.extsi %a_ptrs_124 : tensor<64x64xi32> to tensor<64x64xi64> loc(#loc130)
    %a_ptrs_127 = arith.extsi %a_ptrs_125 : tensor<64x64xi32> to tensor<64x64xi64> loc(#loc130)
    %a_ptrs_128 = arith.addi %a_ptrs_126, %a_ptrs_127 : tensor<64x64xi64> loc(#loc130)
    %a_ptrs_129 = arith.constant 2147483647 : i64 loc(#loc130)
    %a_ptrs_130 = arith.constant -2147483648 : i64 loc(#loc130)
    %a_ptrs_131 = arith.constant dense<2147483647> : tensor<64x64xi64> loc(#loc130)
    %a_ptrs_132 = arith.cmpi sle, %a_ptrs_128, %a_ptrs_131 : tensor<64x64xi64> loc(#loc130)
    %a_ptrs_133 = arith.constant dense<-2147483648> : tensor<64x64xi64> loc(#loc130)
    %a_ptrs_134 = arith.cmpi sge, %a_ptrs_128, %a_ptrs_133 : tensor<64x64xi64> loc(#loc130)
    %a_ptrs_135 = arith.andi %a_ptrs_132, %a_ptrs_134 : tensor<64x64xi1> loc(#loc130)
    %a_ptrs_136 = arith.addi %a_ptrs_124, %a_ptrs_125 : tensor<64x64xi32> loc(#loc130)
    %a_ptrs_137 = tt.splat %a_ptr : !tt.ptr<f16> -> tensor<64x64x!tt.ptr<f16>> loc(#loc131)
    %a_ptrs_138 = tt.addptr %a_ptrs_137, %a_ptrs_136 : tensor<64x64x!tt.ptr<f16>>, tensor<64x64xi32> loc(#loc131)
    %b_ptrs = tt.expand_dims %offs_k {axis = 1 : i32} : tensor<64xi32> -> tensor<64x1xi32> loc(#loc132)
    %b_ptrs_139 = tt.splat %stride_bk : i32 -> tensor<64x1xi32> loc(#loc133)
    %b_ptrs_140 = arith.extsi %b_ptrs : tensor<64x1xi32> to tensor<64x1xi64> loc(#loc133)
    %b_ptrs_141 = arith.extsi %b_ptrs_139 : tensor<64x1xi32> to tensor<64x1xi64> loc(#loc133)
    %b_ptrs_142 = arith.muli %b_ptrs_140, %b_ptrs_141 : tensor<64x1xi64> loc(#loc133)
    %b_ptrs_143 = arith.constant 2147483647 : i64 loc(#loc133)
    %b_ptrs_144 = arith.constant -2147483648 : i64 loc(#loc133)
    %b_ptrs_145 = arith.constant dense<2147483647> : tensor<64x1xi64> loc(#loc133)
    %b_ptrs_146 = arith.cmpi sle, %b_ptrs_142, %b_ptrs_145 : tensor<64x1xi64> loc(#loc133)
    %b_ptrs_147 = arith.constant dense<-2147483648> : tensor<64x1xi64> loc(#loc133)
    %b_ptrs_148 = arith.cmpi sge, %b_ptrs_142, %b_ptrs_147 : tensor<64x1xi64> loc(#loc133)
    %b_ptrs_149 = arith.andi %b_ptrs_146, %b_ptrs_148 : tensor<64x1xi1> loc(#loc133)
    %b_ptrs_150 = arith.muli %b_ptrs, %b_ptrs_139 : tensor<64x1xi32> loc(#loc133)
    %b_ptrs_151 = tt.expand_dims %offs_bn_96 {axis = 0 : i32} : tensor<32xi32> -> tensor<1x32xi32> loc(#loc134)
    %b_ptrs_152 = arith.constant 1 : i32 loc(#loc135)
    %b_ptrs_153 = arith.constant 1 : i32 loc(#loc135)
    %b_ptrs_154 = arith.constant dense<1> : tensor<1x32xi32> loc(#loc135)
    %b_ptrs_155 = arith.extsi %b_ptrs_151 : tensor<1x32xi32> to tensor<1x32xi64> loc(#loc135)
    %b_ptrs_156 = arith.extsi %b_ptrs_154 : tensor<1x32xi32> to tensor<1x32xi64> loc(#loc135)
    %b_ptrs_157 = arith.muli %b_ptrs_155, %b_ptrs_156 : tensor<1x32xi64> loc(#loc135)
    %b_ptrs_158 = arith.constant 2147483647 : i64 loc(#loc135)
    %b_ptrs_159 = arith.constant -2147483648 : i64 loc(#loc135)
    %b_ptrs_160 = arith.constant dense<2147483647> : tensor<1x32xi64> loc(#loc135)
    %b_ptrs_161 = arith.cmpi sle, %b_ptrs_157, %b_ptrs_160 : tensor<1x32xi64> loc(#loc135)
    %b_ptrs_162 = arith.constant dense<-2147483648> : tensor<1x32xi64> loc(#loc135)
    %b_ptrs_163 = arith.cmpi sge, %b_ptrs_157, %b_ptrs_162 : tensor<1x32xi64> loc(#loc135)
    %b_ptrs_164 = arith.andi %b_ptrs_161, %b_ptrs_163 : tensor<1x32xi1> loc(#loc135)
    %b_ptrs_165 = arith.muli %b_ptrs_151, %b_ptrs_154 : tensor<1x32xi32> loc(#loc135)
    %b_ptrs_166 = tt.broadcast %b_ptrs_150 : tensor<64x1xi32> -> tensor<64x32xi32> loc(#loc136)
    %b_ptrs_167 = tt.broadcast %b_ptrs_165 : tensor<1x32xi32> -> tensor<64x32xi32> loc(#loc136)
    %b_ptrs_168 = arith.extsi %b_ptrs_166 : tensor<64x32xi32> to tensor<64x32xi64> loc(#loc136)
    %b_ptrs_169 = arith.extsi %b_ptrs_167 : tensor<64x32xi32> to tensor<64x32xi64> loc(#loc136)
    %b_ptrs_170 = arith.addi %b_ptrs_168, %b_ptrs_169 : tensor<64x32xi64> loc(#loc136)
    %b_ptrs_171 = arith.constant 2147483647 : i64 loc(#loc136)
    %b_ptrs_172 = arith.constant -2147483648 : i64 loc(#loc136)
    %b_ptrs_173 = arith.constant dense<2147483647> : tensor<64x32xi64> loc(#loc136)
    %b_ptrs_174 = arith.cmpi sle, %b_ptrs_170, %b_ptrs_173 : tensor<64x32xi64> loc(#loc136)
    %b_ptrs_175 = arith.constant dense<-2147483648> : tensor<64x32xi64> loc(#loc136)
    %b_ptrs_176 = arith.cmpi sge, %b_ptrs_170, %b_ptrs_175 : tensor<64x32xi64> loc(#loc136)
    %b_ptrs_177 = arith.andi %b_ptrs_174, %b_ptrs_176 : tensor<64x32xi1> loc(#loc136)
    %b_ptrs_178 = arith.addi %b_ptrs_166, %b_ptrs_167 : tensor<64x32xi32> loc(#loc136)
    %b_ptrs_179 = tt.splat %b_ptr : !tt.ptr<f16> -> tensor<64x32x!tt.ptr<f16>> loc(#loc137)
    %b_ptrs_180 = tt.addptr %b_ptrs_179, %b_ptrs_178 : tensor<64x32x!tt.ptr<f16>>, tensor<64x32xi32> loc(#loc137)
    %accumulator = tt.call @triton.language.standard.zeros__Tc64_c32T_cfp32() : () -> tensor<64x32xf32> loc(#loc138)
    %5 = tt.call @triton.language.standard.cdiv__i32_c64(%K) : (i32) -> i32 loc(#loc49)
    %c0_i32_181 = arith.constant 0 : i32 loc(#loc50)
    %c1_i32 = arith.constant 1 : i32 loc(#loc50)
    %6 = arith.bitcast %c0_i32_181 : i32 to i32 loc(#loc50)
    %7 = arith.bitcast %5 : i32 to i32 loc(#loc50)
    %8 = arith.bitcast %c1_i32 : i32 to i32 loc(#loc50)
    %9 = ub.poison : i32 loc(#loc50)
…
    %accumulator_415 = llvm.extractelement %accumulator_410[%36 : i32] : vector<4xf16> loc(#loc102)
    %accumulator_416 = llvm.insertelement %accumulator_415, %accumulator_414[%36 : i32] : vector<4xf16> loc(#loc102)
    %accumulator_417 = llvm.extractelement %accumulator_410[%39 : i32] : vector<4xf16> loc(#loc102)
    %accumulator_418 = llvm.insertelement %accumulator_417, %accumulator_416[%39 : i32] : vector<4xf16> loc(#loc102)
    %accumulator_419 = llvm.insertelement %a_299, %18[%47 : i32] : vector<4xf16> loc(#loc102)
    %accumulator_420 = llvm.insertelement %a_300, %accumulator_419[%45 : i32] : vector<4xf16> loc(#loc102)
    %accumulator_421 = llvm.insertelement %a_301, %accumulator_420[%36 : i32] : vector<4xf16> loc(#loc102)
    %accumulator_422 = llvm.insertelement %a_302, %accumulator_421[%39 : i32] : vector<4xf16> loc(#loc102)
    %accumulator_423 = llvm.extractelement %accumulator_422[%47 : i32] : vector<4xf16> loc(#loc102)
    %accumulator_424 = llvm.insertelement %accumulator_423, %18[%47 : i32] : vector<4xf16> loc(#loc102)
    %accumulator_425 = llvm.extractelement %accumulator_422[%45 : i32] : vector<4xf16> loc(#loc102)
    %accumulator_426 = llvm.insertelement %accumulator_425, %accumulator_424[%45 : i32] : vector<4xf16> loc(#loc102)
    %accumulator_427 = llvm.extractelement %accumulator_422[%36 : i32] : vector<4xf16> loc(#loc102)
    %accumulator_428 = llvm.insertelement %accumulator_427, %accumulator_426[%36 : i32] : vector<4xf16> loc(#loc102)
    %accumulator_429 = llvm.extractelement %accumulator_422[%39 : i32] : vector<4xf16> loc(#loc102)
    %accumulator_430 = llvm.insertelement %accumulator_429, %accumulator_428[%39 : i32] : vector<4xf16> loc(#loc102)
    %accumulator_431 = llvm.insertelement %a_307, %18[%47 : i32] : vector<4xf16> loc(#loc102)
    %accumulator_432 = llvm.insertelement %a_308, %accumulator_431[%45 : i32] : vector<4xf16> loc(#loc102)
    %accumulator_433 = llvm.insertelement %a_309, %accumulator_432[%36 : i32] : vector<4xf16> loc(#loc102)
    %accumulator_434 = llvm.insertelement %a_310, %accumulator_433[%39 : i32] : vector<4xf16> loc(#loc102)
    %accumulator_435 = llvm.extractelement %accumulator_434[%47 : i32] : vector<4xf16> loc(#loc102)
    %accumulator_436 = llvm.insertelement %accumulator_435, %18[%47 : i32] : vector<4xf16> loc(#loc102)
    %accumulator_437 = llvm.extractelement %accumulator_434[%45 : i32] : vector<4xf16> loc(#loc102)
    %accumulator_438 = llvm.insertelement %accumulator_437, %accumulator_436[%45 : i32] : vector<4xf16> loc(#loc102)
    %accumulator_439 = llvm.extractelement %accumulator_434[%36 : i32] : vector<4xf16> loc(#loc102)
    %accumulator_440 = llvm.insertelement %accumulator_439, %accumulator_438[%36 : i32] : vector<4xf16> loc(#loc102)
    %accumulator_441 = llvm.extractelement %accumulator_434[%39 : i32] : vector<4xf16> loc(#loc102)
    %accumulator_442 = llvm.insertelement %accumulator_441, %accumulator_440[%39 : i32] : vector<4xf16> loc(#loc102)
    %accumulator_443 = llvm.insertelement %a_315, %18[%47 : i32] : vector<4xf16> loc(#loc102)
    %accumulator_444 = llvm.insertelement %a_316, %accumulator_443[%45 : i32] : vector<4xf16> loc(#loc102)
    %accumulator_445 = llvm.insertelement %a_317, %accumulator_444[%36 : i32] : vector<4xf16> loc(#loc102)
    %accumulator_446 = llvm.insertelement %a_318, %accumulator_445[%39 : i32] : vector<4xf16> loc(#loc102)
    %accumulator_447 = llvm.extractelement %accumulator_446[%47 : i32] : vector<4xf16> loc(#loc102)
    %accumulator_448 = llvm.insertelement %accumulator_447, %18[%47 : i32] : vector<4xf16> loc(#loc102)
    %accumulator_449 = llvm.extractelement %accumulator_446[%45 : i32] : vector<4xf16> loc(#loc102)
    %accumulator_450 = llvm.insertelement %accumulator_449, %accumulator_448[%45 : i32] : vector<4xf16> loc(#loc102)
    %accumulator_451 = llvm.extractelement %accumulator_446[%36 : i32] : vector<4xf16> loc(#loc102)
    %accumulator_452 = llvm.insertelement %accumulator_451, %accumulator_450[%36 : i32] : vector<4xf16> loc(#loc102)
    %accumulator_453 = llvm.extractelement %accumulator_446[%39 : i32] : vector<4xf16> loc(#loc102)
    %accumulator_454 = llvm.insertelement %accumulator_453, %accumulator_452[%39 : i32] : vector<4xf16> loc(#loc102)
    %accumulator_455 = llvm.insertelement %b_346, %18[%47 : i32] : vector<4xf16> loc(#loc102)
    %accumulator_456 = llvm.insertelement %b_350, %accumulator_455[%45 : i32] : vector<4xf16> loc(#loc102)
    %accumulator_457 = llvm.insertelement %b_354, %accumulator_456[%36 : i32] : vector<4xf16> loc(#loc102)
    %accumulator_458 = llvm.insertelement %b_358, %accumulator_457[%39 : i32] : vector<4xf16> loc(#loc102)
    %accumulator_459 = llvm.extractelement %accumulator_458[%47 : i32] : vector<4xf16> loc(#loc102)
    %accumulator_460 = llvm.insertelement %accumulator_459, %18[%47 : i32] : vector<4xf16> loc(#loc102)
    %accumulator_461 = llvm.extractelement %accumulator_458[%45 : i32] : vector<4xf16> loc(#loc102)
    %accumulator_462 = llvm.insertelement %accumulator_461, %accumulator_460[%45 : i32] : vector<4xf16> loc(#loc102)
    %accumulator_463 = llvm.extractelement %accumulator_458[%36 : i32] : vector<4xf16> loc(#loc102)
    %accumulator_464 = llvm.insertelement %accumulator_463, %accumulator_462[%36 : i32] : vector<4xf16> loc(#loc102)
    %accumulator_465 = llvm.extractelement %accumulator_458[%39 : i32] : vector<4xf16> loc(#loc102)
    %accumulator_466 = llvm.insertelement %accumulator_465, %accumulator_464[%39 : i32] : vector<4xf16> loc(#loc102)
    %accumulator_467 = llvm.insertelement %b_362, %18[%47 : i32] : vector<4xf16> loc(#loc102)
    %accumulator_468 = llvm.insertelement %b_366, %accumulator_467[%45 : i32] : vector<4xf16> loc(#loc102)
    %accumulator_469 = llvm.insertelement %b_370, %accumulator_468[%36 : i32] : vector<4xf16> loc(#loc102)
    %accumulator_470 = llvm.insertelement %b_374, %accumulator_469[%39 : i32] : vector<4xf16> loc(#loc102)
    %accumulator_471 = llvm.extractelement %accumulator_470[%47 : i32] : vector<4xf16> loc(#loc102)
    %accumulator_472 = llvm.insertelement %accumulator_471, %18[%47 : i32] : vector<4xf16> loc(#loc102)
    %accumulator_473 = llvm.extractelement %accumulator_470[%45 : i32] : vector<4xf16> loc(#loc102)
    %accumulator_474 = llvm.insertelement %accumulator_473, %accumulator_472[%45 : i32] : vector<4xf16> loc(#loc102)
    %accumulator_475 = llvm.extractelement %accumulator_470[%36 : i32] : vector<4xf16> loc(#loc102)
    %accumulator_476 = llvm.insertelement %accumulator_475, %accumulator_474[%36 : i32] : vector<4xf16> loc(#loc102)
    %accumulator_477 = llvm.extractelement %accumulator_470[%39 : i32] : vector<4xf16> loc(#loc102)
    %accumulator_478 = llvm.insertelement %accumulator_477, %accumulator_476[%39 : i32] : vector<4xf16> loc(#loc102)
    %accumulator_479 = llvm.insertelement %b_378, %18[%47 : i32] : vector<4xf16> loc(#loc102)
    %accumulator_480 = llvm.insertelement %b_382, %accumulator_479[%45 : i32] : vector<4xf16> loc(#loc102)
    %accumulator_481 = llvm.insertelement %b_386, %accumulator_480[%36 : i32] : vector<4xf16> loc(#loc102)
    %accumulator_482 = llvm.insertelement %b_390, %accumulator_481[%39 : i32] : vector<4xf16> loc(#loc102)
    %accumulator_483 = llvm.extractelement %accumulator_482[%47 : i32] : vector<4xf16> loc(#loc102)
    %accumulator_484 = llvm.insertelement %accumulator_483, %18[%47 : i32] : vector<4xf16> loc(#loc102)
    %accumulator_485 = llvm.extractelement %accumulator_482[%45 : i32] : vector<4xf16> loc(#loc102)
    %accumulator_486 = llvm.insertelement %accumulator_485, %accumulator_484[%45 : i32] : vector<4xf16> loc(#loc102)
    %accumulator_487 = llvm.extractelement %accumulator_482[%36 : i32] : vector<4xf16> loc(#loc102)
    %accumulator_488 = llvm.insertelement %accumulator_487, %accumulator_486[%36 : i32] : vector<4xf16> loc(#loc102)
    %accumulator_489 = llvm.extractelement %accumulator_482[%39 : i32] : vector<4xf16> loc(#loc102)
    %accumulator_490 = llvm.insertelement %accumulator_489, %accumulator_488[%39 : i32] : vector<4xf16> loc(#loc102)
    %accumulator_491 = llvm.insertelement %b_394, %18[%47 : i32] : vector<4xf16> loc(#loc102)
    %accumulator_492 = llvm.insertelement %b_398, %accumulator_491[%45 : i32] : vector<4xf16> loc(#loc102)
    %accumulator_493 = llvm.insertelement %b_402, %accumulator_492[%36 : i32] : vector<4xf16> loc(#loc102)
    %accumulator_494 = llvm.insertelement %b_406, %accumulator_493[%39 : i32] : vector<4xf16> loc(#loc102)
    %accumulator_495 = llvm.extractelement %accumulator_494[%47 : i32] : vector<4xf16> loc(#loc102)
    %accumulator_496 = llvm.insertelement %accumulator_495, %18[%47 : i32] : vector<4xf16> loc(#loc102)
    %accumulator_497 = llvm.extractelement %accumulator_494[%45 : i32] : vector<4xf16> loc(#loc102)
    %accumulator_498 = llvm.insertelement %accumulator_497, %accumulator_496[%45 : i32] : vector<4xf16> loc(#loc102)
    %accumulator_499 = llvm.extractelement %accumulator_494[%36 : i32] : vector<4xf16> loc(#loc102)
    %accumulator_500 = llvm.insertelement %accumulator_499, %accumulator_498[%36 : i32] : vector<4xf16> loc(#loc102)
    %accumulator_501 = llvm.extractelement %accumulator_494[%39 : i32] : vector<4xf16> loc(#loc102)
    %accumulator_502 = llvm.insertelement %accumulator_501, %accumulator_500[%39 : i32] : vector<4xf16> loc(#loc102)
    %accumulator_503 = llvm.extractvalue %accumulator_214[0] : !llvm.struct<(f32, f32, f32, f32)>  loc(#loc102)
    %accumulator_504 = llvm.extractvalue %accumulator_214[1] : !llvm.struct<(f32, f32, f32, f32)>  loc(#loc102)
    %accumulator_505 = llvm.extractvalue %accumulator_214[2] : !llvm.struct<(f32, f32, f32, f32)>  loc(#loc102)
    %accumulator_506 = llvm.extractvalue %accumulator_214[3] : !llvm.struct<(f32, f32, f32, f32)>  loc(#loc102)
    %accumulator_507 = llvm.insertelement %accumulator_503, %0[%47 : i32] : vector<4xf32> loc(#loc102)
    %accumulator_508 = llvm.insertelement %accumulator_504, %accumulator_507[%45 : i32] : vector<4xf32> loc(#loc102)
    %accumulator_509 = llvm.insertelement %accumulator_505, %accumulator_508[%36 : i32] : vector<4xf32> loc(#loc102)
    %accumulator_510 = llvm.insertelement %accumulator_506, %accumulator_509[%39 : i32] : vector<4xf32> loc(#loc102)
    %accumulator_511 = rocdl.mfma.f32.16x16x16f16 %accumulator_466, %accumulator_418, %accumulator_510, %47, %47, %47 : (vector<4xf16>, vector<4xf16>, vector<4xf32>, i32, i32, i32) -> vector<4xf32> loc(#loc102)
    %accumulator_512 = rocdl.mfma.f32.16x16x16f16 %accumulator_478, %accumulator_430, %accumulator_511, %47, %47, %47 : (vector<4xf16>, vector<4xf16>, vector<4xf32>, i32, i32, i32) -> vector<4xf32> loc(#loc102)
    %accumulator_513 = rocdl.mfma.f32.16x16x16f16 %accumulator_490, %accumulator_442, %accumulator_512, %47, %47, %47 : (vector<4xf16>, vector<4xf16>, vector<4xf32>, i32, i32, i32) -> vector<4xf32> loc(#loc102)
    %accumulator_514 = rocdl.mfma.f32.16x16x16f16 %accumulator_502, %accumulator_454, %accumulator_513, %47, %47, %47 : (vector<4xf16>, vector<4xf16>, vector<4xf32>, i32, i32, i32) -> vector<4xf32> loc(#loc102)
    %accumulator_515 = llvm.extractelement %accumulator_514[%47 : i32] : vector<4xf32> loc(#loc102)
    %accumulator_516 = llvm.extractelement %accumulator_514[%45 : i32] : vector<4xf32> loc(#loc102)
    %accumulator_517 = llvm.extractelement %accumulator_514[%36 : i32] : vector<4xf32> loc(#loc102)
    %accumulator_518 = llvm.extractelement %accumulator_514[%39 : i32] : vector<4xf32> loc(#loc102)
    %accumulator_519 = llvm.insertvalue %accumulator_515, %43[0] : !llvm.struct<(f32, f32, f32, f32)>  loc(#loc102)
    %accumulator_520 = llvm.insertvalue %accumulator_516, %accumulator_519[1] : !llvm.struct<(f32, f32, f32, f32)>  loc(#loc102)
    %accumulator_521 = llvm.insertvalue %accumulator_517, %accumulator_520[2] : !llvm.struct<(f32, f32, f32, f32)>  loc(#loc102)
    %accumulator_522 = llvm.insertvalue %accumulator_518, %accumulator_521[3] : !llvm.struct<(f32, f32, f32, f32)>  loc(#loc102)
    %accumulator_523 = llvm.add %59, %45 : i32 loc(#loc111)
    %accumulator_524 = llvm.icmp "slt" %accumulator_523, %45 : i32 loc(#loc111)
    %accumulator_525 = llvm.select %accumulator_524, %accumulator_523, %47 : i1, i32 loc(#loc111)
    %a_526 = llvm.mul %accumulator_525, %21 : i32 loc(#loc72)
    %a_527 = llvm.getelementptr %22[%a_526] : (!llvm.ptr<3>, i32) -> !llvm.ptr<3>, f16 loc(#loc72)
    %a_528 = llvm.insertvalue %a_527, %20[0] : !llvm.struct<(ptr<3>, i32, i32)>  loc(#loc72)
    %a_529 = llvm.insertvalue %47, %a_528[1] : !llvm.struct<(ptr<3>, i32, i32)>  loc(#loc72)
    %a_530 = llvm.insertvalue %47, %a_529[2] : !llvm.struct<(ptr<3>, i32, i32)>  loc(#loc72)
    rocdl.s.waitcnt 49279 loc(#loc72)
    rocdl.s.barrier loc(#loc72)
    %a_531 = llvm.shl %a_1, %41 : i32 loc(#loc72)
    %a_532 = llvm.or %offs_am_23, %a_531 : i32 loc(#loc72)
    %a_533 = llvm.and %a_532, %51 : i32 loc(#loc72)
    %a_534 = llvm.shl %a_533, %46 : i32 loc(#loc72)
    %a_535 = llvm.and %a_532, %19 : i32 loc(#loc72)
    %a_536 = llvm.lshr %a_535, %47 : i32 loc(#loc72)
    %a_537 = llvm.xor %a_534, %a_536 : i32 loc(#loc72)
    %a_538 = llvm.or disjoint %47, %a_537 : i32 loc(#loc72)
    %a_539 = llvm.xor %47, %a_538 : i32 loc(#loc72)
    %a_540 = llvm.xor %a_539, %a_177 : i32 loc(#loc72)
    %a_541 = llvm.xor %a_540, %47 : i32 loc(#loc72)
    %a_542 = llvm.add %a_541, %47 : i32 loc(#loc72)
    %a_543 = llvm.getelementptr inbounds %a_527[%a_542] : (!llvm.ptr<3>, i32) -> !llvm.ptr<3>, i8 loc(#loc72)
    %a_544 = llvm.insertelement %a_264, %18[%47 : i32] : vector<4xf16> loc(#loc72)
    %a_545 = llvm.insertelement %a_265, %a_544[%45 : i32] : vector<4xf16> loc(#loc72)
    %a_546 = llvm.insertelement %a_266, %a_545[%36 : i32] : vector<4xf16> loc(#loc72)
    %a_547 = llvm.insertelement %a_267, %a_546[%39 : i32] : vector<4xf16> loc(#loc72)
    llvm.store %a_547, %a_543 {alignment = 8 : i64} : vector<4xf16>, !llvm.ptr<3> loc(#loc72)
    %a_548 = llvm.xor %a_540, %17 : i32 loc(#loc72)
    %a_549 = llvm.add %a_548, %47 : i32 loc(#loc72)
    %a_550 = llvm.getelementptr inbounds %a_527[%a_549] : (!llvm.ptr<3>, i32) -> !llvm.ptr<3>, i8 loc(#loc72)
    %a_551 = llvm.insertelement %a_268, %18[%47 : i32] : vector<4xf16> loc(#loc72)
    %a_552 = llvm.insertelement %a_269, %a_551[%45 : i32] : vector<4xf16> loc(#loc72)
    %a_553 = llvm.insertelement %a_270, %a_552[%36 : i32] : vector<4xf16> loc(#loc72)
    %a_554 = llvm.insertelement %a_271, %a_553[%39 : i32] : vector<4xf16> loc(#loc72)
    llvm.store %a_554, %a_550 {alignment = 8 : i64} : vector<4xf16>, !llvm.ptr<3> loc(#loc72)
    %b_555 = llvm.mul %accumulator_525, %16 : i32 loc(#loc71)
    %b_556 = llvm.getelementptr %b_162[%b_555] : (!llvm.ptr<3>, i32) -> !llvm.ptr<3>, f16 loc(#loc71)
    %b_557 = llvm.insertvalue %b_556, %20[0] : !llvm.struct<(ptr<3>, i32, i32)>  loc(#loc71)
    %b_558 = llvm.insertvalue %47, %b_557[1] : !llvm.struct<(ptr<3>, i32, i32)>  loc(#loc71)
    %b_559 = llvm.insertvalue %47, %b_558[2] : !llvm.struct<(ptr<3>, i32, i32)>  loc(#loc71)
    %b_560 = llvm.shl %b_0, %41 : i32 loc(#loc71)
    %b_561 = llvm.or %offs_am_23, %b_560 : i32 loc(#loc71)
    %b_562 = llvm.and %b_561, %51 : i32 loc(#loc71)
    %b_563 = llvm.shl %b_562, %39 : i32 loc(#loc71)
    %b_564 = llvm.or disjoint %b_563, %47 : i32 loc(#loc71)
    %b_565 = llvm.xor %47, %b_564 : i32 loc(#loc71)
    %b_566 = llvm.xor %b_565, %a_177 : i32 loc(#loc71)
    %b_567 = llvm.xor %b_566, %47 : i32 loc(#loc71)
    %b_568 = llvm.add %b_567, %47 : i32 loc(#loc71)
    %b_569 = llvm.getelementptr inbounds %b_556[%b_568] : (!llvm.ptr<3>, i32) -> !llvm.ptr<3>, i8 loc(#loc71)
    %b_570 = llvm.insertelement %b_324, %18[%47 : i32] : vector<4xf16> loc(#loc71)
    %b_571 = llvm.insertelement %b_325, %b_570[%45 : i32] : vector<4xf16> loc(#loc71)
    %b_572 = llvm.insertelement %b_326, %b_571[%36 : i32] : vector<4xf16> loc(#loc71)
    %b_573 = llvm.insertelement %b_327, %b_572[%39 : i32] : vector<4xf16> loc(#loc71)
    llvm.store %b_573, %b_569 {alignment = 8 : i64} : vector<4xf16>, !llvm.ptr<3> loc(#loc71)
    llvm.br ^bb1(%accumulator_256, %accumulator_522, %a_ptrs_243, %b_ptrs_255, %accumulator_525, %a_530, %b_559 : i32, !llvm.struct<(f32, f32, f32, f32)>, !llvm.struct<(i32, i32, i32, i32, i32, i32, i32, i32)>, !llvm.struct<(i32, i32, i32, i32)>, i32, !llvm.struct<(ptr<3>, i32, i32)>, !llvm.struct<(ptr<3>, i32, i32)>) loc(#loc111)
  ^bb3:  // pred: ^bb1
    %accumulator_574 = llvm.icmp "sge" %58, %45 : i32 loc(#loc111)
    rocdl.s.waitcnt 49279 loc(#loc72)
    rocdl.s.barrier loc(#loc72)
    %a_575 = llvm.extractvalue %a_217[0] : !llvm.struct<(ptr<3>, i32, i32)>  loc(#loc72)
    %a_576 = llvm.shl %a, %41 : i32 loc(#loc72)
    %a_577 = llvm.or %offs_am_23, %a_576 : i32 loc(#loc72)
    %a_578 = llvm.and %a_577, %38 : i32 loc(#loc72)
    %a_579 = llvm.shl %a_578, %34 : i32 loc(#loc72)
    %a_580 = llvm.and %a_577, %37 : i32 loc(#loc72)
    %a_581 = llvm.shl %a_580, %46 : i32 loc(#loc72)
    %a_582 = llvm.shl %a_578, %39 : i32 loc(#loc72)
    %a_583 = llvm.and %a_577, %15 : i32 loc(#loc72)
    %a_584 = llvm.lshr %a_583, %45 : i32 loc(#loc72)
    %a_585 = llvm.xor %a_581, %a_582 : i32 loc(#loc72)
    %a_586 = llvm.xor %a_585, %a_584 : i32 loc(#loc72)
    %a_587 = llvm.or disjoint %a_579, %a_586 : i32 loc(#loc72)
    %a_588 = llvm.xor %47, %a_587 : i32 loc(#loc72)
    %a_589 = llvm.xor %a_588, %a_177 : i32 loc(#loc72)
    %a_590 = llvm.xor %a_589, %47 : i32 loc(#loc72)
    %a_591 = llvm.add %a_590, %47 : i32 loc(#loc72)
    %a_592 = llvm.getelementptr inbounds %a_575[%a_591] : (!llvm.ptr<3>, i32) -> !llvm.ptr<3>, i8 loc(#loc72)
    %a_593 = llvm.load %a_592 : !llvm.ptr<3> -> vector<4xf16> loc(#loc72)
    %a_594 = llvm.extractelement %a_593[%47 : i32] : vector<4xf16> loc(#loc72)
    %a_595 = llvm.extractelement %a_593[%45 : i32] : vector<4xf16> loc(#loc72)
    %a_596 = llvm.extractelement %a_593[%36 : i32] : vector<4xf16> loc(#loc72)
    %a_597 = llvm.extractelement %a_593[%39 : i32] : vector<4xf16> loc(#loc72)
    %a_598 = llvm.xor %a_589, %49 : i32 loc(#loc72)
    %a_599 = llvm.add %a_598, %47 : i32 loc(#loc72)
    %a_600 = llvm.getelementptr inbounds %a_575[%a_599] : (!llvm.ptr<3>, i32) -> !llvm.ptr<3>, i8 loc(#loc72)
    %a_601 = llvm.load %a_600 : !llvm.ptr<3> -> vector<4xf16> loc(#loc72)
    %a_602 = llvm.extractelement %a_601[%47 : i32] : vector<4xf16> loc(#loc72)
    %a_603 = llvm.extractelement %a_601[%45 : i32] : vector<4xf16> loc(#loc72)
    %a_604 = llvm.extractelement %a_601[%36 : i32] : vector<4xf16> loc(#loc72)
    %a_605 = llvm.extractelement %a_601[%39 : i32] : vector<4xf16> loc(#loc72)
    %a_606 = llvm.xor %a_589, %52 : i32 loc(#loc72)
    %a_607 = llvm.add %a_606, %47 : i32 loc(#loc72)
    %a_608 = llvm.getelementptr inbounds %a_575[%a_607] : (!llvm.ptr<3>, i32) -> !llvm.ptr<3>, i8 loc(#loc72)
    %a_609 = llvm.load %a_608 : !llvm.ptr<3> -> vector<4xf16> loc(#loc72)
    %a_610 = llvm.extractelement %a_609[%47 : i32] : vector<4xf16> loc(#loc72)
    %a_611 = llvm.extractelement %a_609[%45 : i32] : vector<4xf16> loc(#loc72)
    %a_612 = llvm.extractelement %a_609[%36 : i32] : vector<4xf16> loc(#loc72)
    %a_613 = llvm.extractelement %a_609[%39 : i32] : vector<4xf16> loc(#loc72)
    %a_614 = llvm.xor %a_589, %14 : i32 loc(#loc72)
    %a_615 = llvm.add %a_614, %47 : i32 loc(#loc72)
    %a_616 = llvm.getelementptr inbounds %a_575[%a_615] : (!llvm.ptr<3>, i32) -> !llvm.ptr<3>, i8 loc(#loc72)
    %a_617 = llvm.load %a_616 : !llvm.ptr<3> -> vector<4xf16> loc(#loc72)
    %a_618 = llvm.extractelement %a_617[%47 : i32] : vector<4xf16> loc(#loc72)
    %a_619 = llvm.extractelement %a_617[%45 : i32] : vector<4xf16> loc(#loc72)
    %a_620 = llvm.extractelement %a_617[%36 : i32] : vector<4xf16> loc(#loc72)
    %a_621 = llvm.extractelement %a_617[%39 : i32] : vector<4xf16> loc(#loc72)
    %b_622 = llvm.extractvalue %b_218[0] : !llvm.struct<(ptr<3>, i32, i32)>  loc(#loc71)
    %b_623 = llvm.shl %b, %41 : i32 loc(#loc71)
    %b_624 = llvm.or %offs_am_23, %b_623 : i32 loc(#loc71)
    %b_625 = llvm.and %b_624, %15 : i32 loc(#loc71)
    %b_626 = llvm.shl %b_625, %46 : i32 loc(#loc71)
    %b_627 = llvm.and %b_624, %38 : i32 loc(#loc71)
    %b_628 = llvm.shl %b_627, %45 : i32 loc(#loc71)
    %b_629 = llvm.and %b_624, %52 : i32 loc(#loc71)
    %b_630 = llvm.icmp "eq" %b_629, %47 : i32 loc(#loc71)
    %b_631 = llvm.select %b_630, %47, %49 : i1, i32 loc(#loc71)
    %b_632 = llvm.xor %b_626, %b_628 : i32 loc(#loc71)
    %b_633 = llvm.or disjoint %b_631, %b_632 : i32 loc(#loc71)
    %b_634 = llvm.xor %47, %b_633 : i32 loc(#loc71)
    %b_635 = llvm.xor %b_634, %a_177 : i32 loc(#loc71)
    %b_636 = llvm.xor %b_635, %47 : i32 loc(#loc71)
    %b_637 = llvm.add %b_636, %47 : i32 loc(#loc71)
    %b_638 = llvm.getelementptr inbounds %b_622[%b_637] : (!llvm.ptr<3>, i32) -> !llvm.ptr<3>, i8 loc(#loc71)
    %b_639 = llvm.load %b_638 : !llvm.ptr<3> -> vector<1xf16> loc(#loc71)
    %b_640 = llvm.extractelement %b_639[%47 : i32] : vector<1xf16> loc(#loc71)
    %b_641 = llvm.add %b_636, %52 : i32 loc(#loc71)
    %b_642 = llvm.getelementptr inbounds %b_622[%b_641] : (!llvm.ptr<3>, i32) -> !llvm.ptr<3>, i8 loc(#loc71)
    %b_643 = llvm.load %b_642 : !llvm.ptr<3> -> vector<1xf16> loc(#loc71)
    %b_644 = llvm.extractelement %b_643[%47 : i32] : vector<1xf16> loc(#loc71)
    %b_645 = llvm.add %b_636, %13 : i32 loc(#loc71)
    %b_646 = llvm.getelementptr inbounds %b_622[%b_645] : (!llvm.ptr<3>, i32) -> !llvm.ptr<3>, i8 loc(#loc71)
    %b_647 = llvm.load %b_646 : !llvm.ptr<3> -> vector<1xf16> loc(#loc71)
    %b_648 = llvm.extractelement %b_647[%47 : i32] : vector<1xf16> loc(#loc71)
    %b_649 = llvm.add %b_636, %12 : i32 loc(#loc71)
    %b_650 = llvm.getelementptr inbounds %b_622[%b_649] : (!llvm.ptr<3>, i32) -> !llvm.ptr<3>, i8 loc(#loc71)
    %b_651 = llvm.load %b_650 : !llvm.ptr<3> -> vector<1xf16> loc(#loc71)
    %b_652 = llvm.extractelement %b_651[%47 : i32] : vector<1xf16> loc(#loc71)
    %b_653 = llvm.add %b_636, %11 : i32 loc(#loc71)
    %b_654 = llvm.getelementptr inbounds %b_622[%b_653] : (!llvm.ptr<3>, i32) -> !llvm.ptr<3>, i8 loc(#loc71)
    %b_655 = llvm.load %b_654 : !llvm.ptr<3> -> vector<1xf16> loc(#loc71)
    %b_656 = llvm.extractelement %b_655[%47 : i32] : vector<1xf16> loc(#loc71)
    %b_657 = llvm.add %b_636, %10 : i32 loc(#loc71)
    %b_658 = llvm.getelementptr inbounds %b_622[%b_657] : (!llvm.ptr<3>, i32) -> !llvm.ptr<3>, i8 loc(#loc71)
    %b_659 = llvm.load %b_658 : !llvm.ptr<3> -> vector<1xf16> loc(#loc71)
    %b_660 = llvm.extractelement %b_659[%47 : i32] : vector<1xf16> loc(#loc71)
    %b_661 = llvm.add %b_636, %9 : i32 loc(#loc71)
    %b_662 = llvm.getelementptr inbounds %b_622[%b_661] : (!llvm.ptr<3>, i32) -> !llvm.ptr<3>, i8 loc(#loc71)
    %b_663 = llvm.load %b_662 : !llvm.ptr<3> -> vector<1xf16> loc(#loc71)
    %b_664 = llvm.extractelement %b_663[%47 : i32] : vector<1xf16> loc(#loc71)
    %b_665 = llvm.add %b_636, %8 : i32 loc(#loc71)
    %b_666 = llvm.getelementptr inbounds %b_622[%b_665] : (!llvm.ptr<3>, i32) -> !llvm.ptr<3>, i8 loc(#loc71)
    %b_667 = llvm.load %b_666 : !llvm.ptr<3> -> vector<1xf16> loc(#loc71)
    %b_668 = llvm.extractelement %b_667[%47 : i32] : vector<1xf16> loc(#loc71)
    %b_669 = llvm.add %b_636, %16 : i32 loc(#loc71)
    %b_670 = llvm.getelementptr inbounds %b_622[%b_669] : (!llvm.ptr<3>, i32) -> !llvm.ptr<3>, i8 loc(#loc71)
    %b_671 = llvm.load %b_670 : !llvm.ptr<3> -> vector<1xf16> loc(#loc71)
    %b_672 = llvm.extractelement %b_671[%47 : i32] : vector<1xf16> loc(#loc71)
    %b_673 = llvm.add %b_636, %7 : i32 loc(#loc71)
    %b_674 = llvm.getelementptr inbounds %b_622[%b_673] : (!llvm.ptr<3>, i32) -> !llvm.ptr<3>, i8 loc(#loc71)
    %b_675 = llvm.load %b_674 : !llvm.ptr<3> -> vector<1xf16> loc(#loc71)
    %b_676 = llvm.extractelement %b_675[%47 : i32] : vector<1xf16> loc(#loc71)
    %b_677 = llvm.add %b_636, %6 : i32 loc(#loc71)
    %b_678 = llvm.getelementptr inbounds %b_622[%b_677] : (!llvm.ptr<3>, i32) -> !llvm.ptr<3>, i8 loc(#loc71)
    %b_679 = llvm.load %b_678 : !llvm.ptr<3> -> vector<1xf16> loc(#loc71)
    %b_680 = llvm.extractelement %b_679[%47 : i32] : vector<1xf16> loc(#loc71)
    %b_681 = llvm.add %b_636, %5 : i32 loc(#loc71)
    %b_682 = llvm.getelementptr inbounds %b_622[%b_681] : (!llvm.ptr<3>, i32) -> !llvm.ptr<3>, i8 loc(#loc71)
    %b_683 = llvm.load %b_682 : !llvm.ptr<3> -> vector<1xf16> loc(#loc71)
    %b_684 = llvm.extractelement %b_683[%47 : i32] : vector<1xf16> loc(#loc71)
    %b_685 = llvm.add %b_636, %4 : i32 loc(#loc71)
    %b_686 = llvm.getelementptr inbounds %b_622[%b_685] : (!llvm.ptr<3>, i32) -> !llvm.ptr<3>, i8 loc(#loc71)
    %b_687 = llvm.load %b_686 : !llvm.ptr<3> -> vector<1xf16> loc(#loc71)
    %b_688 = llvm.extractelement %b_687[%47 : i32] : vector<1xf16> loc(#loc71)
    %b_689 = llvm.add %b_636, %3 : i32 loc(#loc71)
    %b_690 = llvm.getelementptr inbounds %b_622[%b_689] : (!llvm.ptr<3>, i32) -> !llvm.ptr<3>, i8 loc(#loc71)
    %b_691 = llvm.load %b_690 : !llvm.ptr<3> -> vector<1xf16> loc(#loc71)
    %b_692 = llvm.extractelement %b_691[%47 : i32] : vector<1xf16> loc(#loc71)
    %b_693 = llvm.add %b_636, %2 : i32 loc(#loc71)
    %b_694 = llvm.getelementptr inbounds %b_622[%b_693] : (!llvm.ptr<3>, i32) -> !llvm.ptr<3>, i8 loc(#loc71)
    %b_695 = llvm.load %b_694 : !llvm.ptr<3> -> vector<1xf16> loc(#loc71)
    %b_696 = llvm.extractelement %b_695[%47 : i32] : vector<1xf16> loc(#loc71)
    %b_697 = llvm.add %b_636, %1 : i32 loc(#loc71)
    %b_698 = llvm.getelementptr inbounds %b_622[%b_697] : (!llvm.ptr<3>, i32) -> !llvm.ptr<3>, i8 loc(#loc71)
    %b_699 = llvm.load %b_698 : !llvm.ptr<3> -> vector<1xf16> loc(#loc71)
    %b_700 = llvm.extractelement %b_699[%47 : i32] : vector<1xf16> loc(#loc71)
    llvm.cond_br %accumulator_574, ^bb4, ^bb5 loc(#loc102)
  ^bb4:  // pred: ^bb3
    %accumulator_701 = llvm.insertelement %a_594, %18[%47 : i32] : vector<4xf16> loc(#loc102)
    %accumulator_702 = llvm.insertelement %a_595, %accumulator_701[%45 : i32] : vector<4xf16> loc(#loc102)
    %accumulator_703 = llvm.insertelement %a_596, %accumulator_702[%36 : i32] : vector<4xf16> loc(#loc102)
    %accumulator_704 = llvm.insertelement %a_597, %accumulator_703[%39 : i32] : vector<4xf16> loc(#loc102)
    %accumulator_705 = llvm.extractelement %accumulator_704[%47 : i32] : vector<4xf16> loc(#loc102)
    %accumulator_706 = llvm.insertelement %accumulator_705, %18[%47 : i32] : vector<4xf16> loc(#loc102)
    %accumulator_707 = llvm.extractelement %accumulator_704[%45 : i32] : vector<4xf16> loc(#loc102)
    %accumulator_708 = llvm.insertelement %accumulator_707, %accumulator_706[%45 : i32] : vector<4xf16> loc(#loc102)
    %accumulator_709 = llvm.extractelement %accumulator_704[%36 : i32] : vector<4xf16> loc(#loc102)
    %accumulator_710 = llvm.insertelement %accumulator_709, %accumulator_708[%36 : i32] : vector<4xf16> loc(#loc102)
    %accumulator_711 = llvm.extractelement %accumulator_704[%39 : i32] : vector<4xf16> loc(#loc102)
    %accumulator_712 = llvm.insertelement %accumulator_711, %accumulator_710[%39 : i32] : vector<4xf16> loc(#loc102)
    %accumulator_713 = llvm.insertelement %a_602, %18[%47 : i32] : vector<4xf16> loc(#loc102)
    %accumulator_714 = llvm.insertelement %a_603, %accumulator_713[%45 : i32] : vector<4xf16> loc(#loc102)
    %accumulator_715 = llvm.insertelement %a_604, %accumulator_714[%36 : i32] : vector<4xf16> loc(#loc102)
    %accumulator_716 = llvm.insertelement %a_605, %accumulator_715[%39 : i32] : vector<4xf16> loc(#loc102)
    %accumulator_717 = llvm.extractelement %accumulator_716[%47 : i32] : vector<4xf16> loc(#loc102)
    %accumulator_718 = llvm.insertelement %accumulator_717, %18[%47 : i32] : vector<4xf16> loc(#loc102)
    %accumulator_719 = llvm.extractelement %accumulator_716[%45 : i32] : vector<4xf16> loc(#loc102)
    %accumulator_720 = llvm.insertelement %accumulator_719, %accumulator_718[%45 : i32] : vector<4xf16> loc(#loc102)
    %accumulator_721 = llvm.extractelement %accumulator_716[%36 : i32] : vector<4xf16> loc(#loc102)
    %accumulator_722 = llvm.insertelement %accumulator_721, %accumulator_720[%36 : i32] : vector<4xf16> loc(#loc102)
    %accumulator_723 = llvm.extractelement %accumulator_716[%39 : i32] : vector<4xf16> loc(#loc102)
    %accumulator_724 = llvm.insertelement %accumulator_723, %accumulator_722[%39 : i32] : vector<4xf16> loc(#loc102)
    %accumulator_725 = llvm.insertelement %a_610, %18[%47 : i32] : vector<4xf16> loc(#loc102)
    %accumulator_726 = llvm.insertelement %a_611, %accumulator_725[%45 : i32] : vector<4xf16> loc(#loc102)
    %accumulator_727 = llvm.insertelement %a_612, %accumulator_726[%36 : i32] : vector<4xf16> loc(#loc102)
    %accumulator_728 = llvm.insertelement %a_613, %accumulator_727[%39 : i32] : vector<4xf16> loc(#loc102)
    %accumulator_729 = llvm.extractelement %accumulator_728[%47 : i32] : vector<4xf16> loc(#loc102)
    %accumulator_730 = llvm.insertelement %accumulator_729, %18[%47 : i32] : vector<4xf16> loc(#loc102)
    %accumulator_731 = llvm.extractelement %accumulator_728[%45 : i32] : vector<4xf16> loc(#loc102)
    %accumulator_732 = llvm.insertelement %accumulator_731, %accumulator_730[%45 : i32] : vector<4xf16> loc(#loc102)
    %accumulator_733 = llvm.extractelement %accumulator_728[%36 : i32] : vector<4xf16> loc(#loc102)
    %accumulator_734 = llvm.insertelement %accumulator_733, %accumulator_732[%36 : i32] : vector<4xf16> loc(#loc102)
    %accumulator_735 = llvm.extractelement %accumulator_728[%39 : i32] : vector<4xf16> loc(#loc102)
    %accumulator_736 = llvm.insertelement %accumulator_735, %accumulator_734[%39 : i32] : vector<4xf16> loc(#loc102)
    %accumulator_737 = llvm.insertelement %a_618, %18[%47 : i32] : vector<4xf16> loc(#loc102)
    %accumulator_738 = llvm.insertelement %a_619, %accumulator_737[%45 : i32] : vector<4xf16> loc(#loc102)
    %accumulator_739 = llvm.insertelement %a_620, %accumulator_738[%36 : i32] : vector<4xf16> loc(#loc102)
    %accumulator_740 = llvm.insertelement %a_621, %accumulator_739[%39 : i32] : vector<4xf16> loc(#loc102)
    %accumulator_741 = llvm.extractelement %accumulator_740[%47 : i32] : vector<4xf16> loc(#loc102)
    %accumulator_742 = llvm.insertelement %accumulator_741, %18[%47 : i32] : vector<4xf16> loc(#loc102)
    %accumulator_743 = llvm.extractelement %accumulator_740[%45 : i32] : vector<4xf16> loc(#loc102)
    %accumulator_744 = llvm.insertelement %accumulator_743, %accumulator_742[%45 : i32] : vector<4xf16> loc(#loc102)
    %accumulator_745 = llvm.extractelement %accumulator_740[%36 : i32] : vector<4xf16> loc(#loc102)
    %accumulator_746 = llvm.insertelement %accumulator_745, %accumulator_744[%36 : i32] : vector<4xf16> loc(#loc102)
    %accumulator_747 = llvm.extractelement %accumulator_740[%39 : i32] : vector<4xf16> loc(#loc102)
    %accumulator_748 = llvm.insertelement %accumulator_747, %accumulator_746[%39 : i32] : vector<4xf16> loc(#loc102)
    %accumulator_749 = llvm.insertelement %b_640, %18[%47 : i32] : vector<4xf16> loc(#loc102)
    %accumulator_750 = llvm.insertelement %b_644, %accumulator_749[%45 : i32] : vector<4xf16> loc(#loc102)
    %accumulator_751 = llvm.insertelement %b_648, %accumulator_750[%36 : i32] : vector<4xf16> loc(#loc102)
    %accumulator_752 = llvm.insertelement %b_652, %accumulator_751[%39 : i32] : vector<4xf16> loc(#loc102)
    %accumulator_753 = llvm.extractelement %accumulator_752[%47 : i32] : vector<4xf16> loc(#loc102)
    %accumulator_754 = llvm.insertelement %accumulator_753, %18[%47 : i32] : vector<4xf16> loc(#loc102)
    %accumulator_755 = llvm.extractelement %accumulator_752[%45 : i32] : vector<4xf16> loc(#loc102)
    %accumulator_756 = llvm.insertelement %accumulator_755, %accumulator_754[%45 : i32] : vector<4xf16> loc(#loc102)
    %accumulator_757 = llvm.extractelement %accumulator_752[%36 : i32] : vector<4xf16> loc(#loc102)
    %accumulator_758 = llvm.insertelement %accumulator_757, %accumulator_756[%36 : i32] : vector<4xf16> loc(#loc102)
    %accumulator_759 = llvm.extractelement %accumulator_752[%39 : i32] : vector<4xf16> loc(#loc102)
    %accumulator_760 = llvm.insertelement %accumulator_759, %accumulator_758[%39 : i32] : vector<4xf16> loc(#loc102)
    %accumulator_761 = llvm.insertelement %b_656, %18[%47 : i32] : vector<4xf16> loc(#loc102)
    %accumulator_762 = llvm.insertelement %b_660, %accumulator_761[%45 : i32] : vector<4xf16> loc(#loc102)
    %accumulator_763 = llvm.insertelement %b_664, %accumulator_762[%36 : i32] : vector<4xf16> loc(#loc102)
    %accumulator_764 = llvm.insertelement %b_668, %accumulator_763[%39 : i32] : vector<4xf16> loc(#loc102)
    %accumulator_765 = llvm.extractelement %accumulator_764[%47 : i32] : vector<4xf16> loc(#loc102)
    %accumulator_766 = llvm.insertelement %accumulator_765, %18[%47 : i32] : vector<4xf16> loc(#loc102)
    %accumulator_767 = llvm.extractelement %accumulator_764[%45 : i32] : vector<4xf16> loc(#loc102)
    %accumulator_768 = llvm.insertelement %accumulator_767, %accumulator_766[%45 : i32] : vector<4xf16> loc(#loc102)
    %accumulator_769 = llvm.extractelement %accumulator_764[%36 : i32] : vector<4xf16> loc(#loc102)
    %accumulator_770 = llvm.insertelement %accumulator_769, %accumulator_768[%36 : i32] : vector<4xf16> loc(#loc102)
    %accumulator_771 = llvm.extractelement %accumulator_764[%39 : i32] : vector<4xf16> loc(#loc102)
    %accumulator_772 = llvm.insertelement %accumulator_771, %accumulator_770[%39 : i32] : vector<4xf16> loc(#loc102)
    %accumulator_773 = llvm.insertelement %b_672, %18[%47 : i32] : vector<4xf16> loc(#loc102)
    %accumulator_774 = llvm.insertelement %b_676, %accumulator_773[%45 : i32] : vector<4xf16> loc(#loc102)
    %accumulator_775 = llvm.insertelement %b_680, %accumulator_774[%36 : i32] : vector<4xf16> loc(#loc102)
    %accumulator_776 = llvm.insertelement %b_684, %accumulator_775[%39 : i32] : vector<4xf16> loc(#loc102)
    %accumulator_777 = llvm.extractelement %accumulator_776[%47 : i32] : vector<4xf16> loc(#loc102)
    %accumulator_778 = llvm.insertelement %accumulator_777, %18[%47 : i32] : vector<4xf16> loc(#loc102)
    %accumulator_779 = llvm.extractelement %accumulator_776[%45 : i32] : vector<4xf16> loc(#loc102)
    %accumulator_780 = llvm.insertelement %accumulator_779, %accumulator_778[%45 : i32] : vector<4xf16> loc(#loc102)
    %accumulator_781 = llvm.extractelement %accumulator_776[%36 : i32] : vector<4xf16> loc(#loc102)
    %accumulator_782 = llvm.insertelement %accumulator_781, %accumulator_780[%36 : i32] : vector<4xf16> loc(#loc102)
    %accumulator_783 = llvm.extractelement %accumulator_776[%39 : i32] : vector<4xf16> loc(#loc102)
    %accumulator_784 = llvm.insertelement %accumulator_783, %accumulator_782[%39 : i32] : vector<4xf16> loc(#loc102)
    %accumulator_785 = llvm.insertelement %b_688, %18[%47 : i32] : vector<4xf16> loc(#loc102)
    %accumulator_786 = llvm.insertelement %b_692, %accumulator_785[%45 : i32] : vector<4xf16> loc(#loc102)
    %accumulator_787 = llvm.insertelement %b_696, %accumulator_786[%36 : i32] : vector<4xf16> loc(#loc102)
    %accumulator_788 = llvm.insertelement %b_700, %accumulator_787[%39 : i32] : vector<4xf16> loc(#loc102)
    %accumulator_789 = llvm.extractelement %accumulator_788[%47 : i32] : vector<4xf16> loc(#loc102)
    %accumulator_790 = llvm.insertelement %accumulator_789, %18[%47 : i32] : vector<4xf16> loc(#loc102)
    %accumulator_791 = llvm.extractelement %accumulator_788[%45 : i32] : vector<4xf16> loc(#loc102)
    %accumulator_792 = llvm.insertelement %accumulator_791, %accumulator_790[%45 : i32] : vector<4xf16> loc(#loc102)
    %accumulator_793 = llvm.extractelement %accumulator_788[%36 : i32] : vector<4xf16> loc(#loc102)
    %accumulator_794 = llvm.insertelement %accumulator_793, %accumulator_792[%36 : i32] : vector<4xf16> loc(#loc102)
    %accumulator_795 = llvm.extractelement %accumulator_788[%39 : i32] : vector<4xf16> loc(#loc102)
    %accumulator_796 = llvm.insertelement %accumulator_795, %accumulator_794[%39 : i32] : vector<4xf16> loc(#loc102)
    %accumulator_797 = llvm.extractvalue %accumulator_214[0] : !llvm.struct<(f32, f32, f32, f32)>  loc(#loc102)
    %accumulator_798 = llvm.extractvalue %accumulator_214[1] : !llvm.struct<(f32, f32, f32, f32)>  loc(#loc102)
    %accumulator_799 = llvm.extractvalue %accumulator_214[2] : !llvm.struct<(f32, f32, f32, f32)>  loc(#loc102)
    %accumulator_800 = llvm.extractvalue %accumulator_214[3] : !llvm.struct<(f32, f32, f32, f32)>  loc(#loc102)
    %accumulator_801 = llvm.insertelement %accumulator_797, %0[%47 : i32] : vector<4xf32> loc(#loc102)
    %accumulator_802 = llvm.insertelement %accumulator_798, %accumulator_801[%45 : i32] : vector<4xf32> loc(#loc102)
    %accumulator_803 = llvm.insertelement %accumulator_799, %accumulator_802[%36 : i32] : vector<4xf32> loc(#loc102)
    %accumulator_804 = llvm.insertelement %accumulator_800, %accumulator_803[%39 : i32] : vector<4xf32> loc(#loc102)
    %accumulator_805 = rocdl.mfma.f32.16x16x16f16 %accumulator_760, %accumulator_712, %accumulator_804, %47, %47, %47 : (vector<4xf16>, vector<4xf16>, vector<4xf32>, i32, i32, i32) -> vector<4xf32> loc(#loc102)
    %accumulator_806 = rocdl.mfma.f32.16x16x16f16 %accumulator_772, %accumulator_724, %accumulator_805, %47, %47, %47 : (vector<4xf16>, vector<4xf16>, vector<4xf32>, i32, i32, i32) -> vector<4xf32> loc(#loc102)
    %accumulator_807 = rocdl.mfma.f32.16x16x16f16 %accumulator_784, %accumulator_736, %accumulator_806, %47, %47, %47 : (vector<4xf16>, vector<4xf16>, vector<4xf32>, i32, i32, i32) -> vector<4xf32> loc(#loc102)
    %accumulator_808 = rocdl.mfma.f32.16x16x16f16 %accumulator_796, %accumulator_748, %accumulator_807, %47, %47, %47 : (vector<4xf16>, vector<4xf16>, vector<4xf32>, i32, i32, i32) -> vector<4xf32> loc(#loc102)
    %accumulator_809 = llvm.extractelement %accumulator_808[%47 : i32] : vector<4xf32> loc(#loc102)
    %accumulator_810 = llvm.extractelement %accumulator_808[%45 : i32] : vector<4xf32> loc(#loc102)
    %accumulator_811 = llvm.extractelement %accumulator_808[%36 : i32] : vector<4xf32> loc(#loc102)
    %accumulator_812 = llvm.extractelement %accumulator_808[%39 : i32] : vector<4xf32> loc(#loc102)
    %accumulator_813 = llvm.insertvalue %accumulator_809, %43[0] : !llvm.struct<(f32, f32, f32, f32)>  loc(#loc102)
    %accumulator_814 = llvm.insertvalue %accumulator_810, %accumulator_813[1] : !llvm.struct<(f32, f32, f32, f32)>  loc(#loc102)
    %accumulator_815 = llvm.insertvalue %accumulator_811, %accumulator_814[2] : !llvm.struct<(f32, f32, f32, f32)>  loc(#loc102)
    %accumulator_816 = llvm.insertvalue %accumulator_812, %accumulator_815[3] : !llvm.struct<(f32, f32, f32, f32)>  loc(#loc102)
    llvm.br ^bb6(%accumulator_816 : !llvm.struct<(f32, f32, f32, f32)>) loc(#loc102)
  ^bb5:  // pred: ^bb3
    llvm.br ^bb6(%accumulator_214 : !llvm.struct<(f32, f32, f32, f32)>) loc(#loc102)
  ^bb6(%accumulator_817: !llvm.struct<(f32, f32, f32, f32)> loc("accumulator"(#loc50))):  // 2 preds: ^bb4, ^bb5
    llvm.br ^bb7 loc(#loc102)
  ^bb7:  // pred: ^bb6
    %accumulator_818 = llvm.extractvalue %accumulator_817[0] : !llvm.struct<(f32, f32, f32, f32)>  loc(#loc111)
    %accumulator_819 = llvm.extractvalue %accumulator_817[1] : !llvm.struct<(f32, f32, f32, f32)>  loc(#loc111)
    %accumulator_820 = llvm.extractvalue %accumulator_817[2] : !llvm.struct<(f32, f32, f32, f32)>  loc(#loc111)
    %accumulator_821 = llvm.extractvalue %accumulator_817[3] : !llvm.struct<(f32, f32, f32, f32)>  loc(#loc111)
    %accumulator_822 = llvm.extractvalue %accumulator_214[0] : !llvm.struct<(f32, f32, f32, f32)>  loc(#loc111)
    %accumulator_823 = llvm.extractvalue %accumulator_214[1] : !llvm.struct<(f32, f32, f32, f32)>  loc(#loc111)
    %accumulator_824 = llvm.extractvalue %accumulator_214[2] : !llvm.struct<(f32, f32, f32, f32)>  loc(#loc111)
    %accumulator_825 = llvm.extractvalue %accumulator_214[3] : !llvm.struct<(f32, f32, f32, f32)>  loc(#loc111)
    %accumulator_826 = llvm.select %accumulator_574, %accumulator_818, %accumulator_822 : i1, f32 loc(#loc111)
    %accumulator_827 = llvm.select %accumulator_574, %accumulator_819, %accumulator_823 : i1, f32 loc(#loc111)
    %accumulator_828 = llvm.select %accumulator_574, %accumulator_820, %accumulator_824 : i1, f32 loc(#loc111)
    %accumulator_829 = llvm.select %accumulator_574, %accumulator_821, %accumulator_825 : i1, f32 loc(#loc111)
    %c = llvm.fptrunc %accumulator_826 : f32 to f16 loc(#loc103)
    %c_830 = llvm.fptrunc %accumulator_827 : f32 to f16 loc(#loc103)
    %c_831 = llvm.fptrunc %accumulator_828 : f32 to f16 loc(#loc103)
    %c_832 = llvm.fptrunc %accumulator_829 : f32 to f16 loc(#loc103)
    %c_ptrs = llvm.mul %stride_cm, %offs_am_20 : i32 loc(#loc104)
    %c_ptrs_833 = llvm.mul %stride_cm, %offs_am_42 : i32 loc(#loc105)
    %c_ptrs_834 = llvm.add %c_ptrs, %offs_bn_46 : i32 loc(#loc105)
    %c_ptrs_835 = llvm.add %c_ptrs_833, %offs_bn_54 : i32 loc(#loc105)
    %c_ptrs_836 = llvm.add %c_ptrs_834, %c_ptrs_835 : i32 loc(#loc105)
    %c_mask = llvm.icmp "slt" %offs_am_44, %M : i32 loc(#loc106)
    %c_mask_837 = llvm.icmp "slt" %offs_bn_69, %N : i32 loc(#loc107)
    %c_mask_838 = llvm.and %c_mask, %c_mask_837 : i1 loc(#loc108)
    %60 = rocdl.make.buffer.rsrc %c_ptr, %33, %31, %32 : <1> to <8> loc(#loc7)
    %61 = llvm.and %48, %c_mask_838 : i1 loc(#loc7)
    %62 = llvm.insertelement %c, %18[%47 : i32] : vector<4xf16> loc(#loc7)
    %63 = llvm.insertelement %c_830, %62[%45 : i32] : vector<4xf16> loc(#loc7)
    %64 = llvm.insertelement %c_831, %63[%36 : i32] : vector<4xf16> loc(#loc7)
    %65 = llvm.insertelement %c_832, %64[%39 : i32] : vector<4xf16> loc(#loc7)
    %66 = llvm.bitcast %65 : vector<4xf16> to vector<2xi32> loc(#loc7)
    %67 = llvm.mul %c_ptrs_836, %36 : i32 loc(#loc7)
    %68 = llvm.select %61, %67, %30 : i1, i32 loc(#loc7)
    rocdl.raw.ptr.buffer.store %66, %60, %68, %47, %47 : vector<2xi32> loc(#loc7)
    llvm.return loc(#loc57)
  } loc(#loc112)
} loc(#loc)
#di_basic_type = #llvm.di_basic_type<tag = DW_TAG_base_type, name = "half", sizeInBits = 16, encoding = DW_ATE_float>
#di_basic_type1 = #llvm.di_basic_type<tag = DW_TAG_base_type, name = "int", sizeInBits = 32, encoding = DW_ATE_signed>
#di_basic_type2 = #llvm.di_basic_type<tag = DW_TAG_base_type, name = "unknown_type", encoding = DW_ATE_signed>
#di_file = #llvm.di_file<"03-matrix-multiplication.py" in "/root/workspace/dsl-lab/triton/matmul">
#di_file1 = #llvm.di_file<"standard.py" in "/opt/venv/lib/python3.11/site-packages/triton/language">
#di_file2 = #llvm.di_file<"<unknown>" in "">
#di_null_type = #llvm.di_null_type
#loc2 = loc("/root/workspace/dsl-lab/triton/matmul/03-matrix-multiplication.py":289:60)
#loc3 = loc("/root/workspace/dsl-lab/triton/matmul/03-matrix-multiplication.py":287:51)
#loc6 = loc("/root/workspace/dsl-lab/triton/matmul/03-matrix-multiplication.py":258:27)
#loc7 = loc("/root/workspace/dsl-lab/triton/matmul/03-matrix-multiplication.py":320:21)
#loc10 = loc("/root/workspace/dsl-lab/triton/matmul/03-matrix-multiplication.py":290:29)
#loc11 = loc("/root/workspace/dsl-lab/triton/matmul/03-matrix-multiplication.py":286:51)
#loc12 = loc("/root/workspace/dsl-lab/triton/matmul/03-matrix-multiplication.py":256:24)
#loc13 = loc("/opt/venv/lib/python3.11/site-packages/triton/language/standard.py":43:17)
#loc14 = loc("/root/workspace/dsl-lab/triton/matmul/03-matrix-multiplication.py":257:27)
#loc15 = loc("/opt/venv/lib/python3.11/site-packages/triton/language/standard.py":43:30)
#loc16 = loc("/root/workspace/dsl-lab/triton/matmul/03-matrix-multiplication.py":259:38)
#loc17 = loc("/root/workspace/dsl-lab/triton/matmul/03-matrix-multiplication.py":260:22)
#loc18 = loc("/root/workspace/dsl-lab/triton/matmul/03-matrix-multiplication.py":261:29)
#loc19 = loc("/root/workspace/dsl-lab/triton/matmul/03-matrix-multiplication.py":262:35)
#loc20 = loc("/root/workspace/dsl-lab/triton/matmul/03-matrix-multiplication.py":262:48)
#loc21 = loc("/root/workspace/dsl-lab/triton/matmul/03-matrix-multiplication.py":263:34)
#loc22 = loc("/root/workspace/dsl-lab/triton/matmul/03-matrix-multiplication.py":263:54)
#loc23 = loc("/root/workspace/dsl-lab/triton/matmul/03-matrix-multiplication.py":263:27)
#loc24 = loc("/root/workspace/dsl-lab/triton/matmul/03-matrix-multiplication.py":264:40)
#loc25 = loc("/root/workspace/dsl-lab/triton/matmul/03-matrix-multiplication.py":270:14)
#loc26 = loc("/root/workspace/dsl-lab/triton/matmul/03-matrix-multiplication.py":271:14)
#loc27 = loc("/root/workspace/dsl-lab/triton/matmul/03-matrix-multiplication.py":272:14)
#loc28 = loc("/root/workspace/dsl-lab/triton/matmul/03-matrix-multiplication.py":273:14)
#loc29 = loc("/root/workspace/dsl-lab/triton/matmul/03-matrix-multiplication.py":274:14)
#loc30 = loc("/root/workspace/dsl-lab/triton/matmul/03-matrix-multiplication.py":275:14)
#loc31 = loc("/root/workspace/dsl-lab/triton/matmul/03-matrix-multiplication.py":276:14)
#loc32 = loc("/root/workspace/dsl-lab/triton/matmul/03-matrix-multiplication.py":277:14)
#loc33 = loc("/root/workspace/dsl-lab/triton/matmul/03-matrix-multiplication.py":286:23)
#loc34 = loc("/root/workspace/dsl-lab/triton/matmul/03-matrix-multiplication.py":286:38)
#loc35 = loc("/root/workspace/dsl-lab/triton/matmul/03-matrix-multiplication.py":286:68)
#loc36 = loc("/root/workspace/dsl-lab/triton/matmul/03-matrix-multiplication.py":287:23)
#loc37 = loc("/root/workspace/dsl-lab/triton/matmul/03-matrix-multiplication.py":287:38)
#loc38 = loc("/root/workspace/dsl-lab/triton/matmul/03-matrix-multiplication.py":287:68)
#loc40 = loc("/root/workspace/dsl-lab/triton/matmul/03-matrix-multiplication.py":298:33)
#loc42 = loc("/root/workspace/dsl-lab/triton/matmul/03-matrix-multiplication.py":301:51)
#loc44 = loc("/root/workspace/dsl-lab/triton/matmul/03-matrix-multiplication.py":302:51)
#loc45 = loc("/root/workspace/dsl-lab/triton/matmul/03-matrix-multiplication.py":307:33)
#loc46 = loc("/root/workspace/dsl-lab/triton/matmul/03-matrix-multiplication.py":306:18)
#loc47 = loc("/root/workspace/dsl-lab/triton/matmul/03-matrix-multiplication.py":307:18)
#loc48 = loc("/root/workspace/dsl-lab/triton/matmul/03-matrix-multiplication.py":301:59)
#loc49 = loc("/root/workspace/dsl-lab/triton/matmul/03-matrix-multiplication.py":301:55)
#loc51 = loc("/root/workspace/dsl-lab/triton/matmul/03-matrix-multiplication.py":312:23)
#loc52 = loc("/root/workspace/dsl-lab/triton/matmul/03-matrix-multiplication.py":318:21)
#loc53 = loc("/root/workspace/dsl-lab/triton/matmul/03-matrix-multiplication.py":318:52)
#loc54 = loc("/root/workspace/dsl-lab/triton/matmul/03-matrix-multiplication.py":319:33)
#loc55 = loc("/root/workspace/dsl-lab/triton/matmul/03-matrix-multiplication.py":319:58)
#loc56 = loc("/root/workspace/dsl-lab/triton/matmul/03-matrix-multiplication.py":319:39)
#loc57 = loc("/root/workspace/dsl-lab/triton/matmul/03-matrix-multiplication.py":320:4)
#di_compile_unit = #llvm.di_compile_unit<id = distinct[0]<>, sourceLanguage = DW_LANG_C, file = #di_file, producer = "triton", isOptimized = true, emissionKind = LineTablesOnly>
#di_derived_type = #llvm.di_derived_type<tag = DW_TAG_pointer_type, name = "pointer", baseType = #di_basic_type, sizeInBits = 64, dwarfAddressSpace = 1>
#di_derived_type1 = #llvm.di_derived_type<tag = DW_TAG_pointer_type, name = "pointer", baseType = #di_basic_type2, sizeInBits = 64, dwarfAddressSpace = 1>
#loc67 = loc("a_ptrs"(#loc2))
#loc68 = loc("offs_bn"(#loc3))
#loc70 = loc("num_pid_n"(#loc6))
#loc73 = loc("b_ptrs"(#loc10))
#loc74 = loc("offs_am"(#loc11))
#loc75 = loc("pid"(#loc12))
#loc76 = loc("num_pid_m"(#loc14))
#loc77 = loc("num_pid_in_group"(#loc16))
#loc78 = loc("group_id"(#loc17))
#loc79 = loc("first_pid_m"(#loc18))
#loc80 = loc("group_size_m"(#loc19))
#loc81 = loc("group_size_m"(#loc20))
#loc82 = loc("pid_m"(#loc21))
#loc83 = loc("pid_m"(#loc22))
#loc84 = loc("pid_m"(#loc23))
#loc85 = loc("pid_n"(#loc24))
#loc86 = loc("offs_am"(#loc33))
#loc87 = loc("offs_am"(#loc34))
#loc88 = loc("offs_am"(#loc35))
#loc89 = loc("offs_bn"(#loc36))
#loc90 = loc("offs_bn"(#loc37))
#loc91 = loc("offs_bn"(#loc38))
#loc94 = loc("a"(#loc42))
#loc96 = loc("b"(#loc44))
#loc97 = loc("b_ptrs"(#loc45))
#loc98 = loc("a_ptrs"(#loc46))
#loc99 = loc("b_ptrs"(#loc47))
#loc100 = loc("a"(#loc48))
#loc101 = loc("a"(#loc49))
#loc103 = loc("c"(#loc51))
#loc104 = loc("c_ptrs"(#loc52))
#loc105 = loc("c_ptrs"(#loc53))
#loc106 = loc("c_mask"(#loc54))
#loc107 = loc("c_mask"(#loc55))
#loc108 = loc("c_mask"(#loc56))
#di_subroutine_type = #llvm.di_subroutine_type<callingConvention = DW_CC_normal, types = #di_null_type, #di_derived_type, #di_derived_type, #di_derived_type, #di_basic_type1, #di_basic_type1, #di_basic_type1, #di_basic_type1, #di_basic_type1, #di_basic_type1, #di_derived_type1, #di_derived_type1>
#di_subprogram = #llvm.di_subprogram<recId = distinct[0]<>, id = distinct[1]<>, compileUnit = #di_compile_unit, scope = #di_file, name = "matmul_kernel", linkageName = "matmul_kernel", file = #di_file, line = 233, scopeLine = 233, subprogramFlags = "Definition|Optimized", type = #di_subroutine_type>
#di_lexical_block_file = #llvm.di_lexical_block_file<scope = #di_subprogram, file = #di_file1, discriminator = 0>
#di_lexical_block_file1 = #llvm.di_lexical_block_file<scope = #di_subprogram, file = #di_file, discriminator = 0>
#di_lexical_block_file2 = #llvm.di_lexical_block_file<scope = #di_subprogram, file = #di_file2, discriminator = 0>
#loc112 = loc(fused<#di_subprogram>[#loc])
#loc113 = loc(fused<#di_lexical_block_file>[#loc4])
#loc114 = loc(fused<#di_lexical_block_file1>[#loc69])
#loc115 = loc(fused<#di_lexical_block_file2>[#loc1])
#loc116 = loc(fused<#di_lexical_block_file1>[#loc70])
#loc117 = loc(fused<#di_lexical_block_file>[#loc13])
#loc118 = loc(fused<#di_lexical_block_file1>[#loc76])
#loc119 = loc(fused<#di_lexical_block_file>[#loc15])
#loc120 = loc(fused<#di_lexical_block_file1>[#loc40])
#loc121 = loc(callsite(#loc113 at #loc114))
#loc122 = loc(callsite(#loc115 at #loc116))
#loc123 = loc(callsite(#loc117 at #loc118))
#loc124 = loc(callsite(#loc119 at #loc118))
#loc125 = loc(callsite(#loc117 at #loc116))
#loc126 = loc(callsite(#loc119 at #loc116))
#loc127 = loc(callsite(#loc117 at #loc120))
#loc128 = loc(callsite(#loc119 at #loc120))


